model.pt (torch_old, 80679 bytes, 28 tensors)

weight f4 [10, 2]
1.3908179 -0.6978085 -1.1073021 0.3558363 1.3564421 -0.90447825 0.33121717 3.1981595
2.956783 -0.5339517 -1.0634538 -0.24509546 0.5288391 -0.46875814 -0.3975604 1.7792189
1.443463 -0.26282442 0.63468736 2.181565
00000000: 5206 b23f 94a3 32bf 13bc 8dbf 2d30 b63e
00000010: e59f ad3f e38b 67bf 4c95 a93e a5ae 4c40
00000020: ef3b 3d40 0fb1 08bf 411f 88bf 4efa 7abe
00000030: 0062 073f 1101 f0be 098d cbbe 72bd e33f
00000040: 65c3 b83f ec90 86be df7a 223f c39e 0b40

bias f4 [10]
-0.75013834 -0.4703099 -0.024814513 0.3944931 -0.31857416 0.18721014 0.7017346 0.25937647
-0.12148211 -0.31482407
00000000: 1109 40bf 76cc f0be ce47 cbbc 00fb c93e
00000010: 271c a3be 04b4 3f3e e1a4 333f fecc 843e
00000020: 9dcb f8bd 9f30 a1be

weight f4 [10]
1.0 1.0 1.0 1.0 1.0 1.0 1.0 1.0
1.0 1.0
00000000: 0000 803f 0000 803f 0000 803f 0000 803f
00000010: 0000 803f 0000 803f 0000 803f 0000 803f
00000020: 0000 803f 0000 803f

bias f4 [10]
0.0 0.0 0.0 0.0 0.0 0.0 0.0 0.0
0.0 0.0
00000000: 0000 0000 0000 0000 0000 0000 0000 0000
00000010: 0000 0000 0000 0000 0000 0000 0000 0000
00000020: 0000 0000 0000 0000

running_mean f4 [10]
0.0 0.0 0.0 0.0 0.0 0.0 0.0 0.0
0.0 0.0
00000000: 0000 0000 0000 0000 0000 0000 0000 0000
00000010: 0000 0000 0000 0000 0000 0000 0000 0000
00000020: 0000 0000 0000 0000

running_var f4 [10]
1.0 1.0 1.0 1.0 1.0 1.0 1.0 1.0
1.0 1.0
00000000: 0000 803f 0000 803f 0000 803f 0000 803f
00000010: 0000 803f 0000 803f 0000 803f 0000 803f
00000020: 0000 803f 0000 803f

weight f4 [40, 10]
0.9180621 -0.078060724 -0.124659486 0.22617225 -0.3256679 -0.524584 -0.13951328 -0.48848033
-0.07568616 -0.93675476 -0.23089051 0.053350665 0.0048548565 0.6361224 0.019944903 -0.16542558
-0.44903117 0.09082409 -0.5578028 -0.59244156 -0.13295212 0.48792127 0.6160269 0.945055
-0.26408282 0.029019754 -0.26881108 0.08885426 0.24207184 0.4136041 -0.36062422 -0.28151882
0.061751634 0.5923629 -0.6936018 0.281189 -0.14324616 -0.35833085 -0.092891484 -0.35292563
-0.36787757 -0.7000432 0.3284327 0.37314215 1.2095809 -0.34007773 -0.032198053 -0.42965043
0.6903198 0.7774449 0.78802085 0.77789426 -0.711296 -0.051489096 1.0145366 -0.1545332
0.4343196 -0.3940758 -0.26992416 0.9584537 0.95327824 -0.032520615 0.5861251 -0.21237566
0.3724976 -0.46343234 0.22493336 0.03774533 -0.06253201 -0.2374137 -0.2742843 -1.1640657
0.37665263 0.16233218 0.41629863 0.64830214 -0.07040357 -0.4787551 -0.023082212 0.2026158
-0.026133483 -0.40803936 -0.097749926 1.0001316 0.37543064 0.44043705 -0.8394363 0.14621753
0.5010342 0.3358567 0.03920457 -0.76551163 -0.018348766 0.30864406 0.979168 -0.22790849
0.09004279 -0.67348474 0.48407435 -0.8671032 -0.6314998 0.478112 -0.10947315 -0.21433248
-0.020523544 0.36652538 0.61664975 -0.52378887 0.3394741 0.21012098 -0.6637445 -0.003378457
-0.06951176 -0.075026624 -0.56596535 0.25118196 -0.8644555 0.3912699 0.043657158 0.5812887
0.06936653 -0.6740391 -0.10786853 0.081198186 0.21390297 -0.23477481 -0.89788425 -0.2962603
-0.5595316 0.49170992 0.17974412 -0.2619273 -0.5492609 -0.10203371 -0.17768386 -0.30633214
-0.27937412 -0.87421197 -0.9263854 -0.24970841 -0.14943945 0.07198191 -0.094802536 0.33260214
-0.3773776 0.5210191 0.5151523 -0.28055808 0.08587497 1.4776107 -0.15410177 0.8389055
-0.7793195 0.37982637 -0.4509554 0.15561685 -0.20691898 0.065328345 0.35682806 -0.46060327
0.18726265 0.11774965 -0.09067264 -0.14239366 0.6306531 0.3298156 -0.17543161 -0.29379845
0.045536395 0.4391511 -0.14533931 -0.10414378 0.16363749 -0.23520724 8.5739346e-05 0.058953818
0.10432901 0.84107006 0.51013297 -0.7444955 0.3697768 0.13041136 -0.21428376 -0.8306501
-0.060378123 -0.25968233 0.4976996 -0.34049332 -0.20855457 -0.71492445 -0.059299827 -0.31038043
0.09596389 0.681533 0.1514942 -0.057352792 -0.6250387 -0.038114715 0.40738636 -0.4736777
-0.5429417 0.22749193 0.47319472 -0.50218534 -0.26400352 -0.35076326 -0.2706763 -0.81942725
0.17192805 -0.14242046 -0.11295967 0.037859723 0.062799424 -0.39352605 0.42923555 -0.18253013
-0.50251544 -0.08353528 -0.2671079 -0.1927471 0.6079381 -0.21910775 -0.3774244 0.109430976
-0.51258045 0.32820562 0.26762402 0.86199003 -0.45807353 -0.6959847 -0.41943428 -0.23719434
-0.014619179 -0.3638936 0.14795674 0.5998882 -0.2980521 -0.28700098 1.2527883 0.39167556
-0.32976732 0.12250497 0.3966387 0.6573551 0.88636714 0.028872615 -0.1609797 -0.882317
-0.0004822053 -0.3700696 -0.28231186 -1.0365674 -0.40952376 0.089394145 0.02909704 -0.43933833
00000000: 1e06 6b3f 4dde 9fbd 794d ffbd b399 673e
00000010: f1bd a6be 234b 06bf 92dc 0ebe 181a fabe
00000020: 5801 9bbd 29cf 6fbf 906e 6cbe 3a86 5a3d
00000030: 7d15 9f3b ebd8 223f 7e63 a33c 5365 29be
00000040: 6ae7 e5be fb01 ba3d 2acc 0ebf 40aa 17bf
00000050: 9a24 08be d1d0 f93e f0b3 1d3f 20ef 713f
00000060: dd35 87be d6ba ed3c 9ba1 89be 39f9 b53d
00000070: aee1 773e ebc3 d33e bda3 b8be 3c23 90be
00000080: 48ef 7c3d 18a5 173f e38f 31bf 01f8 8f3e
00000090: 1faf 12be 2477 b7be e43d bebd abb2 b4be
000000a0: 735a bcbe 0836 33bf 5528 a83e 7d0c bf3e
000000b0: 8cd3 9a3f ab1e aebe 1be2 03bd 24fb dbbe
000000c0: ccb8 303f a106 473f bcbb 493f 1424 473f
000000d0: 7f17 36bf 3be6 52bd 56dc 813f f43d 1ebe
000000e0: 235f de3e 4ec4 c9be 8033 8abe 395d 753f
000000f0: 0b0a 743f 5634 05bd 4b0c 163f 0179 59be
00000100: 01b8 be3e 0147 edbe ee54 663e d99a 1a3d
00000110: c810 80bd 941c 73be fe6e 8cbe 1b00 95bf
00000120: 9dd8 c03e 683a 263e 1825 d53e 21f7 253f
00000130: bf2f 90bd 631f f5be e816 bdbc 847a 4f3e
00000140: e315 d6bc 89ea d0be 1d31 c8bd 5004 803f
00000150: 7238 c03e f780 e13e 4ce5 56bf 0cba 153e
00000160: c743 003f 69f5 ab3e f994 203d 92f8 43bf
00000170: 2750 96bc 9806 9e3e c1aa 7a3f d860 69be
00000180: 5b68 b83d 7f69 2cbf 98d8 f73e 7afa 5dbf
00000190: f9a9 21bf 19cb f43e 7533 e0bd f979 5bbe
000001a0: fe20 a8bc 37a9 bb3e c2dc 1d3f 0717 06bf
000001b0: 8dcf ad3e f429 573e 29eb 29bf 1a69 5dbb
000001c0: 2e5c 8ebd 8fa7 99bd 1be3 10bf ec9a 803e
000001d0: f54c 5dbf 8754 c83e d9d1 323d 56cf 143f
000001e0: 0a10 8e3d d48d 2cbf 2dea dcbd 3c4b a63d
000001f0: 6109 5b3e cf68 70be bedb 65bf 6eaf 97be
00000200: 773d 0fbf 67c1 fb3e d80e 383e 561b 86be
00000210: 5d9c 0cbf 0df7 d0bd c2f2 35be 91d7 9cbe
00000220: 200a 8fbe 5bcc 5fbf 9827 6dbf 90b3 7fbe
00000230: a806 19be 406b 933d d527 c2bd d44a aa3e
00000240: a337 c1be 8261 053f 05e1 033f 4fa5 8fbe
00000250: 37df af3d 5922 bd3f dbcc 1dbe 83c2 563f
00000260: 7c81 47bf 9a78 c23e a0e3 e6be 065a 1f3e
00000270: 92e2 53be deca 853d 2bb2 b63e 31d4 ebbe
00000280: c8c1 3f3e ba26 f13d 94b2 b9bd a5cf 11be
00000290: 7b72 213f 97dd a83e 58a4 33be c06c 96be
000002a0: 5f84 3a3d 6ad8 e03e d4d3 14be 5649 d5bd
000002b0: 9690 273e 2bda 70be f6ce b338 8f79 713d
000002c0: 73aa d53d 5e50 573f 1398 023f 4297 3ebf
000002d0: 6253 bd3e 8e8a 053e 346d 5bbe 7ca5 54bf
000002e0: 0d4f 77bd 15f5 84be 7bd2 fe3e 2455 aebe
000002f0: 548f 55be 4a05 37bf 60e4 72bd 2fea 9ebe
00000300: b788 c43d f278 2e3f 4c21 1b3e c3ea 6abd
00000310: 8902 20bf 2d1e 1cbd f294 d03e e285 f2be
00000320: 3afe 0abf a5f3 683e 9446 f23e 388f 00bf
00000330: 782b 87be 3e97 b3be 1696 8abe fcc5 51bf
00000340: e80d 303e abd6 11be 6657 e7bd cc12 1b3d
00000350: fc9c 803d 3f7c c9be c3c4 db3e 2ee9 3abe
00000360: daa4 00bf 8b14 abbd 5ec2 88be 7f5f 45be
00000370: d5a1 1b3f c85d 60be c53d c1be 591d e03d
00000380: 7938 03bf 910a a83e 0406 893e 61ab 5c3f
00000390: 9d88 eabe 0e2c 32bf 17c0 d6be 13e3 72be
000003a0: 4885 6fbc 4350 babe f981 173e 4692 193f
000003b0: 499a 98be cbf1 92be 5e5b a03f b389 c83e
000003c0: 43d7 a8be e3e3 fa3d 3a14 cb3e 6d48 283f
000003d0: f5e8 623f 4386 ec3c ddd7 24be 87df 61bf
000003e0: 80d0 fcb9 c379 bdbe 2e8b 90be 3eae 84bf
000003f0: 19ad d1be 4714 b73d ea5c ee3c f4f0 e0be

bias f4 [40]
0.13181391 0.19697854 -0.23584957 -0.08409035 0.23435241 -0.19851582 0.16437075 0.043450117
0.15880108 -0.12993944 0.07163034 0.2378622 0.0021859407 -0.28162128 -0.21693781 0.1716407
0.24880551 -0.29361266 -0.15296899 0.07596219 -0.29349852 -0.26716062 -0.025487125 0.16007997
0.056211285 -0.20655948 0.07787955 0.11664363 0.22784927 0.33948192 0.20823452 -0.06271914
-0.08276971 0.023974678 -0.22856936 0.062401026 -0.03406522 0.05905172 -0.07499042 -0.25708064
00000000: 3afa 063e beb4 493e 8d82 71be 9037 acbd
00000010: 14fa 6f3e bb47 4bbe ce50 283e c0f8 313d
00000020: c09c 223e d80e 05be edb2 923d 2692 733e
00000030: 0042 0f3b aa30 90be f224 5ebe 94c2 2f3e
00000040: dfc6 7e3e 6654 96be e7a3 1cbe 1192 9b3d
00000050: 7045 96be 47c9 88be 60ca d0bc 01ec 233e
00000060: ce3d 663d 5484 53be 507f 9f3d dbe2 ee3d
00000070: 5251 693e 93d0 ad3e 6e3b 553e e472 80bd
00000080: 2a83 a9bd 8b66 c43c 160e 6abe 3898 7f3d
00000090: f987 0bbd 37e0 713d 9494 99bd 13a0 83be

weight f4 [40]
1.0 1.0 1.0 1.0 1.0 1.0 1.0 1.0
1.0 1.0 1.0 1.0 1.0 1.0 1.0 1.0
1.0 1.0 1.0 1.0 1.0 1.0 1.0 1.0
1.0 1.0 1.0 1.0 1.0 1.0 1.0 1.0
1.0 1.0 1.0 1.0 1.0 1.0 1.0 1.0
00000000: 0000 803f 0000 803f 0000 803f 0000 803f
00000010: 0000 803f 0000 803f 0000 803f 0000 803f
00000020: 0000 803f 0000 803f 0000 803f 0000 803f
00000030: 0000 803f 0000 803f 0000 803f 0000 803f
00000040: 0000 803f 0000 803f 0000 803f 0000 803f
00000050: 0000 803f 0000 803f 0000 803f 0000 803f
00000060: 0000 803f 0000 803f 0000 803f 0000 803f
00000070: 0000 803f 0000 803f 0000 803f 0000 803f
00000080: 0000 803f 0000 803f 0000 803f 0000 803f
00000090: 0000 803f 0000 803f 0000 803f 0000 803f

bias f4 [40]
0.0 0.0 0.0 0.0 0.0 0.0 0.0 0.0
0.0 0.0 0.0 0.0 0.0 0.0 0.0 0.0
0.0 0.0 0.0 0.0 0.0 0.0 0.0 0.0
0.0 0.0 0.0 0.0 0.0 0.0 0.0 0.0
0.0 0.0 0.0 0.0 0.0 0.0 0.0 0.0
00000000: 0000 0000 0000 0000 0000 0000 0000 0000
00000010: 0000 0000 0000 0000 0000 0000 0000 0000
00000020: 0000 0000 0000 0000 0000 0000 0000 0000
00000030: 0000 0000 0000 0000 0000 0000 0000 0000
00000040: 0000 0000 0000 0000 0000 0000 0000 0000
00000050: 0000 0000 0000 0000 0000 0000 0000 0000
00000060: 0000 0000 0000 0000 0000 0000 0000 0000
00000070: 0000 0000 0000 0000 0000 0000 0000 0000
00000080: 0000 0000 0000 0000 0000 0000 0000 0000
00000090: 0000 0000 0000 0000 0000 0000 0000 0000

running_mean f4 [40]
0.0 0.0 0.0 0.0 0.0 0.0 0.0 0.0
0.0 0.0 0.0 0.0 0.0 0.0 0.0 0.0
0.0 0.0 0.0 0.0 0.0 0.0 0.0 0.0
0.0 0.0 0.0 0.0 0.0 0.0 0.0 0.0
0.0 0.0 0.0 0.0 0.0 0.0 0.0 0.0
00000000: 0000 0000 0000 0000 0000 0000 0000 0000
00000010: 0000 0000 0000 0000 0000 0000 0000 0000
00000020: 0000 0000 0000 0000 0000 0000 0000 0000
00000030: 0000 0000 0000 0000 0000 0000 0000 0000
00000040: 0000 0000 0000 0000 0000 0000 0000 0000
00000050: 0000 0000 0000 0000 0000 0000 0000 0000
00000060: 0000 0000 0000 0000 0000 0000 0000 0000
00000070: 0000 0000 0000 0000 0000 0000 0000 0000
00000080: 0000 0000 0000 0000 0000 0000 0000 0000
00000090: 0000 0000 0000 0000 0000 0000 0000 0000

running_var f4 [40]
1.0 1.0 1.0 1.0 1.0 1.0 1.0 1.0
1.0 1.0 1.0 1.0 1.0 1.0 1.0 1.0
1.0 1.0 1.0 1.0 1.0 1.0 1.0 1.0
1.0 1.0 1.0 1.0 1.0 1.0 1.0 1.0
1.0 1.0 1.0 1.0 1.0 1.0 1.0 1.0
00000000: 0000 803f 0000 803f 0000 803f 0000 803f
00000010: 0000 803f 0000 803f 0000 803f 0000 803f
00000020: 0000 803f 0000 803f 0000 803f 0000 803f
00000030: 0000 803f 0000 803f 0000 803f 0000 803f
00000040: 0000 803f 0000 803f 0000 803f 0000 803f
00000050: 0000 803f 0000 803f 0000 803f 0000 803f
00000060: 0000 803f 0000 803f 0000 803f 0000 803f
00000070: 0000 803f 0000 803f 0000 803f 0000 803f
00000080: 0000 803f 0000 803f 0000 803f 0000 803f
00000090: 0000 803f 0000 803f 0000 803f 0000 803f

weight f4 [100, 40]
-0.33257374 -0.35026717 -0.32545298 0.26131862 0.23841871 -0.30219945 -0.44938412 0.03404185
-0.16899464 -0.07281233 0.17083459 -0.34320465 0.1452892 -0.3015736 0.047335427 0.13828117
0.30522117 -0.10524583 0.14826752 -0.081832916 -0.19600122 0.04186859 -0.047679484 0.05049524
0.013505431 0.35808086 0.1077092 -0.105007045 0.3984429 0.29435107 0.00026568386 0.40831217
-0.06705429 0.051690873 0.03621899 -0.13928 -0.07094242 -0.20012598 0.20483384 0.289016
0.19882251 0.15246421 0.29652366 -0.22255196 -0.00464581 0.07198643 0.50283 -0.13414457
0.061806414 -0.39973718 0.022545047 -0.04151374 -0.024038259 0.005553982 -0.11759789 0.19859205
0.053316966 -0.020715974 0.42400783 -0.33218244 0.16862871 0.0021683744 -0.02080977 0.49041653
0.24306858 -0.024539582 -0.16365387 -0.23050089 0.15913536 -0.03729889 0.02655045 -0.04899433
-0.1600807 -0.28404278 0.10340664 -0.2563811 0.10489077 -0.17131267 -0.35211363 -0.23803133
-0.24883313 0.11175913 -0.325015 0.27416375 -0.08364061 -0.009943676 0.21978277 -0.0012816895
0.002093434 0.02983944 0.14123563 -0.19016802 -0.04684618 -0.13615815 -0.5277084 -0.06015209
0.29369092 0.49416456 0.109469116 -0.029618068 -0.10094494 0.1555865 0.3146161 0.10357268
-0.07539639 -0.15388662 0.18205155 0.04093881 0.13539752 -0.22116636 0.15253465 -0.03449136
-0.0090038 0.15166101 -0.059669074 -0.0012987839 0.10882139 0.08490879 -0.010395035 -0.24625635
0.15309237 -0.5061828 0.2905785 0.20602039 0.2129705 -0.17065646 0.052325036 0.19299819
-0.0043582185 0.13880636 0.28162393 -0.18595648 -0.05444962 -0.095838375 0.2166424 -0.28268847
0.047273397 -0.13733087 -0.2335663 0.14036891 0.31880113 0.02039698 -0.23678088 0.19473353
-0.21586934 0.24268697 -0.14316177 -0.2350517 0.20162916 -0.22436382 0.5821978 -0.016245436
0.5247088 -0.3833183 0.10303759 -0.12954588 0.06294179 -0.43422294 0.3527673 -0.24192797
0.14972451 -0.002829503 -0.10995782 0.30586505 0.06717631 -0.10115768 -0.2999744 0.17442153
0.06591447 0.23212677 -0.058517918 0.017349433 0.027056403 0.13554284 -0.22779065 0.74387497
0.2545039 0.49221787 0.42358387 -0.040246774 -0.24453056 0.06830745 0.30616707 0.3700287
-0.27501848 -0.471386 -0.40104336 0.09254682 0.22049291 -0.18350579 0.32412487 -0.17763866
0.27026692 0.23952171 0.009403348 0.47791794 0.18695073 0.04754981 -0.53453195 -0.038160805
0.056434147 -0.15459345 -0.119499005 0.025882669 0.17584121 -0.4574499 0.0508936 -0.022917781
-0.27953357 0.30188364 0.40308464 0.035546716 -0.06635566 0.41487214 -0.30363703 0.11308658
0.042499717 0.7695084 -0.112788364 -0.12712906 -0.02880674 -0.15204808 0.29940873 0.27151486
-0.06761478 -0.032948118 -0.3175839 0.33431634 0.029917054 0.36318818 0.23541036 -0.045635555
0.3033255 0.1519887 0.5603236 0.052967303 -0.2774567 0.12646669 -0.16346999 0.28271908
0.12945081 -0.2116875 -0.26282412 0.07230607 -0.06826089 -0.09292565 -0.07643266 0.07003381
-0.40322724 0.15112533 -0.44604564 -0.03114127 0.021561243 0.37316567 0.24861991 0.4629636
00000000: 1b47 aabe 3856 b3be c6a1 a6be 8ecb 853e
00000010: 0924 743e e3b9 9abe ad15 e6be 786f 0b3d
00000020: ee0c 2dbe a21e 95bd 43ef 2e3e 85b8 afbe
00000030: b1c6 143e db67 9abe cbe2 413d 9499 0d3e
00000040: f345 9c3e 208b d7bd 71d3 173e 0498 a7bd
00000050: 8bb4 48be 667e 2b3d 904b 43bd 19d4 4e3d
00000060: e245 5d3c 6056 b73e a496 dc3d ef0d d7bd
00000070: b500 cc3e 2fb5 963e 7c4b 8b39 4b0e d13e
00000080: c253 89bd cfb9 533d 5d5a 143d 6b9f 0ebe
00000090: 424a 91bd d3ed 4cbe f6bf 513e e8f9 933e
000000a0: 2198 4b3e 941f 1c3e f3d1 973e a9e4 63be
000000b0: e13b 98bb 9f6d 933d 78b9 003f 325d 09be
000000c0: b928 7d3d 5aaa ccbe 64b0 b83c 500a 2abd
000000d0: e2eb c4bc 2efe b53b 2ad7 f0bd b75b 4b3e
000000e0: e462 5a3d 8cb4 a9bc 8e17 d93e d113 aabe
000000f0: 01ad 2c3e 491b 0e3b 4079 aabc e017 fb3e
00000100: f8e6 783e 3c07 c9bc e194 27be 6d08 6cbe
00000110: 61f4 223e b9c6 18bd 5480 d93c 47ae 48bd
00000120: 32ec 23be 0e6e 91be dcc6 d33d 6244 83be
00000130: f9d0 d63d 976c 2fbe 3d48 b4be 7cbe 73be
00000140: 1dce 7ebe f9e1 e43d 5e68 a6be 315f 8c3e
00000150: c54b abbd cdea 22bc bc0e 613e 5dfe a7ba
00000160: ff31 093b d771 f43c 13a0 103e 68bb 42be
00000170: c8e1 3fbd 0b6d 0bbe e617 07bf 0a62 76bd
00000180: a85e 963e 2303 fd3e 5831 e03d 97a1 f2bc
00000190: 38bc cebd 1152 1f3e 5d15 a13e ea1d d43d
000001a0: 6c69 9abd 7494 1dbe b96b 3a3e 74af 273d
000001b0: a6a5 0a3e 6f79 62be 0b32 1c3e d046 0dbd
000001c0: ad84 13bc 064d 1b3e 8f67 74bd f53b aaba
000001d0: c0dd de3d a9e4 ad3d f04f 2abc a02a 7cbe
000001e0: 3fc4 1c3e 3295 01bf b5c6 943e 02f7 523e
000001f0: f014 5a3e 91c0 2ebe c752 563d 51a1 453e
00000200: 63cf 8ebb 4123 0e3e 0331 903e 606b 3ebe
00000210: 9106 5fbd e946 c4bd 81d7 5d3e 8bbc 90be
00000220: c0a1 413d 77a0 0cbe 012c 6fbe debc 0f3e
00000230: e739 a33e 9117 a73c b076 72be 3a68 473e
00000240: da0c 5dbe ef82 783e 0099 12be 65b1 70be
00000250: e077 4e3e a1bf 65be ea0a 153f 2615 85bc
00000260: 5153 063f 4c42 c4be 5f05 d33d ada7 04be
00000270: a0e7 803d 7852 debe ea9d b43e f7bb 77be
00000280: 6251 193e 2f6f 39bb 9131 e1bd 589a 9c3e
00000290: bc93 893d c22b cfbd 3f96 99be 8f9b 323e
000002a0: 2afe 863d a4b2 6d3e 7cb0 6fbd 6620 8e3c
000002b0: 64a5 dd3c becb 0a3e f441 69be 976e 3e3f
000002c0: 564e 823e fb03 fc3e fcdf d83e cdd9 24bd
000002d0: 3866 7abe c7e4 8b3d eec1 9c3e 6774 bd3e
000002e0: 39cf 8cbe 8159 f1be 8e55 cdbe 3089 bd3d
000002f0: e5c8 613e f1e8 3bbe b2f3 a53e e9e6 35be
00000300: 6d60 8a3e 2e45 753e 8010 1a3c a9b1 f43e
00000310: 0370 3f3e 97c3 423d 16d7 08bf 814e 1cbd
00000320: 7e27 673d bf4d 1ebe e5bb f4bd e407 d43c
00000330: b80f 343e e036 eabe cf75 503d 12be bbbc
00000340: 061f 8fbe 7e90 9a3e 1c61 ce3e 6f99 113d
00000350: 7ae5 87bd 1f6a d43e 5076 9bbe f099 e73d
00000360: 2f14 2e3d 81fe 443f 96fd e6bd 1f2e 02be
00000370: 1dfc ebbc 7eb2 1bbe 1a4c 993e ff03 8b3e
00000380: 9e79 8abd 9bf4 06bd 5b9a a2be 832b ab3e
00000390: 9c14 f53c cdf3 b93e 6a0f 713e 59ec 3abd
000003a0: 7b4d 9b3e eda2 1b3e 5e71 0f3f 3ef4 583d
000003b0: ce0e 8ebe 7c80 013e ad64 27be 8ec0 903e
000003c0: c18e 043e 9cc4 58be e290 86be 3415 943d
000003d0: 5ecc 8bbd ce4f bebd ba88 9cbd e36d 8f3d
000003e0: cd73 cebe 99c0 1a3e 1860 e4be fa1b ffbc
000003f0: 34a1 b03c 920f bf3e 3896 7e3e 9109 ed3e

bias f4 [100]
-0.05309307 -0.118245624 -0.100134835 -0.15629089 -0.17071399 0.18801159 -0.043100167 0.001858635
0.12203787 0.023029342 0.084801346 -0.10326497 0.15642513 -0.013174713 -0.088476315 0.012702411
0.13654433 -0.17118886 0.16962747 0.03379787 -0.051903002 -0.060003318 -0.07131765 0.040064692
-0.03992009 -0.028312385 -0.018124547 0.06894457 -0.14853123 0.018688187 -0.102039665 -0.12749507
-0.08760465 0.13221623 0.13922906 -0.05040983 0.049405918 0.092819326 -0.093202606 0.072020456
0.024818292 -0.15518376 0.061267834 0.12711544 -0.027546316 0.007939648 -0.13666755 0.033675045
0.095210865 0.07854836 0.090084136 0.018071253 -0.015147626 -0.0315852 0.14925064 -0.25837296
-0.10600767 -0.06533196 -0.14316426 0.02457954 0.025553564 0.17133017 -0.14880271 0.07145912
-0.035152704 0.1451246 0.08844498 -0.14438348 0.045200687 0.14359854 0.13047972 -0.13491258
-0.015317882 0.12099108 0.12932974 -0.05350121 -0.091498666 -0.09187801 -0.12223499 -0.056867994
-0.12036504 0.017355194 0.014700548 0.17890352 0.098657176 -0.040068686 -0.11772148 0.14183189
0.026820803 0.0679617 -0.10118352 -0.062374715 -0.15248209 0.011149719 0.043588273 0.06589086
-0.09893659 0.09047052 -0.13768418 0.20739222
00000000: 1e78 59bd c32a f2bd 7e13 cdbd b80a 20be
00000010: a6cf 2ebe 1c86 403e cd89 30bd 719d f33a
00000020: feee f93d 08a8 bc3c 54ac ad3d 967c d3bd
00000030: e92d 203e c0da 57bc 1233 b5bd c61d 503c
00000040: 47d2 0b3e 224c 2fbe d3b2 2d3e a36f 0a3d
00000050: 3e98 54bd 0ac6 75bd fd0e 92bd e01a 243d
00000060: 4083 23bd 60ef e7bc ee79 94bc d032 8d3d
00000070: 9218 18be f817 993c 2cfa d0bd 118e 02be
00000080: 116a b3bd b163 073e 1092 0e3e 8a7a 4ebd
00000090: dc5d 4a3d 0f18 be3d 02e1 bebd 767f 933d
000000a0: bb4f cb3c 7ee8 1ebe fbf3 7a3d 8d2a 023e
000000b0: d0a8 e1bc 4c15 023c 94f2 0bbe d8ee 093d
000000c0: eafd c23d f6dd a03d 087e b83d 2a0a 943c
000000d0: c02d 78bc 7c5f 01bd 29d5 183e 7649 84be
000000e0: 8d1a d9bd c3cc 85bd a799 12be 085b c93c
000000f0: b555 d13c 2d71 2f3e bd5f 18be 2959 923d
00000100: 48fc 0fbd 8b9b 143e a422 b53d 43d9 13be
00000110: 5b24 393d 7f0b 133e 7a9c 053e 8626 0abe
00000120: dbf7 7abc 2cca f73d 046f 043e 1624 5bbd
00000130: a763 bbbd 8a2a bcbd 5756 fabd 6aee 68bd
00000140: f281 f6bd 7b2c 8e3c 91da 703c 7c32 373e
00000150: c60c ca3d 101f 24bd f617 f1bd 613c 113e
00000160: 4db7 db3c 812f 8b3d 4e39 cfbd a17c 7fbd
00000170: 4424 1cbe 50ad 363c 9e89 323d caf1 863d
00000180: 449f cabd 9c48 b93d 15fd 0cbe a05e 543e

weight f4 [100]
1.0 1.0 1.0 1.0 1.0 1.0 1.0 1.0
1.0 1.0 1.0 1.0 1.0 1.0 1.0 1.0
1.0 1.0 1.0 1.0 1.0 1.0 1.0 1.0
1.0 1.0 1.0 1.0 1.0 1.0 1.0 1.0
1.0 1.0 1.0 1.0 1.0 1.0 1.0 1.0
1.0 1.0 1.0 1.0 1.0 1.0 1.0 1.0
1.0 1.0 1.0 1.0 1.0 1.0 1.0 1.0
1.0 1.0 1.0 1.0 1.0 1.0 1.0 1.0
1.0 1.0 1.0 1.0 1.0 1.0 1.0 1.0
1.0 1.0 1.0 1.0 1.0 1.0 1.0 1.0
1.0 1.0 1.0 1.0 1.0 1.0 1.0 1.0
1.0 1.0 1.0 1.0 1.0 1.0 1.0 1.0
1.0 1.0 1.0 1.0
00000000: 0000 803f 0000 803f 0000 803f 0000 803f
00000010: 0000 803f 0000 803f 0000 803f 0000 803f
00000020: 0000 803f 0000 803f 0000 803f 0000 803f
00000030: 0000 803f 0000 803f 0000 803f 0000 803f
00000040: 0000 803f 0000 803f 0000 803f 0000 803f
00000050: 0000 803f 0000 803f 0000 803f 0000 803f
00000060: 0000 803f 0000 803f 0000 803f 0000 803f
00000070: 0000 803f 0000 803f 0000 803f 0000 803f
00000080: 0000 803f 0000 803f 0000 803f 0000 803f
00000090: 0000 803f 0000 803f 0000 803f 0000 803f
000000a0: 0000 803f 0000 803f 0000 803f 0000 803f
000000b0: 0000 803f 0000 803f 0000 803f 0000 803f
000000c0: 0000 803f 0000 803f 0000 803f 0000 803f
000000d0: 0000 803f 0000 803f 0000 803f 0000 803f
000000e0: 0000 803f 0000 803f 0000 803f 0000 803f
000000f0: 0000 803f 0000 803f 0000 803f 0000 803f
00000100: 0000 803f 0000 803f 0000 803f 0000 803f
00000110: 0000 803f 0000 803f 0000 803f 0000 803f
00000120: 0000 803f 0000 803f 0000 803f 0000 803f
00000130: 0000 803f 0000 803f 0000 803f 0000 803f
00000140: 0000 803f 0000 803f 0000 803f 0000 803f
00000150: 0000 803f 0000 803f 0000 803f 0000 803f
00000160: 0000 803f 0000 803f 0000 803f 0000 803f
00000170: 0000 803f 0000 803f 0000 803f 0000 803f
00000180: 0000 803f 0000 803f 0000 803f 0000 803f

bias f4 [100]
0.0 0.0 0.0 0.0 0.0 0.0 0.0 0.0
0.0 0.0 0.0 0.0 0.0 0.0 0.0 0.0
0.0 0.0 0.0 0.0 0.0 0.0 0.0 0.0
0.0 0.0 0.0 0.0 0.0 0.0 0.0 0.0
0.0 0.0 0.0 0.0 0.0 0.0 0.0 0.0
0.0 0.0 0.0 0.0 0.0 0.0 0.0 0.0
0.0 0.0 0.0 0.0 0.0 0.0 0.0 0.0
0.0 0.0 0.0 0.0 0.0 0.0 0.0 0.0
0.0 0.0 0.0 0.0 0.0 0.0 0.0 0.0
0.0 0.0 0.0 0.0 0.0 0.0 0.0 0.0
0.0 0.0 0.0 0.0 0.0 0.0 0.0 0.0
0.0 0.0 0.0 0.0 0.0 0.0 0.0 0.0
0.0 0.0 0.0 0.0
00000000: 0000 0000 0000 0000 0000 0000 0000 0000
00000010: 0000 0000 0000 0000 0000 0000 0000 0000
00000020: 0000 0000 0000 0000 0000 0000 0000 0000
00000030: 0000 0000 0000 0000 0000 0000 0000 0000
00000040: 0000 0000 0000 0000 0000 0000 0000 0000
00000050: 0000 0000 0000 0000 0000 0000 0000 0000
00000060: 0000 0000 0000 0000 0000 0000 0000 0000
00000070: 0000 0000 0000 0000 0000 0000 0000 0000
00000080: 0000 0000 0000 0000 0000 0000 0000 0000
00000090: 0000 0000 0000 0000 0000 0000 0000 0000
000000a0: 0000 0000 0000 0000 0000 0000 0000 0000
000000b0: 0000 0000 0000 0000 0000 0000 0000 0000
000000c0: 0000 0000 0000 0000 0000 0000 0000 0000
000000d0: 0000 0000 0000 0000 0000 0000 0000 0000
000000e0: 0000 0000 0000 0000 0000 0000 0000 0000
000000f0: 0000 0000 0000 0000 0000 0000 0000 0000
00000100: 0000 0000 0000 0000 0000 0000 0000 0000
00000110: 0000 0000 0000 0000 0000 0000 0000 0000
00000120: 0000 0000 0000 0000 0000 0000 0000 0000
00000130: 0000 0000 0000 0000 0000 0000 0000 0000
00000140: 0000 0000 0000 0000 0000 0000 0000 0000
00000150: 0000 0000 0000 0000 0000 0000 0000 0000
00000160: 0000 0000 0000 0000 0000 0000 0000 0000
00000170: 0000 0000 0000 0000 0000 0000 0000 0000
00000180: 0000 0000 0000 0000 0000 0000 0000 0000

running_mean f4 [100]
0.0 0.0 0.0 0.0 0.0 0.0 0.0 0.0
0.0 0.0 0.0 0.0 0.0 0.0 0.0 0.0
0.0 0.0 0.0 0.0 0.0 0.0 0.0 0.0
0.0 0.0 0.0 0.0 0.0 0.0 0.0 0.0
0.0 0.0 0.0 0.0 0.0 0.0 0.0 0.0
0.0 0.0 0.0 0.0 0.0 0.0 0.0 0.0
0.0 0.0 0.0 0.0 0.0 0.0 0.0 0.0
0.0 0.0 0.0 0.0 0.0 0.0 0.0 0.0
0.0 0.0 0.0 0.0 0.0 0.0 0.0 0.0
0.0 0.0 0.0 0.0 0.0 0.0 0.0 0.0
0.0 0.0 0.0 0.0 0.0 0.0 0.0 0.0
0.0 0.0 0.0 0.0 0.0 0.0 0.0 0.0
0.0 0.0 0.0 0.0
00000000: 0000 0000 0000 0000 0000 0000 0000 0000
00000010: 0000 0000 0000 0000 0000 0000 0000 0000
00000020: 0000 0000 0000 0000 0000 0000 0000 0000
00000030: 0000 0000 0000 0000 0000 0000 0000 0000
00000040: 0000 0000 0000 0000 0000 0000 0000 0000
00000050: 0000 0000 0000 0000 0000 0000 0000 0000
00000060: 0000 0000 0000 0000 0000 0000 0000 0000
00000070: 0000 0000 0000 0000 0000 0000 0000 0000
00000080: 0000 0000 0000 0000 0000 0000 0000 0000
00000090: 0000 0000 0000 0000 0000 0000 0000 0000
000000a0: 0000 0000 0000 0000 0000 0000 0000 0000
000000b0: 0000 0000 0000 0000 0000 0000 0000 0000
000000c0: 0000 0000 0000 0000 0000 0000 0000 0000
000000d0: 0000 0000 0000 0000 0000 0000 0000 0000
000000e0: 0000 0000 0000 0000 0000 0000 0000 0000
000000f0: 0000 0000 0000 0000 0000 0000 0000 0000
00000100: 0000 0000 0000 0000 0000 0000 0000 0000
00000110: 0000 0000 0000 0000 0000 0000 0000 0000
00000120: 0000 0000 0000 0000 0000 0000 0000 0000
00000130: 0000 0000 0000 0000 0000 0000 0000 0000
00000140: 0000 0000 0000 0000 0000 0000 0000 0000
00000150: 0000 0000 0000 0000 0000 0000 0000 0000
00000160: 0000 0000 0000 0000 0000 0000 0000 0000
00000170: 0000 0000 0000 0000 0000 0000 0000 0000
00000180: 0000 0000 0000 0000 0000 0000 0000 0000

running_var f4 [100]
1.0 1.0 1.0 1.0 1.0 1.0 1.0 1.0
1.0 1.0 1.0 1.0 1.0 1.0 1.0 1.0
1.0 1.0 1.0 1.0 1.0 1.0 1.0 1.0
1.0 1.0 1.0 1.0 1.0 1.0 1.0 1.0
1.0 1.0 1.0 1.0 1.0 1.0 1.0 1.0
1.0 1.0 1.0 1.0 1.0 1.0 1.0 1.0
1.0 1.0 1.0 1.0 1.0 1.0 1.0 1.0
1.0 1.0 1.0 1.0 1.0 1.0 1.0 1.0
1.0 1.0 1.0 1.0 1.0 1.0 1.0 1.0
1.0 1.0 1.0 1.0 1.0 1.0 1.0 1.0
1.0 1.0 1.0 1.0 1.0 1.0 1.0 1.0
1.0 1.0 1.0 1.0 1.0 1.0 1.0 1.0
1.0 1.0 1.0 1.0
00000000: 0000 803f 0000 803f 0000 803f 0000 803f
00000010: 0000 803f 0000 803f 0000 803f 0000 803f
00000020: 0000 803f 0000 803f 0000 803f 0000 803f
00000030: 0000 803f 0000 803f 0000 803f 0000 803f
00000040: 0000 803f 0000 803f 0000 803f 0000 803f
00000050: 0000 803f 0000 803f 0000 803f 0000 803f
00000060: 0000 803f 0000 803f 0000 803f 0000 803f
00000070: 0000 803f 0000 803f 0000 803f 0000 803f
00000080: 0000 803f 0000 803f 0000 803f 0000 803f
00000090: 0000 803f 0000 803f 0000 803f 0000 803f
000000a0: 0000 803f 0000 803f 0000 803f 0000 803f
000000b0: 0000 803f 0000 803f 0000 803f 0000 803f
000000c0: 0000 803f 0000 803f 0000 803f 0000 803f
000000d0: 0000 803f 0000 803f 0000 803f 0000 803f
000000e0: 0000 803f 0000 803f 0000 803f 0000 803f
000000f0: 0000 803f 0000 803f 0000 803f 0000 803f
00000100: 0000 803f 0000 803f 0000 803f 0000 803f
00000110: 0000 803f 0000 803f 0000 803f 0000 803f
00000120: 0000 803f 0000 803f 0000 803f 0000 803f
00000130: 0000 803f 0000 803f 0000 803f 0000 803f
00000140: 0000 803f 0000 803f 0000 803f 0000 803f
00000150: 0000 803f 0000 803f 0000 803f 0000 803f
00000160: 0000 803f 0000 803f 0000 803f 0000 803f
00000170: 0000 803f 0000 803f 0000 803f 0000 803f
00000180: 0000 803f 0000 803f 0000 803f 0000 803f

weight f4 [100, 100]
0.13075538 0.015588392 0.3817537 0.053333595 0.14125487 0.24391966 0.23448963 -0.19541733
0.04985492 0.17955625 -0.20127915 -0.47245398 -0.046884745 0.027363587 0.18821475 0.38739663
-0.1594065 -0.04881173 -0.13817143 -0.04607096 -0.115466155 0.17682263 -0.021805646 0.11652803
0.081095256 -0.11957054 0.085317336 -0.2686115 -0.14078692 -0.15489925 -0.01301105 -0.1465271
0.18482396 -0.02482614 -0.59512603 0.11745958 -0.03841435 0.32938796 0.059007622 0.20769863
-0.09893175 -0.021602897 0.2854927 0.026603451 0.3465571 -0.07275107 -0.09776288 0.2737158
-0.01566907 -0.24267805 -0.19416064 0.72065514 0.19095935 -0.1479936 0.06626513 -0.13963255
-0.015199951 0.12053012 -0.246978 0.088138364 -0.20209417 -0.072183 0.07515921 -0.056880888
0.09073693 -0.1659405 0.21704301 -0.13496545 -0.23146597 -0.13209775 -0.344773 0.11905259
0.047822483 0.14122026 0.18909433 -0.012011059 -0.22685818 -0.38821524 -0.6548683 -0.20094816
-0.2660675 -0.41693395 -0.16372384 -0.61992 0.15976033 0.07280204 0.06741304 0.22294235
0.2707269 0.22617067 -0.081021875 -0.205086 -0.41567528 -0.01627583 0.09092565 0.0028264122
-0.036781497 -0.17974967 0.14773013 -0.29526848 0.11459765 -0.13018242 0.42471588 -0.35924703
-0.008996456 0.14522226 -0.059062313 -0.08553536 0.021611897 0.0017359392 -0.056768645 -0.16108766
-0.0275877 0.11203368 0.06388787 -0.06970034 -0.054387905 -0.12881058 -0.07188015 0.021291327
-0.19032162 -0.1867706 0.021715812 0.07272257 0.092504136 0.051354233 0.06978467 -0.225048
-0.021940377 0.20222385 -0.08300067 0.11780891 0.23393804 -0.16986677 0.11537029 -0.27999374
-0.105878666 -0.0421127 -0.054111242 0.099021435 -0.06384279 0.009995165 0.07067677 0.08518946
-0.20047829 0.09100512 -0.15453786 -0.014212308 -0.0779256 0.13575 -0.026021779 0.6919492
-0.0772309 -0.019633915 0.022027558 0.005525884 0.0494004 0.0322404 -0.43124115 -0.24039014
-0.09336919 0.14258885 0.07075527 0.10926506 -0.21139604 -0.016158195 0.12912202 -0.20008388
0.0052047633 -0.116129205 -0.33405146 -0.06016539 0.1377424 -0.01555222 0.084190294 -0.08201767
-0.022366112 -0.23892187 -0.025352713 -0.11654702 0.06562975 0.12932838 0.078446016 -0.06306067
0.09985722 0.21899268 0.04335477 -0.043450005 -0.054073937 -0.059817374 0.31162542 -0.22412667
0.11433324 0.043387238 0.24110536 0.071762055 0.22431593 0.12528159 0.2493919 0.44481134
-0.02656267 -0.09441986 -0.34556556 0.09013936 -0.16459098 0.23570955 0.25612074 0.064213715
-0.08442978 0.026351247 -0.09377455 0.25876552 0.07320835 -0.12581629 0.051883444 0.06415655
-0.047341567 0.03291463 0.19567813 0.08351355 0.046448186 -0.08881577 0.15591657 0.037233256
-0.14603953 -0.0052889003 0.100284696 0.100198194 -0.06173055 -0.018021828 0.022386964 -0.11503561
0.33162156 -0.2420153 0.13181664 -0.066622734 0.025347829 0.21165045 -0.12792419 -0.1050989
0.15188037 0.24335745 -0.1580943 -0.0879902 -0.09667735 0.015815761 -0.055182435 0.21343203
0.116920464 -0.3025517 0.059910193 -0.44485724 -0.24162444 0.013031857 0.120854095 -0.006427603
00000000: bde4 053e 7466 7f3c 3975 c33e 5474 5a3d
00000010: 1ea5 103e 13c6 793e 0d1e 703e 7b1b 48be
00000020: ac34 4c3d 98dd 373e 1f1c 4ebe 7de5 f1be
00000030: 380a 40bd 9a29 e03c 5ebb 403e da58 c63e
00000040: 753b 23be cfee 47bd d07c 0dbe e7b4 3cbd
00000050: 8579 ecbd fe10 353e c1a1 b2bc 3fa6 ee3d
00000060: 4515 a63d 66e1 f4bd dbba ae3d 7287 89be
00000070: 722a 10be e99d 1ebe 4d2c 55bc 330b 16be
00000080: 7e42 3d3e 3060 cbbc 2e5a 18bf a68e f03d
00000090: 5e58 1dbd 8aa5 a83e fab1 713d f3ae 543e
000000a0: bb9c cabd 8ff8 b0bc 192c 923e 7bef d93c
000000b0: ef6f b13e 83fe 94bd e837 c8bd 7a24 8c3e
000000c0: 6c5c 80bc 9880 78be 0cd2 46be db7c 383f
000000d0: d98a 433e a28b 17be 03b6 873d d6fb 0ebe
000000e0: 3709 79bc 7fd8 f63d cde7 7cbe e381 b43d
000000f0: c6f1 4ebe aed4 93bd 12ed 993d effb 68bd
00000100: 49d4 b93d 4eec 29be 8640 5e3e 6234 0abe
00000110: 6a05 6dbe a244 07be 1686 b0be d8d1 f33d
00000120: 82e1 433d 0b9c 103e f2a1 413e 08ca 44bc
00000130: 834d 68be 26c4 c6be 73a5 27bf 5bc5 4dbe
00000140: 003a 88be 5e78 d5be 39a7 27be 14b3 1ebf
00000150: 3698 233e 3c19 953d d90f 8a3d 004b 643e
00000160: b79c 8a3e 4999 673e ccee a5bd 1002 52be
00000170: 64d3 d4be e454 85bc 3a37 ba3d 543b 393b
00000180: 32a8 16bd 4c10 38be 9146 173e 6e2d 97be
00000190: 2cb2 ea3d 8a4e 05be 5c74 d93e 3aef b7be
000001a0: df65 13bc 25b5 143e 53eb 71bd 2a2d afbd
000001b0: 6f0b b13c 7488 e33a 3d86 68bd 2af4 24be
000001c0: 9aff e1bc ea71 e53d a5d7 823d 0dbf 8ebd
000001d0: dac5 5ebd ece6 03be e635 93bd 266b ae3c
000001e0: ace3 42be cb40 3fbe 5ce5 b13c 92ef 943d
000001f0: cf72 bd3d d158 523d 44eb 8e3d fc72 66be
00000200: 4ebc b3bc c513 4f3e 41fc a9bd cc45 f13d
00000210: 748d 6f3e 8ef1 2dbe 4247 ec3d 575b 8fbe
00000220: ead6 d8bd 5e7e 2cbd c0a3 5dbd c0cb ca3d
00000230: 02c0 82bd c3c2 233c fbbe 903d d077 ae3d
00000240: 2e4a 4dbe e460 ba3d 2c3f 1ebe beda 68bc
00000250: 7597 9fbd 0c02 0b3e a02b d5bc 9523 313f
00000260: 3c2b 9ebd 4ed7 a0bc 2373 b43c 7a12 b53b
00000270: 1358 4a3d 820e 043d a4cb dcbe d528 76be
00000280: 5938 bfbd d002 123e 24e8 903d 5cc6 df3d
00000290: 3478 58be 315e 84bc 9038 043e cae2 4cbe
000002a0: b88c aa3b 26d5 edbd cb08 abbe fc6f 76bd
000002b0: 580c 0d3e bdce 7ebc f66b ac3d e1f8 a7bd
000002c0: 2339 b7bc efa7 74be 7eb0 cfbc 34b0 eebd
000002d0: e468 863d a96e 043e 4ea8 a03d f425 81bd
000002e0: f181 cc3d 9e3f 603e c594 313d a2f8 31bd
000002f0: a27c 5dbd 1003 75bd 5e8d 9f3e 7681 65be
00000300: 8c27 ea3d d1b6 313d 53e4 763e fcf7 923d
00000310: 13b3 653e d149 003e 9760 7f3e 50be e33e
00000320: f599 d9bc 335f c1bd f8ed b0be fc9a b83d
00000330: 8a8a 28be d85d 713e 4222 833e 7b82 833d
00000340: 85e9 acbd 92de d73c df0c c0bd ea7c 843e
00000350: 42ee 953d fcd5 00be bc83 543d 8264 833d
00000360: 3be9 41bd 7ed1 063d d95f 483e 2709 ab3d
00000370: 7440 3e3d 0be5 b5bd 98a8 1f3e e681 183d
00000380: 638b 15be 834e adbb 1062 cd3d b634 cd3d
00000390: 2cd9 7cbd 83a2 93bc de64 b73c ca97 ebbd
000003a0: 4dca a93e dcd2 77be f1fa 063e 8071 88bd
000003b0: 40a6 cf3c e5ba 583e 8ffe 02be 183e d7bd
000003c0: 8786 1b3e b232 793e 79e3 21be 3534 b4bd
000003d0: c6fe c5bd 0e90 813c fa06 62bd ed8d 5a3e
000003e0: ff73 ef3d 0ee8 9abe 6464 753d 54c4 e3be
000003f0: 666c 77be 9283 553c 5a82 f73d a49e d2bb

bias f4 [100]
0.049835652 0.03449534 0.05924634 0.0664281 0.08129582 0.1326649 0.020136101 0.090226464
-0.093652286 0.08582295 0.072724186 -0.14233851 -0.13686682 -0.025390932 -0.08977385 -0.08976231
-0.1645888 -0.051677108 -0.0526506 -0.039878413 -0.06963733 -0.067740284 -0.049682867 0.020460144
-0.03936231 0.11962752 0.15359975 0.046340384 0.048285764 -0.018418787 0.05315133 0.0949096
0.11563948 -0.08399541 0.0960738 -0.020743154 -0.09413249 0.03472949 0.07830287 -0.009861051
-0.03347655 0.15426365 -0.034273602 -0.064872354 -0.041775007 -0.028428646 0.014090762 0.08090708
-0.036197618 0.061097473 0.051220722 0.16980742 -0.02401268 -0.089639165 0.13226315 0.10795512
-0.010939168 -0.18950865 0.012335683 -0.022002954 -0.0048716515 0.13541299 0.083536334 0.084624596
0.04254531 -0.088688605 0.066014476 0.07293982 -0.01479733 0.013594016 0.03097127 -0.015606055
0.00504018 -0.121886015 0.12149777 -0.08410564 -0.06637732 -0.14990017 0.1561045 0.038923256
-0.06138405 -0.104231074 0.015359149 0.038827278 -0.045729317 0.027294524 0.055287056 0.029930867
-0.12211387 -0.002056445 0.016561093 -0.0016868813 0.1652252 0.050930202 0.02291035 -0.073539436
-0.04940349 -0.053120196 0.02113692 0.06982324
00000000: 7820 4c3d fc4a 0d3d 4aac 723d 750b 883d
00000010: 6c7e a63d 4fd9 073e 77f4 a43c a7c8 b83d
00000020: c5cc bfbd f1c3 af3d 6bf0 943d 30c1 11be
00000030: d126 0cbe a500 d0bc 5adb b7bd 4dd5 b7bd
00000040: f789 28be 60ab 53bd 28a8 57bd 8c57 23bd
00000050: 049e 8ebd 6bbb 8abd 4380 4bbd 089c a73c
00000060: 603a 21bd 46ff f43d 4149 1d3e 6acf 3d3d
00000070: 4bc7 453d ffe2 96bc 36b5 593d f75f c23d
00000080: 64d4 ec3d c905 acbd 57c2 c43d 8ced a9bc
00000090: 89c8 c0bd 8240 0e3d 415d a03d 3f90 21bc
000000a0: b51e 09bd 4af7 1d3e 7a62 0cbd ccdb 84bd
000000b0: 451c 2bbd 31e3 e8bc f0dc 663c 9cb2 a53d
000000c0: f443 14bd 5841 7a3d d2cc 513d ffe1 2d3e
000000d0: 3db6 c4bc bd94 b7bd fe6f 073e 9317 dd3d
000000e0: 323a 33bc 8e0e 42be 9b1b 4a3c 8a3f b4bc
000000f0: 60a2 9fbb b4a9 0a3e 1915 ab3d a94f ad3d
00000100: fe43 2e3d 5fa2 b5bd 9932 873d 7961 953d
00000110: 8070 72bc 70b9 5e3c 76b7 fd3c 8ab0 7fbc
00000120: 1828 a53b 609f f9bd d3d3 f83d 943f acbd
00000130: d5f0 87bd 6e7f 19be dcd9 1f3e fe6d 1f3d
00000140: d76d 7bbd 1a77 d5bd f1a4 7b3c 5a09 1f3d
00000150: aa4e 3bbd c498 df3c ae74 623d 9431 f53c
00000160: d616 fabd 6cc5 06bb 21ab 873c 581a ddba
00000170: cb30 293e 309c 503d 7cae bb3c d89b 96bd
00000180: 505b 4abd 9094 59bd 5627 ad3c 7dff 8e3d

weight f4 [100]
1.0 1.0 1.0 1.0 1.0 1.0 1.0 1.0
1.0 1.0 1.0 1.0 1.0 1.0 1.0 1.0
1.0 1.0 1.0 1.0 1.0 1.0 1.0 1.0
1.0 1.0 1.0 1.0 1.0 1.0 1.0 1.0
1.0 1.0 1.0 1.0 1.0 1.0 1.0 1.0
1.0 1.0 1.0 1.0 1.0 1.0 1.0 1.0
1.0 1.0 1.0 1.0 1.0 1.0 1.0 1.0
1.0 1.0 1.0 1.0 1.0 1.0 1.0 1.0
1.0 1.0 1.0 1.0 1.0 1.0 1.0 1.0
1.0 1.0 1.0 1.0 1.0 1.0 1.0 1.0
1.0 1.0 1.0 1.0 1.0 1.0 1.0 1.0
1.0 1.0 1.0 1.0 1.0 1.0 1.0 1.0
1.0 1.0 1.0 1.0
00000000: 0000 803f 0000 803f 0000 803f 0000 803f
00000010: 0000 803f 0000 803f 0000 803f 0000 803f
00000020: 0000 803f 0000 803f 0000 803f 0000 803f
00000030: 0000 803f 0000 803f 0000 803f 0000 803f
00000040: 0000 803f 0000 803f 0000 803f 0000 803f
00000050: 0000 803f 0000 803f 0000 803f 0000 803f
00000060: 0000 803f 0000 803f 0000 803f 0000 803f
00000070: 0000 803f 0000 803f 0000 803f 0000 803f
00000080: 0000 803f 0000 803f 0000 803f 0000 803f
00000090: 0000 803f 0000 803f 0000 803f 0000 803f
000000a0: 0000 803f 0000 803f 0000 803f 0000 803f
000000b0: 0000 803f 0000 803f 0000 803f 0000 803f
000000c0: 0000 803f 0000 803f 0000 803f 0000 803f
000000d0: 0000 803f 0000 803f 0000 803f 0000 803f
000000e0: 0000 803f 0000 803f 0000 803f 0000 803f
000000f0: 0000 803f 0000 803f 0000 803f 0000 803f
00000100: 0000 803f 0000 803f 0000 803f 0000 803f
00000110: 0000 803f 0000 803f 0000 803f 0000 803f
00000120: 0000 803f 0000 803f 0000 803f 0000 803f
00000130: 0000 803f 0000 803f 0000 803f 0000 803f
00000140: 0000 803f 0000 803f 0000 803f 0000 803f
00000150: 0000 803f 0000 803f 0000 803f 0000 803f
00000160: 0000 803f 0000 803f 0000 803f 0000 803f
00000170: 0000 803f 0000 803f 0000 803f 0000 803f
00000180: 0000 803f 0000 803f 0000 803f 0000 803f

bias f4 [100]
0.0 0.0 0.0 0.0 0.0 0.0 0.0 0.0
0.0 0.0 0.0 0.0 0.0 0.0 0.0 0.0
0.0 0.0 0.0 0.0 0.0 0.0 0.0 0.0
0.0 0.0 0.0 0.0 0.0 0.0 0.0 0.0
0.0 0.0 0.0 0.0 0.0 0.0 0.0 0.0
0.0 0.0 0.0 0.0 0.0 0.0 0.0 0.0
0.0 0.0 0.0 0.0 0.0 0.0 0.0 0.0
0.0 0.0 0.0 0.0 0.0 0.0 0.0 0.0
0.0 0.0 0.0 0.0 0.0 0.0 0.0 0.0
0.0 0.0 0.0 0.0 0.0 0.0 0.0 0.0
0.0 0.0 0.0 0.0 0.0 0.0 0.0 0.0
0.0 0.0 0.0 0.0 0.0 0.0 0.0 0.0
0.0 0.0 0.0 0.0
00000000: 0000 0000 0000 0000 0000 0000 0000 0000
00000010: 0000 0000 0000 0000 0000 0000 0000 0000
00000020: 0000 0000 0000 0000 0000 0000 0000 0000
00000030: 0000 0000 0000 0000 0000 0000 0000 0000
00000040: 0000 0000 0000 0000 0000 0000 0000 0000
00000050: 0000 0000 0000 0000 0000 0000 0000 0000
00000060: 0000 0000 0000 0000 0000 0000 0000 0000
00000070: 0000 0000 0000 0000 0000 0000 0000 0000
00000080: 0000 0000 0000 0000 0000 0000 0000 0000
00000090: 0000 0000 0000 0000 0000 0000 0000 0000
000000a0: 0000 0000 0000 0000 0000 0000 0000 0000
000000b0: 0000 0000 0000 0000 0000 0000 0000 0000
000000c0: 0000 0000 0000 0000 0000 0000 0000 0000
000000d0: 0000 0000 0000 0000 0000 0000 0000 0000
000000e0: 0000 0000 0000 0000 0000 0000 0000 0000
000000f0: 0000 0000 0000 0000 0000 0000 0000 0000
00000100: 0000 0000 0000 0000 0000 0000 0000 0000
00000110: 0000 0000 0000 0000 0000 0000 0000 0000
00000120: 0000 0000 0000 0000 0000 0000 0000 0000
00000130: 0000 0000 0000 0000 0000 0000 0000 0000
00000140: 0000 0000 0000 0000 0000 0000 0000 0000
00000150: 0000 0000 0000 0000 0000 0000 0000 0000
00000160: 0000 0000 0000 0000 0000 0000 0000 0000
00000170: 0000 0000 0000 0000 0000 0000 0000 0000
00000180: 0000 0000 0000 0000 0000 0000 0000 0000

running_mean f4 [100]
0.0 0.0 0.0 0.0 0.0 0.0 0.0 0.0
0.0 0.0 0.0 0.0 0.0 0.0 0.0 0.0
0.0 0.0 0.0 0.0 0.0 0.0 0.0 0.0
0.0 0.0 0.0 0.0 0.0 0.0 0.0 0.0
0.0 0.0 0.0 0.0 0.0 0.0 0.0 0.0
0.0 0.0 0.0 0.0 0.0 0.0 0.0 0.0
0.0 0.0 0.0 0.0 0.0 0.0 0.0 0.0
0.0 0.0 0.0 0.0 0.0 0.0 0.0 0.0
0.0 0.0 0.0 0.0 0.0 0.0 0.0 0.0
0.0 0.0 0.0 0.0 0.0 0.0 0.0 0.0
0.0 0.0 0.0 0.0 0.0 0.0 0.0 0.0
0.0 0.0 0.0 0.0 0.0 0.0 0.0 0.0
0.0 0.0 0.0 0.0
00000000: 0000 0000 0000 0000 0000 0000 0000 0000
00000010: 0000 0000 0000 0000 0000 0000 0000 0000
00000020: 0000 0000 0000 0000 0000 0000 0000 0000
00000030: 0000 0000 0000 0000 0000 0000 0000 0000
00000040: 0000 0000 0000 0000 0000 0000 0000 0000
00000050: 0000 0000 0000 0000 0000 0000 0000 0000
00000060: 0000 0000 0000 0000 0000 0000 0000 0000
00000070: 0000 0000 0000 0000 0000 0000 0000 0000
00000080: 0000 0000 0000 0000 0000 0000 0000 0000
00000090: 0000 0000 0000 0000 0000 0000 0000 0000
000000a0: 0000 0000 0000 0000 0000 0000 0000 0000
000000b0: 0000 0000 0000 0000 0000 0000 0000 0000
000000c0: 0000 0000 0000 0000 0000 0000 0000 0000
000000d0: 0000 0000 0000 0000 0000 0000 0000 0000
000000e0: 0000 0000 0000 0000 0000 0000 0000 0000
000000f0: 0000 0000 0000 0000 0000 0000 0000 0000
00000100: 0000 0000 0000 0000 0000 0000 0000 0000
00000110: 0000 0000 0000 0000 0000 0000 0000 0000
00000120: 0000 0000 0000 0000 0000 0000 0000 0000
00000130: 0000 0000 0000 0000 0000 0000 0000 0000
00000140: 0000 0000 0000 0000 0000 0000 0000 0000
00000150: 0000 0000 0000 0000 0000 0000 0000 0000
00000160: 0000 0000 0000 0000 0000 0000 0000 0000
00000170: 0000 0000 0000 0000 0000 0000 0000 0000
00000180: 0000 0000 0000 0000 0000 0000 0000 0000

running_var f4 [100]
1.0 1.0 1.0 1.0 1.0 1.0 1.0 1.0
1.0 1.0 1.0 1.0 1.0 1.0 1.0 1.0
1.0 1.0 1.0 1.0 1.0 1.0 1.0 1.0
1.0 1.0 1.0 1.0 1.0 1.0 1.0 1.0
1.0 1.0 1.0 1.0 1.0 1.0 1.0 1.0
1.0 1.0 1.0 1.0 1.0 1.0 1.0 1.0
1.0 1.0 1.0 1.0 1.0 1.0 1.0 1.0
1.0 1.0 1.0 1.0 1.0 1.0 1.0 1.0
1.0 1.0 1.0 1.0 1.0 1.0 1.0 1.0
1.0 1.0 1.0 1.0 1.0 1.0 1.0 1.0
1.0 1.0 1.0 1.0 1.0 1.0 1.0 1.0
1.0 1.0 1.0 1.0 1.0 1.0 1.0 1.0
1.0 1.0 1.0 1.0
00000000: 0000 803f 0000 803f 0000 803f 0000 803f
00000010: 0000 803f 0000 803f 0000 803f 0000 803f
00000020: 0000 803f 0000 803f 0000 803f 0000 803f
00000030: 0000 803f 0000 803f 0000 803f 0000 803f
00000040: 0000 803f 0000 803f 0000 803f 0000 803f
00000050: 0000 803f 0000 803f 0000 803f 0000 803f
00000060: 0000 803f 0000 803f 0000 803f 0000 803f
00000070: 0000 803f 0000 803f 0000 803f 0000 803f
00000080: 0000 803f 0000 803f 0000 803f 0000 803f
00000090: 0000 803f 0000 803f 0000 803f 0000 803f
000000a0: 0000 803f 0000 803f 0000 803f 0000 803f
000000b0: 0000 803f 0000 803f 0000 803f 0000 803f
000000c0: 0000 803f 0000 803f 0000 803f 0000 803f
000000d0: 0000 803f 0000 803f 0000 803f 0000 803f
000000e0: 0000 803f 0000 803f 0000 803f 0000 803f
000000f0: 0000 803f 0000 803f 0000 803f 0000 803f
00000100: 0000 803f 0000 803f 0000 803f 0000 803f
00000110: 0000 803f 0000 803f 0000 803f 0000 803f
00000120: 0000 803f 0000 803f 0000 803f 0000 803f
00000130: 0000 803f 0000 803f 0000 803f 0000 803f
00000140: 0000 803f 0000 803f 0000 803f 0000 803f
00000150: 0000 803f 0000 803f 0000 803f 0000 803f
00000160: 0000 803f 0000 803f 0000 803f 0000 803f
00000170: 0000 803f 0000 803f 0000 803f 0000 803f
00000180: 0000 803f 0000 803f 0000 803f 0000 803f

weight f4 [10, 100]
-0.60595983 -0.063556656 0.22204617 0.028483931 0.21333925 0.116433054 -0.8692491 -0.087074526
-0.19398035 -0.1616045 0.012816566 -0.13059683 -0.19696048 -0.1925586 0.101000115 0.16259488
-0.16821343 -0.16629249 0.28963768 -0.10889911 -0.16371569 -0.34573084 -0.041762963 0.19075498
-0.40396738 0.23081742 0.21744588 -0.0031025256 -0.24686678 -0.11602802 -0.114776626 -0.21643633
0.060200196 -0.15395066 0.16657586 -0.10662687 0.106081896 0.061960783 -0.19974104 0.19227324
0.009266422 0.0726581 0.08248605 -0.25959668 -0.3781113 -0.039893497 -0.07092014 0.2715643
-0.004660397 0.22141898 0.024990361 0.24504499 0.02017044 -0.054358844 0.24244063 0.19138052
0.042935852 -0.16982326 -0.20785727 0.08657093 0.051863573 0.24221392 0.013292866 -0.091193624
-0.1612651 0.13124861 0.11542203 0.26926148 0.20782524 0.1201543 -0.64252365 0.1432056
0.3133625 -0.14613704 0.08412402 0.078876905 -0.0024480156 0.010711833 0.2590058 -0.18227115
0.09532026 -0.33934876 -0.12772565 0.19982663 0.008148314 0.07117541 -0.09580949 -0.059304547
-0.33609158 0.2710941 0.0010490787 -0.10997086 0.19492961 0.13350618 -0.41686887 0.03820038
0.1871857 0.017172772 -0.009834804 0.22405072 0.13065125 -0.16724999 0.00783272 -0.07617114
-0.20862333 0.18657577 -0.051941354 0.02365788 -0.03049688 -0.05424498 0.043963715 0.13084266
-0.08757126 0.16796814 0.029565204 -0.04746778 -0.01437333 -0.054833453 0.08135548 0.13255101
-0.13309191 0.15232062 -0.07741515 -0.13497692 -0.06459998 0.07897833 -0.045791272 -0.055070274
-0.053462446 -0.066410854 0.010493635 0.30750334 0.021403257 -0.26236156 0.046089794 -0.050564464
-0.122220255 -0.04294077 0.045238532 0.17535467 0.15231755 -0.14341922 -0.12500466 0.04698491
-0.06389024 0.011993757 0.07723573 0.08766125 0.03560578 0.08913764 0.09951749 0.07915791
-0.05201605 0.1102747 0.21299508 -0.051496632 -0.21904175 0.2825171 -0.03633549 -0.16166909
-0.12843359 -0.13712735 -0.25906658 -0.14138024 -0.12213002 0.051930346 0.051850617 0.011963892
0.05414297 0.07324205 -0.056179494 -0.0071180086 -0.16890313 0.13979375 0.12722799 0.13088807
0.09216759 0.0057165963 -0.09134942 -0.26059502 0.24753211 0.12112363 -0.037647888 0.04768624
0.20498239 -0.0151661355 0.07076248 -0.16304143 0.015478544 -0.19795586 -0.38005802 0.046573654
0.075393006 0.0536859 -0.08251467 -0.04960669 0.0047950703 0.24251921 -0.14729384 0.05576201
-0.005081456 -0.06722859 0.003785612 -0.07015938 -0.16052876 -0.001561022 -0.20342217 0.07775122
0.23054431 -0.26201227 -0.010787714 -0.49511018 -0.024236547 0.040952854 -0.14167625 0.07793593
-0.08749882 -0.19853377 0.09334022 -0.19584544 0.21363771 0.07505644 -0.00089126325 0.15233566
-0.10158535 0.1501804 0.02138228 -0.050193395 0.125503 -0.35732713 -0.22724153 0.11011937
0.20837481 -0.12117364 -0.08118754 -0.10656002 -0.03739263 -0.022262193 0.29475603 0.15060583
-0.21453376 0.024773007 0.062474664 -0.11012663 -0.121234566 -0.02030118 -0.24965885 -0.2710977
-0.1613992 -0.1564789 0.022774426 -0.17416516 -0.18839337 0.14220178 -0.051966064 0.19095777
00000000: 2f20 1bbf fe29 82bd 1260 633e 2257 e93c
00000010: 9b75 5a3e 7474 ee3d 1c87 5ebf 2154 b2bd
00000020: c9a2 46be a67b 25be 93fc 513c 2dbb 05be
00000030: 02b0 49be 152e 45be 26d9 ce3d 467f 263e
00000040: 2440 2cbe 9448 2abe 644b 943e 7f06 dfbd
00000050: 16a5 27be a203 b1be a40f 2bbd 4655 433e
00000060: d0d4 cebe 675b 6c3e 22aa 5e3e be53 4bbb
00000070: a5ca 7cbe 19a0 edbd 0210 ebbd 7ca1 5dbe
00000080: 7b94 763d 3ea5 1dbe dd92 2a3e 305f dabd
00000090: 7741 d93d 97ca 7d3d ea88 4cbe 47e3 443e
000000a0: 31d2 173c c5cd 943d 72ee a83d dbe9 84be
000000b0: ce97 c1be 5d67 23bd 943e 91bd 7a0a 8b3e
000000c0: 3eb6 98bb a8bb 623e 96b8 cc3c 13ed 7a3e
000000d0: 7b3c a53c 61a7 5ebd 5b42 783e 41f9 433e
000000e0: 81dd 2f3d 26e6 2dbe 89d8 54be 1a4c b13d
000000f0: e66e 543d ed06 783e 52ca 593c b9c3 babd
00000100: ae22 25be 0966 063e 6362 ec3d a4dc 893e
00000110: 24d0 543e 7513 f63d 6e7c 24bf 7da4 123e
00000120: 0d71 a03e f3a4 15be 3749 ac3d 378a a13d
00000130: e36e 20bb af80 2f3c 699c 843e 4aa5 3abe
00000140: 4537 c33d 1fbf adbe 83ca 02be 5a9f 4c3e
00000150: 8280 053c 6ac4 913d c437 c4bd 53e9 72bd
00000160: 3214 acbe d9cc 8a3e 3d81 893a 6738 e1bd
00000170: a19b 473e d8b5 083e d66f d5be 0078 1c3d
00000180: 9cad 3f3e eaad 8c3c 2822 21bc 8d6d 653e
00000190: 71c9 053e 9543 2bbe cf54 003c 9dff 9bbd
000001a0: 5ba1 55be b80d 3f3e 75c0 54bd 2cce c13c
000001b0: 98d4 f9bc fc2f 5ebd 4c13 343d 9efb 053e
000001c0: 9058 b3bd d7ff 2b3e ba32 f23c 936d 42bd
000001d0: 1e7e 6bbc 0b99 60bd b49d a63d 74bb 073e
000001e0: 3f49 08be f0f9 1b3e d68b 9ebd 6437 0abe
000001f0: ff4c 84bd 64bf a13d a18f 3bbd 5e91 61bd
00000200: 70fb 5abd 6a02 88bd 7fed 2b3c 1471 9d3e
00000210: e255 af3c 4154 86be a7c8 3c3d af1c 4fbd
00000220: 9d4e fabd a9e2 2fbd 0a4c 393d 2d90 333e
00000230: 22f9 1b3e 7ddc 12be 3901 00be 4073 403d
00000240: e3d8 82bd 7781 443c c42d 9e3d be87 b33d
00000250: 5ed7 113d cc8d b63d d3cf cb3d 8b1d a23d
00000260: c80e 55bd b4d7 e13d 621b 5a3e 22ee 52bd
00000270: 7b4c 60be 15a6 903e 86d4 14bd 958c 25be
00000280: 1884 03be 1d6b 0cbe 60a4 84be fbc5 10be
00000290: 4e1f fabd eab4 543d 5061 543d 3304 443c
000002a0: 05c5 5d3d eeff 953d 781c 66bd 2f3e e9bb
000002b0: f1f4 2cbe 1826 0f3e 0e48 023e 8607 063e
000002c0: 5dc2 bc3d 4952 bb3b 6815 bbbd b66c 85be
000002d0: 0f79 7d3e aa0f f83d ac34 1abd a652 433d
000002e0: e7e6 513e 627b 78bc ebeb 903d 55f4 26be
000002f0: b899 7d3c f1b4 4abe f796 c2be 04c4 3e3d
00000300: a667 9a3d bfe5 5b3d 74fd a8bd 6230 4bbd
00000310: f71f 9d3b f556 783e 32d4 16be b566 643d
00000320: 5882 a6bb 25af 89bd 0818 783b b9af 8fbd
00000330: a761 24be 359b ccba e74d 50be 083c 9f3d
00000340: cf13 6c3e 7926 86be f4be 30bc 157f fdbe
00000350: b98b c6bc 2ebe 273d 9413 11be df9c 9f3d
00000360: 9532 b3bd 704c 4bbe 2829 bf3d b58b 48be
00000370: d8c3 5a3e 31b7 993d aaa3 69ba e1fd 1b3e
00000380: fb0b d0bd e4c8 193e e429 af3c 9797 4dbd
00000390: dc83 003e 95f3 b6be 01b2 68be 4486 e13d
000003a0: 3560 553e e329 f8bd a745 a6bd 243c dabd
000003b0: 0429 19bd 345f b6bc 43ea 963e 6a38 1a3e
000003c0: bdae 5bbe c3f0 ca3c 6fe5 7f3d 128a e1bd
000003d0: d449 f8bd a94e a6bc 92a6 7fbe 51cd 8abe
000003e0: d545 25be 013c 20be 6f91 ba3c 5a58 32be
000003f0: 31ea 40be 589d 113e 5eda 54bd 6f8a 433e

bias f4 [10]
0.16101556 0.006929008 -0.09480278 0.01415443 0.043075677 0.0716737 -0.0023775846 -0.0092700925
-0.084035516 0.03521753
00000000: 43e1 243e bb0c e33b f627 c2bd fbe7 673c
00000010: 1f70 303d a9c9 923d 40d1 1bbb 96e1 17bc
00000020: d01a acbd 4240 103d

weight f4 [3, 10]
-0.07460792 -0.1732531 -0.6788391 -1.023317 -0.086747415 -0.49814096 -0.31815904 0.2090457
-0.53248173 -0.2869236 0.6759587 0.09082902 -0.5185963 -0.280086 -0.016345698 0.032623768
-0.07662653 0.28339905 -0.06648321 0.35548657 0.29324025 0.091107406 0.2153771 -0.6826409
0.39335895 -0.2939353 0.15848336 -0.095891796 -0.35737574 0.7069953
00000000: 0acc 98bd 4369 31be 66c8 2dbf 0dfc 82bf
00000010: a1a8 b1bd 550c ffbe bee5 a2be 1310 563e
00000020: b950 08bf a6e7 92be a10b 2d3f 9104 ba3d
00000030: bac2 04bf 6f67 8fbe 6ae7 85bc 80a0 053d
00000040: 5fee 9cbd ae19 913e 5928 88bd 5602 b63e
00000050: 9623 963e 8596 ba3d d18b 5c3e 8ec1 2ebf
00000060: 5866 c93e b07e 96be 7649 223e eb62 c4bd
00000070: f4f9 b6be a5fd 343f

bias f4 [3]
-0.25881994 0.12222786 -0.111538626
00000000: 0c84 84be 9a52 fa3d 5d6e e4bd
