model.pt (torch_old, 111325 bytes, 24 tensors)

weight f4 [15, 2]
0	0xbc946b2c	-0.01811751
1	0x3fb61e4d	1.4227997
2	0xbf833b39	-1.0252448
3	0x3e280f74	0.16412145
4	0xbfba94e5	-1.4576689
5	0x3e9276f1	0.2860637
6	0xbfb64b18	-1.4241667
7	0xbf79287c	-0.973274
8	0xbf1ce1a4	-0.612818
9	0x3f3ac2f8	0.7295375
10	0xc00a77ab	-2.163554
11	0x3f3a1fc3	0.72704715
12	0x3eed3a2c	0.46333444
13	0x3fa38eb4	1.2777925
14	0x3e54c7c0	0.20779324
15	0xbefaa0dd	-0.48950854
16	0x3eb539f4	0.35395777
17	0xbf644b63	-0.8917753
18	0x3f2f3678	0.6844249
19	0xbe0ca829	-0.13736023
20	0x3f2a4a52	0.66519654
21	0xbe6d7ead	-0.23192854
22	0xc02a6ce8	-2.662897
23	0xbf6d2605	-0.9263614
24	0xbedc5494	-0.43033278
25	0x3ea2d256	0.318011
26	0xbe104366	-0.1408821
27	0x3fa49508	1.2857981
28	0xbd3e6c86	-0.046490215
29	0xbf8328cf	-1.0246829

bias f4 [15]
0	0x3f1cd1c3	0.6125757
1	0xbf1ebcfc	-0.6200712
2	0xbf2a0be9	-0.66424423
3	0x3f03f384	0.5154345
4	0x3da0c9e6	0.07851009
5	0x3dde5d41	0.108576305
6	0x3e317248	0.17328751
7	0xbe396d5b	-0.18108122
8	0x3eafa2ac	0.34303796
9	0xbd923d1a	-0.071405604
10	0xbe065624	-0.13118798
11	0x3e9565b3	0.29179153
12	0x3ea94493	0.3306013
13	0x3d8ec488	0.06971079
14	0xbef6b59a	-0.48185426

weight f4 [100, 15]
0	0x3f1a7818	0.603395
1	0x3efd533e	0.4947757
2	0xbe8c9e43	-0.27464494
3	0x3eee9c54	0.46603644
4	0x3ea5013e	0.3222751
5	0xbeb39dd2	-0.35081345
6	0xbbdf6806	-0.0068178205
7	0xbdf7c395	-0.12097851
8	0x3ec634e2	0.3871222
9	0xbbb47481	-0.0055070524
10	0xbef8e61d	-0.48613063
11	0xbf0d8c99	-0.5529266
12	0x3e0cc145	0.13745601
13	0x3e9f8cd3	0.31162128
14	0xbe0a5cb0	-0.1351192
15	0xbe4e760c	-0.20162219
16	0xbeb41d79	-0.35178736
17	0x3e934ce5	0.28769603
18	0xbdb6d33d	-0.08927009
19	0xbeacedf7	-0.33775303
20	0xbf5a83ab	-0.8535716
21	0xbdb6f40c	-0.08933267
22	0x3d9d2388	0.07672793
23	0xbe3430c8	-0.17596734
24	0xbe1cb25b	-0.15302412
25	0x3f0dc16c	0.55373263
26	0x3e9fe410	0.31228685
27	0xbe4435fa	-0.19161215
28	0x3e6ed39b	0.23322909
29	0xbd006525	-0.03134646
30	0x3e7a1627	0.24422513
31	0x3d98afee	0.07455431
32	0x3ea42b47	0.32064268
33	0xbf7f4ce0	-0.99726677
34	0x3e1fd0bc	0.1560697
35	0xbf042f9e	-0.5163516
36	0xbd4292f1	-0.047503415
37	0x3e2e794f	0.17038463
38	0xbe24ec64	-0.16105801
39	0x3ee09dc3	0.43870363
40	0x3bc872fa	0.006117222
41	0xbdee9270	-0.116490245
42	0xbe76108e	-0.24029753
43	0xbe91d8f1	-0.28485826
44	0x3f0990a7	0.53736347
45	0x3d3481ef	0.044069227
46	0x3eb7b3f7	0.3587949
47	0x3d927159	0.071505256
48	0xbe8dc3c8	-0.27688432
49	0xbea7e081	-0.3278847
50	0xbf3efc74	-0.7460396
51	0x3c6f164a	0.0145927165
52	0xbe87901c	-0.26477134
53	0xbe855940	-0.26044655
54	0xbde13d2b	-0.10997995
55	0x3e8c6396	0.27419728
56	0x3e44333c	0.1916017
57	0x3da65656	0.08121936
58	0xbf46a979	-0.77602345
59	0xbeaf53a9	-0.34243515
60	0xbf658ff2	-0.8967277
61	0x3e9be9ec	0.30451906
62	0x3db6be2e	0.08922993
63	0x3ea2dc22	0.31808573
64	0xbdfe01f9	-0.1240272
65	0xbe418bbc	-0.1890096
66	0xbe309659	-0.17244853
67	0x3ec7bd46	0.39011592
68	0x3f20fee7	0.6288895
69	0xbda341b2	-0.07971515
70	0x3eade601	0.33964542
71	0xbd9891cd	-0.07449684
72	0x3db0fabc	0.08641574
73	0x3e65f0fb	0.22455208
74	0x3e4fac3f	0.2028055
75	0xbeb25bb4	-0.3483559
76	0x3d9b8ea7	0.07595568
77	0xbe3b63bb	-0.18299763
78	0x3f368da8	0.713099
79	0xbef55fd8	-0.47924685
80	0x3e8d7b0d	0.27632943
81	0x3e77449f	0.2414727
82	0xbebcd0a5	-0.36877933
83	0xbea52b41	-0.32259563
84	0x3f1fb616	0.62387216
85	0xbe1f82f3	-0.15577297
86	0x3d0f7923	0.035027634
87	0x3df36aa8	0.118855774
88	0x3e090a9f	0.13382958
89	0x3f2206b6	0.6329149
90	0xbf7e2fb2	-0.9929153
91	0x3e6dea5a	0.2323393
92	0x3e2d2d96	0.16911921
93	0x3dae6903	0.08516123
94	0xbe980b7c	-0.29696262
95	0xbdc5480e	-0.09632884
96	0x3da35cb8	0.07976669
97	0xbdedbe73	-0.11608591
98	0xbebc4b7b	-0.36776337
99	0x3ed8da03	0.4235383
100	0xbd8b82ce	-0.068120584
101	0x3d95d912	0.073167935
102	0x3f0fda40	0.561924
103	0xbe77ad19	-0.24187125
104	0xbd46e98c	-0.04856257
105	0xbea6101e	-0.3243417
106	0xbe3ac5df	-0.18239544
107	0x3e3815e5	0.17977102
108	0x3ea78f08	0.32726312
109	0xbf47575a	-0.7786766
110	0xbd879a82	-0.06621267
111	0xbe42c068	-0.1901871
112	0x3f318795	0.69347507
113	0x3e300515	0.17189439
114	0xbebe0319	-0.37111738
115	0xbdfc251b	-0.12311765
116	0x3dbc7179	0.09201331
117	0xbe01830d	-0.12647648
118	0xbce54468	-0.02798672
119	0xbe25f60c	-0.1620714
120	0x3e42632b	0.18983142
121	0xbe706314	-0.23475295
122	0xbf3aab89	-0.7291799
123	0xbe8f783a	-0.28021413
124	0xbe129612	-0.1431506
125	0xbd435d12	-0.04769618
126	0x3ed8f3fc	0.42373645
127	0x3ec01065	0.37512508
128	0xbef3c069	-0.47607735
129	0x3c0b7854	0.008512575
130	0x3d073081	0.03300524
131	0x3dd5a4fa	0.104318574
132	0x3ec836b9	0.3910425
133	0x3f30efa8	0.69115686
134	0x3cbb9631	0.022898765
135	0x3f08d3e8	0.53448343
136	0xbe011ba7	-0.12608205
137	0xbe5491b1	-0.20758702
138	0xbe0d68cd	-0.1380951
139	0x3e5ed262	0.21759942
140	0xbed9c24f	-0.42531058
141	0x3f99ca81	1.2014924
142	0xbdef150b	-0.116739355
143	0x3c60692d	0.013696951
144	0x3e791b48	0.24326813
145	0xbdabc9fe	-0.08388136
146	0xbe7d44d6	-0.2473329
147	0xbee6cf82	-0.4508019
148	0xbd2418ba	-0.040062644
149	0x3efe099e	0.49616712
150	0x3d629a13	0.055322718
151	0x3e325fd0	0.17419362
152	0xbe7ac7d4	-0.24490291
153	0x3f244d9f	0.6418094
154	0x3eda1b45	0.4259893
155	0xbd3f6718	-0.046729177
156	0x3cb231ff	0.021752356
157	0x3c618f21	0.013767035
158	0x3ee49bdb	0.44650158
159	0xbed4bd0c	-0.4155048
160	0xbf2423b6	-0.6411699
161	0xbea167d8	-0.3152454
162	0xbe3ae65a	-0.18251935
163	0xbc9b6840	-0.018970609
164	0x3efe096f	0.49616572
165	0xbe88bb69	-0.26705483
166	0xbda57091	-0.08078111
167	0x3ea53f8a	0.3227504
168	0xbda3bf29	-0.07995445
169	0x3e0b352b	0.135945
170	0x3ede9c6c	0.43478715
171	0xbea29fbd	-0.31762496
172	0x3f0a41e1	0.54006773
173	0x3f176dcb	0.59151906
174	0xbe8ac6f0	-0.27104902
175	0xbf5ab711	-0.8543559
176	0x3ebeb0ee	0.37244362
177	0xbe84f824	-0.25970566
178	0xbed4e8db	-0.41583905
179	0xbe044985	-0.1291867
180	0xbdbe7dd7	-0.09301346
181	0x3c99b06a	0.018760879
182	0x3bba8635	0.0056922683
183	0x3df7cb31	0.120993026
184	0x3ebff10a	0.37488586
185	0xbe526ada	-0.20548573
186	0xbbc6bb5f	-0.006064817
187	0xbe275202	-0.16339877
188	0x3f27f0da	0.65601885
189	0xbe601d68	-0.21886218
190	0x3e1352db	0.14387076
191	0x3c463af2	0.012099015
192	0x3e0901e1	0.13379623
193	0xbc9d0b66	-0.019170474
194	0x3c5b4f6e	0.013385637
195	0x3ef3027f	0.47462842
196	0x3daaef7c	0.08346459
197	0xbecf117c	-0.40443027
198	0x3d0dfcbf	0.034664866
199	0xbeb74122	-0.3579188
200	0xbeb2d0d1	-0.3492494
201	0xbc84d8df	-0.016216693
202	0x3cb1e936	0.021717649
203	0xbe1c701e	-0.15277144
204	0xbf142c76	-0.5788034
205	0x3d8f81e3	0.07007196
206	0xbecda7e0	-0.4016714
207	0x3eabb168	0.33533788
208	0x3ee9e9e4	0.45686257
209	0xbe848aa3	-0.2588702
210	0x3e71aa38	0.2360009
211	0xbee13d6d	-0.43992177
212	0x3ebc7086	0.368046
213	0x3de80a61	0.113301046
214	0x3e819d05	0.2531511
215	0x3b80683d	0.003918676
216	0xbf146403	-0.57965106
217	0x3e9c5320	0.3053217
218	0xbe174633	-0.14772873
219	0xbefb5a20	-0.49092197
220	0x3efe61be	0.49683946
221	0x3e8b283d	0.27179137
222	0x3f01eb93	0.5075008
223	0x3ed5e3f2	0.4177547
224	0x3f07a791	0.5299006
225	0x3f6811f8	0.9065242
226	0x3f19f718	0.6014266
227	0xbdd0331e	-0.10166
228	0xbd5ff77a	-0.05467937
229	0x3cebc33e	0.028779622
230	0xbdaadee3	-0.083432935
231	0xbd0d6ea5	-0.034529347
232	0x3e9d7fbc	0.30761516
233	0xbe08bb7f	-0.13352774
234	0x3df615c4	0.1201587
235	0xbdb9058f	-0.09034263
236	0xbe1ca12d	-0.15295859
237	0xbcab7f57	-0.020934744
238	0xbe83668d	-0.25664178
239	0xbd4dffc3	-0.05029274
240	0x3e8663dc	0.26248062
241	0xbf5698e2	-0.8382703
242	0xbf0616c1	-0.5237847
243	0x3f124fb6	0.5715288
244	0xbe942310	-0.28933
245	0x3ebd0746	0.36919612
246	0x3e8946c9	0.26811817
247	0x3eb82cc3	0.3597165
248	0xbef1ba0d	-0.47212258
249	0xbec9445c	-0.39309967
250	0xbe9754b7	-0.2955682
251	0xbcbd50ce	-0.02310982
252	0x3f2e9e08	0.68209887
253	0xbdbc49ac	-0.09193739
254	0x3e84920e	0.2589268
255	0x3e08777e	0.13326833

bias f4 [100]
0	0x3c290b26	0.010317599
1	0xbe78c64c	-0.24294394
2	0x3e69cee3	0.22832827
3	0x3c95bbdf	0.01827806
4	0xbdb8fee7	-0.09032994
5	0x3e000bfd	0.12504573
6	0x3e897a62	0.26851183
7	0xbe8910ca	-0.26770622
8	0x3e89494c	0.26813734
9	0x3e1c7c82	0.15281871
10	0xbb7f8aff	-0.003899276
11	0xbe6b9a08	-0.23007977
12	0xbd41fe61	-0.047361735
13	0xbe4c230e	-0.19935247
14	0xbd82cf66	-0.06387214
15	0x3d93ecff	0.07222938
16	0xbe213c4f	-0.15745662
17	0xbe429c4e	-0.19004938
18	0xbe269668	-0.16268313
19	0xbe824d6a	-0.25449687
20	0xbd1424ad	-0.03616779
21	0x3d409c68	0.04702416
22	0x3dd3bcd1	0.10338748
23	0xbd693d18	-0.05694303
24	0xbdc7957c	-0.09745309
25	0x3dbcbb07	0.0921536
26	0x3c35d299	0.011097574
27	0xbdea2618	-0.11433047
28	0x3dab3ba5	0.08360986
29	0x3d8008bf	0.06251668
30	0xbe831ce3	-0.25607976
31	0xbe18accb	-0.14909665
32	0x3df648b8	0.12025589
33	0xbdc754d6	-0.09732978
34	0x3c6d1720	0.014470845
35	0x3e5d2b66	0.21598586
36	0xbcce7ca7	-0.025205923
37	0xbe306979	-0.17227735
38	0xbe1cdec1	-0.15319349
39	0xbd3e8ac4	-0.046519056
40	0xbbe80db5	-0.007081712
41	0xbd421e1c	-0.047391996
42	0x3d06c830	0.032905757
43	0xbdaaa57e	-0.083323464
44	0xbe428cbb	-0.18998997
45	0xbdcb68a2	-0.099320665
46	0xbdc3256b	-0.09528621
47	0xbe387483	-0.18013196
48	0xbe20eb53	-0.15714769
49	0x3e02f275	0.12787803
50	0xbcacb7b1	-0.021083685
51	0xbe5c1f54	-0.21496326
52	0xbe488c0a	-0.1958467
53	0x3dbc2c84	0.09188178
54	0xbd6bc784	-0.05756332
55	0xbe256cd7	-0.161548
56	0x3d774d8b	0.060376685
57	0xbe4a9642	-0.19783881
58	0xbe16bc3b	-0.14720242
59	0x3e76067a	0.24025908
60	0xbd6e0690	-0.058111727
61	0xbbfc9234	-0.0077078585
62	0xbe5aa534	-0.21352082
63	0x3e38fe59	0.18065776
64	0x3dbced47	0.092249446
65	0xbd2231e8	-0.039598376
66	0x3dee0fd8	0.11624116
67	0x3da86081	0.08221532
68	0xbb9dd3d8	-0.0048165135
69	0x3d9786c7	0.073987536
70	0xbb5c1d43	-0.0033586777
71	0xbe98598b	-0.29755816
72	0x3d13c110	0.03607279
73	0x3dd62810	0.1045686
74	0x3e7f90e7	0.2495762
75	0xbe3920eb	-0.18078963
76	0xbe25a82e	-0.16177437
77	0xbcfe6053	-0.03105179
78	0x3dfe37e6	0.124130055
79	0xbe0158be	-0.12631509
80	0x3d9440e7	0.07238942
81	0x3dc25b51	0.094900735
82	0x3de30284	0.11084464
83	0xbe1263c9	-0.14295878
84	0x3e26be35	0.16283496
85	0xbe061fa0	-0.13098001
86	0x3e2a0bc4	0.1660605
87	0x3c69dfce	0.014274551
88	0xbe9ae920	-0.30255985
89	0x3e15cd6b	0.14629142
90	0xbe173c11	-0.14769007
91	0xbd1b9b41	-0.03798986
92	0x3e3dfbce	0.18553087
93	0x3cb55ab9	0.022137986
94	0xbe007f4c	-0.1254856
95	0xbda0c9c5	-0.078509845
96	0xbe1e6e09	-0.15471663
97	0x3defd41b	0.11710378
98	0x3e8e1982	0.27753836
99	0xbd86f0f9	-0.06588931

weight f4 [100]
0	0x3f802f05	1.0014349
1	0x3f797f06	0.9745945
2	0x3f820b48	1.0159693
3	0x3f80889d	1.0041691
4	0x3f81bb15	1.0135218
5	0x3f7d0deb	0.9884936
6	0x3f7caaaa	0.9869791
7	0x3f84313c	1.0327525
8	0x3f81871d	1.0119358
9	0x3f6fc5bb	0.9366109
10	0x3f871483	1.0553135
11	0x3f7ea81f	0.9947528
12	0x3f81e707	1.0148629
13	0x3f79c006	0.9755863
14	0x3f7f808b	0.99805516
15	0x3f805bb3	1.0027984
16	0x3f78d5f7	0.97201484
17	0x3f817dff	1.0116576
18	0x3f76474f	0.9620256
19	0x3f8285ab	1.0197042
20	0x3f800cb9	1.0003883
21	0x3f800000	1.0
22	0x3f77b3bb	0.9675862
23	0x3f765f57	0.9623923
24	0x3f842612	1.0324118
25	0x3f7f0cf3	0.99629134
26	0x3f828282	1.0196078
27	0x3f820053	1.0156349
28	0x3f848805	1.035401
29	0x3f743143	0.9538767
30	0x3f81ce35	1.0141054
31	0x3f7d44d5	0.98933154
32	0x3f81d405	1.0142828
33	0x3f7f627a	0.9975964
34	0x3f800000	1.0
35	0x3f82242a	1.0167286
36	0x3f7ddea4	0.9916785
37	0x3f7b7667	0.9822754
38	0x3f800000	1.0
39	0x3f77a9d6	0.96743524
40	0x3f827bdf	1.0194052
41	0x3f808890	1.0041676
42	0x3f8110b8	1.0083227
43	0x3f7bef65	0.9841216
44	0x3f820498	1.0157652
45	0x3f7db47e	0.99103534
46	0x3f803898	1.0017271
47	0x3f84afc3	1.0366138
48	0x3f8150b2	1.0102751
49	0x3f76b536	0.96370256
50	0x3f7e63e9	0.993712
51	0x3f801174	1.0005326
52	0x3f767a37	0.96280235
53	0x3f7e0e18	0.99240255
54	0x3f792593	0.9732296
55	0x3f83647d	1.0265042
56	0x3f83de48	1.030221
57	0x3f7805d4	0.96883893
58	0x3f6ee1a5	0.93313056
59	0x3f833b62	1.0252497
60	0x3f820a40	1.0159378
61	0x3f80e07f	1.0068511
62	0x3f8052de	1.0025289
63	0x3f8171d2	1.011286
64	0x3f869794	1.0515008
65	0x3f836f42	1.0268328
66	0x3f78c333	0.9717285
67	0x3f7d18a5	0.9886573
68	0x3f806955	1.0032145
69	0x3f81bec6	1.0136344
70	0x3f81f3ec	1.0152564
71	0x3f7b506f	0.98169607
72	0x3f7e1af8	0.992599
73	0x3f8206fb	1.015838
74	0x3f76e7d1	0.96447474
75	0x3f77e1af	0.9682874
76	0x3f83ce04	1.0297246
77	0x3f7a64ff	0.9781036
78	0x3f84114e	1.0317781
79	0x3f800000	1.0
80	0x3f73e090	0.9526453
81	0x3f842d8e	1.0326402
82	0x3f7f6f1a	0.997789
83	0x3f81d19f	1.0142096
84	0x3f83a3fd	1.028442
85	0x3f76e451	0.96442133
86	0x3f7c7583	0.9861681
87	0x3f7b457e	0.9815291
88	0x3f866dc3	1.0502247
89	0x3f7937c7	0.97350734
90	0x3f7b9115	0.9826825
91	0x3f7c6c48	0.98602724
92	0x3f7ae259	0.9800163
93	0x3f822669	1.0167972
94	0x3f836ca4	1.026753
95	0x3f82d81a	1.0222199
96	0x3f7c6aeb	0.98600644
97	0x3f7e1061	0.9924374
98	0x3f80fbe7	1.0076874
99	0x3f7b7089	0.9821859

bias f4 [100]
0	0x3cbd4209	0.023102777
1	0xbd9a58de	-0.07536481
2	0x3d20fcec	0.039303705
3	0xbcce1121	-0.025154652
4	0xbcfc9347	-0.030831946
5	0xbdba209e	-0.090882525
6	0x3ce5494a	0.027989049
7	0xbb155c90	-0.0022790767
8	0x3d388f9f	0.045058843
9	0x3d6ee5b7	0.058324542
10	0xbd402d07	-0.04691794
11	0xbd809435	-0.06278268
12	0xbd861e3b	-0.06548735
13	0x3d4e8f75	0.05042978
14	0xbd2aa00b	-0.041656535
15	0x3ce51339	0.027963268
16	0xbd855562	-0.06510426
17	0xbd01ece0	-0.031720042
18	0xbcba25b8	-0.022723064
19	0xbc35e253	-0.011101323
20	0xbd1d5c2e	-0.038417988
21	0x3cd06c4b	0.025442263
22	0xbd31bc72	-0.043392606
23	0x3ceedc1d	0.029157693
24	0xbd005bd3	-0.03133757
25	0xbcfa106d	-0.03052541
26	0xbccee512	-0.025255714
27	0x3ccfd8fb	0.025372019
28	0xbc85dd92	-0.016341005
29	0x3cd3e2d6	0.025865
30	0xbd200092	-0.039063044
31	0xbb85d8f0	-0.004084699
32	0xbd358844	-0.044319406
33	0xbd3069e8	-0.04306975
34	0xbda8a31a	-0.08234234
35	0xbd67b27d	-0.056566704
36	0xbd235934	-0.039879993
37	0xbda8e209	-0.08246238
38	0x3daaf377	0.083472185
39	0x3d5f9b12	0.054591246
40	0x3d2909d7	0.04126915
41	0xbd46ab3a	-0.048503138
42	0x3cdd4656	0.027011078
43	0xbc4f5e92	-0.012656825
44	0xbd4eb01c	-0.05046092
45	0x3d600a67	0.05469742
46	0x3d695724	0.05696787
47	0x3d07ad62	0.033124335
48	0x3cebe3e4	0.02879519
49	0xbd0c2899	-0.034218404
50	0xbd02f2b1	-0.03196973
51	0xbd85d29e	-0.06534313
52	0x3d2dd3eb	0.04243843
53	0xbda64d69	-0.081202336
54	0xbd130593	-0.035893988
55	0xbd3178c8	-0.043328077
56	0xbd8cf17b	-0.06881996
57	0xba26d784	-0.0006364512
58	0x3c63eac9	0.013910958
59	0x3dc94a4a	0.09828623
60	0xbd9d7ba3	-0.076895975
61	0xbce3bfc3	-0.0278014
62	0x3c6f6e54	0.014613707
63	0xbce37baf	-0.027768938
64	0xbdbc24c0	-0.09186697
65	0x3c841181	0.016121628
66	0x3c8c9430	0.017160505
67	0xbd878a76	-0.06618206
68	0xbc0a0081	-0.008422972
69	0xbd85a80e	-0.065261945
70	0xbd159d17	-0.036526766
71	0xbc86abb7	-0.016439302
72	0x3c87b028	0.01656349
73	0x3d0ac31c	0.033877477
74	0x3d2dd29c	0.04243718
75	0x3d6609d4	0.056161717
76	0x3b22d301	0.0024845006
77	0x3c4807fb	0.012208934
78	0xbc49445b	-0.012284364
79	0xbd8208c2	-0.06349327
80	0xbcd8ee76	-0.026480895
81	0x3ce0e487	0.02745272
82	0x3d018969	0.031625185
83	0xbd2cf901	-0.042229656
84	0xbd59b428	-0.053150326
85	0xbd118558	-0.035527557
86	0x3d083a99	0.033259008
87	0x3d164d14	0.0366946
88	0xbd2e68ef	-0.04258054
89	0x3d209fdc	0.039214954
90	0x3d1ca5d6	0.03824409
91	0x3c982541	0.018572452
92	0x3c8456b8	0.016154632
93	0x3b40117e	0.00293073
94	0xbd95e14a	-0.07318361
95	0xbdb82bd8	-0.089927375
96	0x3b2e39ef	0.0026584824
97	0xbd919550	-0.07108557
98	0x3d0da49c	0.03458081
99	0xbd92968b	-0.0715762

running_mean f4 [100]
0	0x3f14db05	0.581467
1	0x20777305	2.095977e-19
2	0x3e3c5924	0.1839338
3	0x24839bc3	5.7076064e-17
4	0x3f0957cf	0.5364961
5	0x3f66fa3f	0.90225595
6	0x3e5942a2	0.21216825
7	0x3e450ef2	0.19243982
8	0x3f342878	0.7037425
9	0x3f72f15e	0.9489955
10	0x3ec983b9	0.3935831
11	0x3f39756a	0.72444785
12	0x3ec9b795	0.39397874
13	0x3e83ab1a	0.25716478
14	0x3f679671	0.9046393
15	0x3f06a72b	0.5259883
16	0x3f49ce67	0.7883057
17	0x3f8f548c	1.1197677
18	0x3da797d9	0.081832595
19	0x3f3d70e8	0.74000406
20	0x3faccdbb	1.3500284
21	0x00000000	0.0
22	0x3e18c0dc	0.1491732
23	0x3e0ee369	0.13953938
24	0x3f01cb60	0.5070095
25	0x3ef62053	0.48071536
26	0x3f037331	0.51347643
27	0x3e5695bc	0.20955557
28	0x3f21b297	0.6316313
29	0x3d7ed6b3	0.062216472
30	0x3df2b8c2	0.11851646
31	0x3f652e1a	0.8952347
32	0x3f91db7a	1.1395104
33	0x2bbda54d	1.3475138e-12
34	0x00000000	0.0
35	0x3e965e40	0.29368782
36	0x3fa12e74	1.2592301
37	0x3e92be66	0.28660887
38	0x00000000	0.0
39	0x3ea0da64	0.3141662
40	0x3f2b3052	0.66870606
41	0x3ea1accf	0.31577155
42	0x3f5a279d	0.85216695
43	0x3e3847ec	0.17996186
44	0x3f0dc1aa	0.5537363
45	0x3c63f1d0	0.013912633
46	0x3fb69b75	1.4266192
47	0x3ea69d19	0.3254173
48	0x3ebb13a7	0.3653843
49	0x3f07da93	0.5306789
50	0x3ef38b61	0.47567275
51	0x3f13ca2e	0.57730377
52	0x3f35124f	0.7073106
53	0x3f8d6753	1.1047157
54	0x3e91df66	0.28490752
55	0x3d89820f	0.0671426
56	0x3f8f4f0c	1.1195998
57	0x3e4126b5	0.18862422
58	0x3cfe1840	0.031017423
59	0x3e4ecbab	0.2019488
60	0x3edf0647	0.43559477
61	0x3fa9b996	1.3259761
62	0x3bd0a55e	0.0063673696
63	0x3f9c1808	1.2194834
64	0x3f451684	0.7698748
65	0x3d887a6d	0.06663976
66	0x3f49bfca	0.7880827
67	0x3f5767e9	0.8414293
68	0x3f380a66	0.71890867
69	0x3ef9f18b	0.48817095
70	0x3e971f94	0.2951628
71	0x3f1f7d03	0.6230013
72	0x3e73831e	0.23780486
73	0x3f8183b4	1.0118318
74	0x3eb6af87	0.35680792
75	0x3f0fdec9	0.5619932
76	0x203c7f80	1.5966406e-19
77	0x3efcfe51	0.49412778
78	0x3dd11db6	0.10210745
79	0x00000000	0.0
80	0x3c9a3eac	0.018828712
81	0x3fb83b94	1.4393182
82	0x3f71f411	0.9451304
83	0x3fa0afc0	1.2553635
84	0x3f25ee54	0.64816785
85	0x397779fd	0.000236012
86	0x3eebef74	0.46081126
87	0x3f99fdb1	1.2030545
88	0x3c93b40f	0.018030195
89	0x3f1d9345	0.6155284
90	0x3c850a0e	0.016240146
91	0x3f211655	0.629247
92	0x3e2c70d5	0.16839917
93	0x3e8f9aef	0.28047892
94	0x3e1d1774	0.15340978
95	0x3eaf11c9	0.34193256
96	0x3e3e834d	0.18604775
97	0x3ff6ed38	1.9291143
98	0x3f501c2c	0.81292987
99	0x3f1fc496	0.6240934

running_var f4 [100]
0	0x3f7ffb59	0.999929
1	0x211513da	5.0509437e-19
2	0x3d814350	0.06311667
3	0x21a7fa3d	1.1382598e-18
4	0x3e7af401	0.24507143
5	0x3f769e6a	0.9633547
6	0x3de964a5	0.113961495
7	0x3da76ffb	0.081756555
8	0x3feac5ea	1.8341649
9	0x403c292c	2.940013
10	0x3e021c0b	0.1270601
11	0x3f5cd807	0.8626713
12	0x3db8745f	0.09006571
13	0x3ed4c5d4	0.4155718
14	0x3f671476	0.90265596
15	0x3f420f1d	0.7580431
16	0x3f033721	0.51255995
17	0x3fc5b557	1.5445966
18	0x3d2257a1	0.03963435
19	0x3f43a0e0	0.7641735
20	0x3f92a2e5	1.1455961
21	0x2112e7e1	4.9773613e-19
22	0x3d9a3ae9	0.075307675
23	0x3d8e21c5	0.06940035
24	0x3f0f71a8	0.560328
25	0x3f3dba19	0.7411209
26	0x3f9956b6	1.1979587
27	0x3e61dd49	0.2205707
28	0x3f10dbc6	0.5658535
29	0x3c9c1000	0.019050598
30	0x3d9bb6bd	0.07603214
31	0x3f38447e	0.7197951
32	0x3ebe1b48	0.3713019
33	0x2905e990	2.9734516e-14
34	0x2112e7e1	4.9773613e-19
35	0x3e90fa15	0.28315797
36	0x3fd4d7d3	1.6628364
37	0x3e1a0dee	0.15044376
38	0x2112e7e1	4.9773613e-19
39	0x3eba91b0	0.36439276
40	0x3f6f9cd5	0.9359868
41	0x3e95b121	0.292367
42	0x3fa150c6	1.2602775
43	0x3d952aa2	0.07283522
44	0x3ee2971b	0.4425591
45	0x3ad15bb3	0.0015972763
46	0x40a64d8f	5.1969676
47	0x3dc36dc6	0.09542422
48	0x3f16e6e6	0.58946073
49	0x3e870538	0.2637117
50	0x3f025d14	0.50923276
51	0x3fbeaab5	1.4895846
52	0x3eeaab82	0.45833975
53	0x3fbc54db	1.4713396
54	0x3e642246	0.222787
55	0x3c8163b9	0.015794622
56	0x3f27c564	0.6553557
57	0x3e5a2703	0.21303944
58	0x3bd2476e	0.0064172065
59	0x3d3e2062	0.0464176
60	0x3e2b8cd0	0.16752934
61	0x4005263f	2.0804594
62	0x3a670666	0.0008812904
63	0x3fb01cb1	1.3758756
64	0x3ede6bac	0.43441522
65	0x3cbce715	0.023059407
66	0x3eb3e99a	0.3513916
67	0x3f6a5b5e	0.91545665
68	0x3f5e3e04	0.8681338
69	0x3f70551b	0.9387986
70	0x3e3514fa	0.17683783
71	0x3fd16a59	1.636058
72	0x3d5bd57e	0.0536704
73	0x3fc1ad80	1.5131073
74	0x3e122b38	0.14274299
75	0x3f8c7b98	1.0975218
76	0x2114e3b8	5.0445734e-19
77	0x3e8c3f7d	0.27392188
78	0x3d1aa9b0	0.037759483
79	0x2112e7e1	4.9773613e-19
80	0x3b81203e	0.003940611
81	0x3eaa4894	0.33258498
82	0x3f6ea8c3	0.9322626
83	0x3fd0321d	1.6265293
84	0x3fd67665	1.6754881
85	0x36c60380	5.9012673e-06
86	0x3e6c0e9f	0.23052453
87	0x40334b46	2.8014693
88	0x3aa1e6ea	0.0012352143
89	0x3f5e1e03	0.86764544
90	0x3beecea0	0.007287815
91	0x3e9008b7	0.2813165
92	0x3d5a505e	0.0532993
93	0x3dae79e4	0.085193425
94	0x3d8072de	0.06271909
95	0x3de609a0	0.112323046
96	0x3d901ceb	0.07036766
97	0x3f53ff2c	0.82811236
98	0x3f0e27b3	0.55529326
99	0x3fb86a0e	1.4407365

weight f4 [100, 100]
0	0xbd5872db	-0.05284391
1	0x3d6515dc	0.05592905
2	0xbd86301c	-0.06552145
3	0xbb85b434	-0.00408032
4	0x3e27961d	0.16365857
5	0x3d3dfb54	0.046382263
6	0xbdafe3ea	-0.08588393
7	0xbdaf62db	-0.08563777
8	0x3d935d2c	0.071955055
9	0x3d199eaa	0.03750483
10	0xbe01748d	-0.12642117
11	0x3d8a02c2	0.06738807
12	0xbd5c0d1f	-0.05372345
13	0xbd9842db	-0.07434627
14	0xbd9ba327	-0.07599478
15	0x3d13db72	0.03609795
16	0xbde78a7c	-0.11305711
17	0xbb4b8d34	-0.0031059505
18	0x3dcb7811	0.0993501
19	0x3d1f7260	0.038927436
20	0x3dcd76b7	0.10032409
21	0xbe73a56a	-0.23793569
22	0xbd287b83	-0.041133415
23	0xbe83418c	-0.25635946
24	0x3d988190	0.07446587
25	0x3e2d8d45	0.16948421
26	0xbe624735	-0.22097476
27	0xbe1ef0f9	-0.15521611
28	0xbd23a182	-0.039948948
29	0xbdde7305	-0.10861782
30	0xbdcb8213	-0.09936919
31	0x3d581f63	0.052764308
32	0x3dd2318f	0.10263359
33	0x3e5a71fd	0.21332546
34	0x3dd9e84c	0.1064001
35	0x3d303e80	0.043028355
36	0x3e040f75	0.12896521
37	0xbe6d2400	-0.23158264
38	0xbece5f32	-0.40307003
39	0x3db2c2d9	0.087285705
40	0xbde21cb6	-0.110406324
41	0x3df11bec	0.11772904
42	0xbd91e623	-0.07123973
43	0xbadc409c	-0.0016803923
44	0x3e23f8c5	0.16012867
45	0x3e36da4e	0.17856714
46	0xbdae68fe	-0.085161194
47	0xbe11d2f4	-0.14240628
48	0xbe3de634	-0.18544847
49	0x3e4cf260	0.20014334
50	0x3e85c06e	0.26123375
51	0x3e42acc7	0.19011222
52	0xbd925771	-0.071455844
53	0x3d83fd58	0.06444806
54	0xbdedb0c4	-0.11605981
55	0x3e53b2db	0.20673697
56	0x3d0ff997	0.035150137
57	0xbdbd68c9	-0.09248502
58	0x3cbdcfe5	0.02317042
59	0xbdb72b70	-0.08943832
60	0x3d1a3d43	0.03765608
61	0x3e8e07b2	0.27740246
62	0xbe580034	-0.21093827
63	0xbcffdc11	-0.031232866
64	0xbcd58f83	-0.026069408
65	0xbe1bb514	-0.15205795
66	0xbd95c973	-0.07313814
67	0xbe125157	-0.14288841
68	0x3dc8c710	0.09803593
69	0xbd8782e2	-0.06616761
70	0xbdfec641	-0.12440158
71	0xbceef466	-0.029169273
72	0x3eb24b3b	0.3482302
73	0xbda7c81e	-0.08192466
74	0xbd2e2cdf	-0.04252326
75	0xbd1efca9	-0.038815174
76	0x3e557aaa	0.20847574
77	0xbbebaae8	-0.0071920045
78	0xbe38919b	-0.18024294
79	0x3d0158b6	0.031578742
80	0x3bd3e034	0.006465936
81	0x3cee9b8f	0.02912691
82	0xbdc41d7c	-0.09575936
83	0x3d54e58d	0.05197673
84	0x3c2d4d8d	0.010577572
85	0x3e4c3b36	0.19944462
86	0x3e6f4cfb	0.2336921
87	0x3d0e0d2c	0.03468053
88	0x3d28ffe9	0.04125968
89	0x3d599e34	0.05312939
90	0xbb02dc98	-0.001996791
91	0xbc42a1a7	-0.011879361
92	0xbe55bd7c	-0.20873064
93	0xbdafb1fb	-0.08578869
94	0x3dd6a73b	0.104811154
95	0xbcbf48f9	-0.023350226
96	0xbe3992c4	-0.18122393
97	0xbe05fcc1	-0.13084699
98	0xbece2e83	-0.4026986
99	0x3dc6f271	0.09714211
100	0x3cdf0939	0.027226077
101	0xbd71d380	-0.059039593
102	0xbd518fae	-0.051162414
103	0x3dff283a	0.124588445
104	0xbe170253	-0.1474698
105	0xbe261194	-0.16217643
106	0x3dd83942	0.10557796
107	0xbd2723b6	-0.04080554
108	0xbe39d7b4	-0.1814869
109	0x3e7e38f4	0.24826413
110	0xbcd012fa	-0.025399674
111	0xbe0e4276	-0.1389254
112	0xbd8aea7a	-0.06783004
113	0x3b4d9bb9	0.0031373336
114	0xbd991171	-0.0747403
115	0x3ddf4eb1	0.10903681
116	0xbcf525ae	-0.029925194
117	0xbb5d16f2	-0.00337356
118	0x3e02598f	0.12729476
119	0xbe52babf	-0.2057905
120	0x3d3ab708	0.04558471
121	0x3e062b62	0.13102487
122	0xbdb633ca	-0.08896597
123	0x3c829487	0.015939964
124	0xbc7148d0	-0.0147268325
125	0xbe4b0851	-0.19827391
126	0xbdc3ac3e	-0.09554337
127	0xbd31001a	-0.043212987
128	0x3dcbcaba	0.099507764
129	0xbde01a83	-0.10942557
130	0xbdf7e029	-0.12103302
131	0x3e73e412	0.2381747
132	0x3dd57644	0.10422948
133	0xbe131906	-0.14365014
134	0xbdada9ad	-0.08479629
135	0x3d8678a5	0.0656598
136	0xbddde39e	-0.1083443
137	0xbe3e60d9	-0.18591632
138	0xbcf211fc	-0.029549591
139	0x3cb66fa9	0.02227004
140	0xbdeee186	-0.11664109
141	0x3db06eee	0.08614908
142	0xbca01a37	-0.01954375
143	0x3cc68ef5	0.02423809
144	0xbe3a1285	-0.18171127
145	0xbd39ba4d	-0.045343686
146	0x3e69db98	0.22837675
147	0x3d5f9ebb	0.054594737
148	0xbdd8a98a	-0.10579212
149	0x3e45e2b7	0.19324766
150	0x3e9505e6	0.29106063
151	0xbc5f57e1	-0.013631792
152	0x3e8bdc1e	0.27316374
153	0x3bff9366	0.0077995537
154	0xbcbe3dfd	-0.023222918
155	0x3e12469b	0.14284746
156	0xbe872bbc	-0.26400554
157	0xbe9a7943	-0.3017064
158	0x3cde53dd	0.027139599
159	0x3e25891f	0.16165589
160	0xbcefe6e4	-0.029284902
161	0xbd7e9dfc	-0.062162384
162	0xbe97322c	-0.29530466
163	0x3e363e45	0.17797191
164	0xbc8451e3	-0.016152328
165	0xbd3914da	-0.0451859
166	0xbcbb9127	-0.022896362
167	0x3d811131	0.06302107
168	0xbd27f57b	-0.041005593
169	0xbda6e0e8	-0.08148366
170	0xbeb361e7	-0.3503563
171	0xbda4dafe	-0.08049582
172	0x3ea3fb1c	0.3202752
173	0xbe10d0c1	-0.14142133
174	0x3e31ad2e	0.17351219
175	0xbd7390a1	-0.0594641
176	0x3de7bff0	0.11315906
177	0x3cbd7242	0.023125771
178	0xbd9b04fa	-0.075693086
179	0x3e3ba9c3	0.18326478
180	0xbded9d1f	-0.11602234
181	0xbe3dc72b	-0.18533008
182	0x3d698269	0.057009134
183	0xbe338931	-0.17532803
184	0x3d8644af	0.06556069
185	0xbe8e4271	-0.27785066
186	0xbe581351	-0.21101119
187	0x3d6e0b12	0.058116026
188	0x3e02a7b9	0.12759294
189	0x3e7072fd	0.23481365
190	0x3e256201	0.16150667
191	0x3b2205d9	0.0024722724
192	0xbdb279fc	-0.08714673
193	0xbd9b190e	-0.07573138
194	0x3bd0bce3	0.0063701733
195	0xbda1fd29	-0.079096146
196	0x3d2490d1	0.04017717
197	0x3e9a4ff6	0.3013913
198	0x3d16d7cc	0.036826894
199	0xbe26b621	-0.16280414
200	0xbc7da665	-0.015481566
201	0xbd19bfb2	-0.03753633
202	0x3e0687db	0.13137762
203	0xbe8364eb	-0.25662932
204	0xbe49727e	-0.19672582
205	0xbdbe870e	-0.093031034
206	0xbcf8b9a5	-0.03036196
207	0xbcea214d	-0.028580332
208	0x3e8b57fe	0.2721557
209	0xbe026c3d	-0.12736602
210	0xbe198057	-0.14990364
211	0x3e27d158	0.16388452
212	0xbd97fa68	-0.07420808
213	0x3d754b9b	0.059886556
214	0xbc98862a	-0.018618662
215	0xbe0eeb89	-0.13957037
216	0xbd175782	-0.03694869
217	0xbe038b80	-0.12846184
218	0xbdc83ac9	-0.097768374
219	0xbeb6e6bf	-0.3572292
220	0x3e48c289	0.1960546
221	0x3e4f9332	0.20270994
222	0x3e21649e	0.15761039
223	0x3d3c7236	0.046007358
224	0xbe80b761	-0.25139907
225	0xbd2f91e5	-0.042863745
226	0x3e12a7d0	0.14321828
227	0x3e52e8a1	0.20596553
228	0x3d2e2e6f	0.04252475
229	0xbd9e1acd	-0.077199556
230	0x3e3d616e	0.18494198
231	0x3e31f752	0.17379501
232	0xbb9def95	-0.00481982
233	0xbcf1e773	-0.029529309
234	0xbc63ad39	-0.01389628
235	0xbe29d7d2	-0.16586235
236	0xbe072771	-0.1319864
237	0xbe20fb84	-0.15720946
238	0x3bc4d4f1	0.00600683
239	0xbd918750	-0.07105887
240	0xbdc0ac04	-0.094078094
241	0xbdab13f0	-0.08353412
242	0x3c996270	0.018723696
243	0x3df12f49	0.11776597
244	0xbd82a9c7	-0.06380039
245	0xbdef4134	-0.116823584
246	0xbe381708	-0.17977536
247	0xbe177f64	-0.1479469
248	0x3e07a7d2	0.13247612
249	0xbd51f5ea	-0.051259913
250	0x3db5f7df	0.08885168
251	0xbba6d614	-0.005091438
252	0x3d12aec4	0.0358112
253	0x3e6788c4	0.22610766
254	0xbd9ad569	-0.07560236
255	0xbdafe452	-0.085884705

bias f4 [100]
0	0x3d1a82e4	0.037722483
1	0x3dfb46f2	0.12269391
2	0xbd4b4cff	-0.049633976
3	0x3dec5d59	0.11541242
4	0x3d91bbee	0.07115923
5	0x3b1906aa	0.002334992
6	0x3d494227	0.049135353
7	0xbe4c2b06	-0.19938287
8	0xbd5f8119	-0.054566476
9	0xbd00caf5	-0.031443555
10	0x3cca47e9	0.024692493
11	0xbd6e38cf	-0.058159646
12	0x3d2191b5	0.039445598
13	0x3b6bdc8c	0.003598961
14	0xbdcb4518	-0.09925288
15	0xbb7216c7	-0.0036939846
16	0x3d86d41d	0.06583426
17	0xbdbdc227	-0.09265547
18	0xbd1d912d	-0.03846853
19	0x3b654470	0.003498342
20	0xbd386a24	-0.0450231
21	0x3d152e0b	0.036420863
22	0x3d932432	0.07184638
23	0xbcedcd79	-0.029028641
24	0xbc63e7cd	-0.013910246
25	0xbe107244	-0.14106089
26	0xbbc1f155	-0.0059186616
27	0x3da791a4	0.081820756
28	0xbd756dd0	-0.05991918
29	0xbdb14114	-0.08654991
30	0xbd078543	-0.033086073
31	0x3dafddf1	0.08587254
32	0x3a9a61c1	0.00117784
33	0xbde00592	-0.109385625
34	0xbd13fd86	-0.03613045
35	0x3dd8f012	0.10592665
36	0x3d521430	0.051288784
37	0x3a1cfc1d	0.00059884955
38	0xbd408edf	-0.047011252
39	0xbd27902a	-0.04090897
40	0xbdb14f90	-0.086577535
41	0xbb640394	-0.0034792172
42	0xbcc72f98	-0.024314687
43	0x3dad76b4	0.084699064
44	0x3c7b2d3d	0.01533061
45	0xbb2e01ba	-0.0026551322
46	0xbd8ae22f	-0.06781422
47	0xbd08105b	-0.033218723
48	0xbdb11384	-0.086463004
49	0x3d7799a8	0.060449272
50	0x3c70bbfe	0.014693258
51	0x3d5c5915	0.053795893
52	0xbd8af8d2	-0.0678574
53	0x3d51606f	0.051117357
54	0x3cbc19bc	0.02296149
55	0x3dd4cce2	0.10390641
56	0xbd3ae0b2	-0.045624442
57	0xbc8376cd	-0.01604786
58	0x3dcd0d5d	0.100123145
59	0xbd998c83	-0.074975036
60	0x3d2ad52e	0.04170721
61	0x3d5ecdbd	0.054395426
62	0x3dd9b9dd	0.10631154
63	0x3c44505c	0.01198205
64	0xbcc2ca00	-0.023777962
65	0x3cde823e	0.027161714
66	0xbcc57608	-0.024104133
67	0xbe0090a5	-0.12555178
68	0xbd079c40	-0.033107996
69	0x3c7cede2	0.015437575
70	0x3cb135b5	0.021632055
71	0xbc3fe142	-0.0117114205
72	0xbddc49ef	-0.10756289
73	0xbc9fd797	-0.019511981
74	0xbe11950d	-0.14217015
75	0x3d0aa7d4	0.03385146
76	0xbdb4e70d	-0.08833132
77	0xbd87ada7	-0.066249184
78	0x3cbbeaac	0.022939049
79	0x3d7ea02d	0.062164474
80	0xbd5de59f	-0.054174062
81	0x3ca0323c	0.019555204
82	0xbda5b3b8	-0.08090919
83	0x3e095bdc	0.13413948
84	0xbcad8aa1	-0.021184267
85	0xbd580fc3	-0.052749407
86	0xbc99e3ab	-0.018785318
87	0xbdbea6a5	-0.09309129
88	0x3d8ad3f5	0.06778709
89	0x3e158ab3	0.14603691
90	0x3d7d2ae4	0.06180848
91	0x3d124b6b	0.035716455
92	0x3bc08600	0.005875349
93	0x3dada609	0.08478934
94	0xbd8b5468	-0.068032086
95	0x3d257b8b	0.040401023
96	0xbdb70a1f	-0.08937477
97	0xbd360449	-0.04443768
98	0x3d93e35d	0.072211005
99	0xbc653a68	-0.013990976

weight f4 [100]
0	0x3f83b00c	1.02881
1	0x3f76d7e1	0.96423155
2	0x3f7c585e	0.9857234
3	0x3f801c78	1.0008688
4	0x3f7ba4ef	0.98298544
5	0x3f79fbb8	0.9764972
6	0x3f84a9bd	1.03643
7	0x3f813443	1.0094074
8	0x3f75e85d	0.96057683
9	0x3f7dfe0a	0.9921576
10	0x3f810525	1.0079695
11	0x3f816853	1.0109962
12	0x3f7f87cf	0.998166
13	0x3f7fe82a	0.9996363
14	0x3f78dab7	0.9720873
15	0x3f828417	1.0196561
16	0x3f887aab	1.0662435
17	0x3f7f0ab0	0.9962568
18	0x3f7dba11	0.9911204
19	0x3f7c0d3c	0.98457694
20	0x3f8372fc	1.0269465
21	0x3f82b89e	1.0212591
22	0x3f749843	0.9554483
23	0x3f83d521	1.0299417
24	0x3f861e8d	1.0478073
25	0x3f8169a1	1.011036
26	0x3f82924e	1.0200899
27	0x3f8002b4	1.0000825
28	0x3f77fdb9	0.96871525
29	0x3f847276	1.0347431
30	0x3f8474bd	1.0348126
31	0x3f7b6203	0.9819643
32	0x3f7265e7	0.9468674
33	0x3f851e33	1.0399841
34	0x3f76502e	0.96216094
35	0x3f837c6f	1.0272349
36	0x3f79e7dd	0.9761942
37	0x3f7b297f	0.98110193
38	0x3f7f9d89	0.99849755
39	0x3f8323bf	1.0245284
40	0x3f7ef920	0.99598885
41	0x3f7e93ce	0.9944428
42	0x3f8048d0	1.0022221
43	0x3f87a5f3	1.0597519
44	0x3f732a80	0.94986725
45	0x3f842b81	1.0325776
46	0x3f82ae6c	1.0209479
47	0x3f806146	1.0029685
48	0x3f8373dd	1.0269734
49	0x3f81b708	1.0133982
50	0x3f798832	0.9747344
51	0x3f7c67cf	0.985959
52	0x3f79f319	0.9763656
53	0x3f7d0845	0.98840743
54	0x3f76bd24	0.96382356
55	0x3f7a3184	0.97731805
56	0x3f73298a	0.9498526
57	0x3f794753	0.9737446
58	0x3f7b413a	0.981464
59	0x3f7fb881	0.99890906
60	0x3f7d5f72	0.98973763
61	0x3f7e32c8	0.99296236
62	0x3f79dfa3	0.9760687
63	0x3f82673a	1.0187752
64	0x3f722659	0.94589764
65	0x3f858a03	1.0432743
66	0x3f796146	0.9741405
67	0x3f79d487	0.97589916
68	0x3f82e963	1.0227474
69	0x3f7ba505	0.98298675
70	0x3f87c512	1.0607016
71	0x3f73df14	0.95262265
72	0x3f7c5ca6	0.9857887
73	0x3f7bb1d0	0.98318195
74	0x3f779c11	0.96722513
75	0x3f81bd35	1.0135866
76	0x3f84e65a	1.0382798
77	0x3f80051b	1.0001558
78	0x3f7c9e03	0.98678607
79	0x3f81523f	1.0103225
80	0x3f839dde	1.0282552
81	0x3f831ce7	1.0243195
82	0x3f8492df	1.0357322
83	0x3f7e25af	0.9927625
84	0x3f7ec428	0.9951806
85	0x3f7b0eb7	0.9806933
86	0x3f73fb80	0.95305634
87	0x3f786dd0	0.9704256
88	0x3f7d0ac3	0.98844546
89	0x3f75005f	0.9570369
90	0x3f862fe6	1.0483367
91	0x3f71edb9	0.9450336
92	0x3f74ef19	0.95677334
93	0x3f7f3219	0.9968582
94	0x3f8608f3	1.0471481
95	0x3f83f86c	1.0310187
96	0x3f8033f4	1.0015855
97	0x3f84df09	1.0380565
98	0x3f81b92e	1.0134637
99	0x3f73e804	0.952759

bias f4 [100]
0	0xbd72b73d	-0.05925678
1	0x3d7e96c2	0.062155493
2	0xbd8e791a	-0.06956692
3	0x3d6c8b8c	0.05775027
4	0xbc2591ea	-0.010105589
5	0xbd219288	-0.039446384
6	0x3e1b9f52	0.15197495
7	0xbd3f9409	-0.046772037
8	0x3d8c5252	0.06851639
9	0x3db89d85	0.090144195
10	0xbd1863a5	-0.037204403
11	0x3dc3906f	0.09549033
12	0x3cdfe0c7	0.027328862
13	0x3cad73f5	0.021173457
14	0x3cbad023	0.022804325
15	0x3d9703a3	0.073737405
16	0xbdd1ec69	-0.1025017
17	0x3d6d98ed	0.05800717
18	0x3de671e4	0.11252192
19	0xbd2e8b7c	-0.04261349
20	0xbd9be82d	-0.076126434
21	0x3d0c7460	0.03429067
22	0x3d255d26	0.040372036
23	0x3da998fa	0.08281131
24	0xbcf2d934	-0.029644586
25	0xbc7732f2	-0.01508783
26	0xbdaa0751	-0.08302177
27	0xbe05ba8b	-0.13059442
28	0xbd754edb	-0.059889656
29	0xbd520bd5	-0.051280815
30	0xbd135e88	-0.035978824
31	0xbbd504be	-0.0065008095
32	0xbd38c3c9	-0.04510859
33	0xbd4fbd51	-0.050717656
34	0x3c88b741	0.016688945
35	0xbd08cccf	-0.033398446
36	0x3da763d9	0.08173341
37	0x3c8a51a5	0.016884634
38	0xbc8d0f9f	-0.017219363
39	0xbd7d5d15	-0.061856348
40	0xbc9058b4	-0.017620422
41	0xbd408cb7	-0.047009196
42	0x3c95e448	0.01829733
43	0x3d6defb8	0.05808994
44	0x3d2d9724	0.042380467
45	0xbcd230ba	-0.025658
46	0xbcf6e41a	-0.030138064
47	0xbca98995	-0.020695487
48	0xbd9f156a	-0.07767756
49	0x3bd37edc	0.006454332
50	0x3c1cdfca	0.00957484
51	0xbd4817b2	-0.048850723
52	0xbd863af3	-0.065542124
53	0x3da8ebc1	0.082480915
54	0x3da9d914	0.082933575
55	0x3c4dca90	0.012560502
56	0xbdb11d2c	-0.08648142
57	0x3ac1d5fe	0.0014788506
58	0x3d110ec8	0.035414487
59	0x3d29902c	0.04139726
60	0xbcea83ba	-0.028627265
61	0xbd214c8b	-0.039379638
62	0x3b9aedac	0.0047280397
63	0x3c11d476	0.008900752
64	0x3c889edf	0.016677318
65	0xbdc90c97	-0.098168544
66	0x3c1d7f4f	0.009612872
67	0xbd83b558	-0.06431073
68	0x3ba80c33	0.0051284074
69	0xbc570f0d	-0.013126147
70	0xbd8e6f45	-0.06954817
71	0xbc17d44c	-0.009266924
72	0x3ac0ecb7	0.0014718984
73	0x3c85ad3d	0.016317958
74	0xbdac65d7	-0.08417862
75	0xbd78e90c	-0.060769126
76	0xbcb9a3f5	-0.022661189
77	0x3de0bcff	0.10973548
78	0xbd425bed	-0.04745095
79	0x3cd0d696	0.025492948
80	0x3b824f2a	0.0039767222
81	0xbb8e26ac	-0.004338106
82	0x3d9f2530	0.07770765
83	0x3d942254	0.0723311
84	0x3d2a77cf	0.041618165
85	0xbd33b0c9	-0.043869767
86	0x3d64681d	0.055763353
87	0x3cb0c549	0.021578448
88	0x3d3be92e	0.045876674
89	0x3b50c2fc	0.00318545
90	0xbda32c60	-0.07967448
91	0xbca900ea	-0.020630319
92	0xbd7e8cdb	-0.06214605
93	0x3db7eefd	0.0898113
94	0xbc81f0ba	-0.015861858
95	0x3c831380	0.01600051
96	0x3c2ce316	0.010552188
97	0xbcbe8bda	-0.023260046
98	0x3bdeffcb	0.0068053952
99	0x3d8a9878	0.06767362

running_mean f4 [100]
0	0x3eb9df89	0.36303356
1	0x3f67cfb0	0.9055128
2	0x3eea0826	0.45709342
3	0x3f71925f	0.9436397
4	0x3f1f913c	0.62330985
5	0x3f6b5cf9	0.9193874
6	0x3f3a6e29	0.7282434
7	0x3e1d6540	0.15370655
8	0x3f6ec34c	0.9326675
9	0x3ef7b680	0.48381424
10	0x3f515da6	0.8178352
11	0x3ee9eb5b	0.45687374
12	0x3ebe683e	0.37188905
13	0x3f42025c	0.7578485
14	0x3e848cb5	0.258886
15	0x3eecda72	0.4626041
16	0x3f32bd4c	0.69820094
17	0x3e97ab57	0.2962291
18	0x3ef9f842	0.48822218
19	0x3f1471f7	0.57986397
20	0x3e83822d	0.25685254
21	0x3edb6099	0.42847136
22	0x3f21709f	0.6306247
23	0x3f2895c0	0.658535
24	0x3ee42b0b	0.4456409
25	0x3e3d1cda	0.18468037
26	0x3f078313	0.5293438
27	0x3f218c8f	0.631051
28	0x3f38cda4	0.7218878
29	0x3eba01c1	0.36329463
30	0x3e465090	0.1936667
31	0x3f0d9b62	0.5531522
32	0x3f694d13	0.9113323
33	0x3eb82da8	0.35972333
34	0x3f7adf26	0.9799675
35	0x3f2a64e9	0.66560227
36	0x3f3f91b3	0.74831694
37	0x3f51d1be	0.81960666
38	0x3ee1822c	0.44044626
39	0x3efec212	0.4975744
40	0x3f12789b	0.5721528
41	0x3f12db08	0.57365465
42	0x3f0ccb2c	0.54997516
43	0x3f3b2a4b	0.7311141
44	0x3f1812e6	0.59403837
45	0x3e7888b8	0.24270904
46	0x3e32689a	0.17422715
47	0x3f955ee3	1.1669582
48	0x3ecf898a	0.4053462
49	0x3efa9cbb	0.489477
50	0x3f2c8b6a	0.6740023
51	0x3ee3c290	0.44484377
52	0x3f5d7950	0.86513233
53	0x3f04efe0	0.5192852
54	0x3f0ae1a2	0.5425054
55	0x3f43e7b3	0.7652542
56	0x3ece7613	0.40324458
57	0x3f52b97d	0.8231428
58	0x3f2b7188	0.6697011
59	0x3f1e2f22	0.6179067
60	0x3f60d46c	0.8782413
61	0x3f57f861	0.8436337
62	0x3f21a027	0.63135
63	0x3f12a859	0.5728813
64	0x3f89ce01	1.0765992
65	0x3e8998bd	0.26874343
66	0x3f36f0bb	0.71461076
67	0x3ed9fa8b	0.42573962
68	0x3f33ae5f	0.70187944
69	0x3f209778	0.6273112
70	0x3ef86d6f	0.4852099
71	0x3f52e97f	0.82387537
72	0x3ec06b3a	0.37581807
73	0x3f0318f2	0.5120994
74	0x3f18974a	0.5960585
75	0x3f60644d	0.87653047
76	0x3ed3aa00	0.41340637
77	0x3f610c7e	0.87909687
78	0x3f24984c	0.64294887
79	0x3f04e428	0.5191064
80	0x3f3e7032	0.74389946
81	0x3f1c5725	0.6107047
82	0x3e9c4e73	0.30528602
83	0x3f5ce7d4	0.8629124
84	0x3ef2f87a	0.47455198
85	0x3f23edd3	0.64034766
86	0x3f076301	0.5288544
87	0x3f0e684e	0.55627906
88	0x3f1b57f8	0.60681105
89	0x3f8c0c1e	1.0941198
90	0x3ea4faf2	0.32222706
91	0x3f586bea	0.84539664
92	0x3f0e1f6e	0.5551671
93	0x3f193d96	0.598596
94	0x3e83789f	0.25677964
95	0x3f171af9	0.5902553
96	0x3ecd21ac	0.40064752
97	0x3eec3acc	0.46138608
98	0x3eb58459	0.35452536
99	0x3f25defb	0.64793366

running_var f4 [100]
0	0x3e93f6a2	0.28899103
1	0x3f492f3f	0.78587717
2	0x3e9cf192	0.30653054
3	0x3f38a4db	0.7212655
4	0x3eb7828f	0.35841796
5	0x3fa8c2cb	1.3184446
6	0x3f03b603	0.514496
7	0x3db785ee	0.08961092
8	0x4030ec8f	2.7644384
9	0x3ea4bccf	0.321753
10	0x3f32ef47	0.6989636
11	0x3f549bdb	0.83050317
12	0x3ea9c757	0.33159897
13	0x3f800894	1.0002618
14	0x3e428639	0.18996514
15	0x3ec5c17d	0.38624182
16	0x3f05373c	0.52037406
17	0x3e71923c	0.2359094
18	0x3e875830	0.2643447
19	0x3f59631c	0.84916854
20	0x3eb0d82d	0.3453993
21	0x3e413f04	0.18871695
22	0x3f4b3783	0.7938158
23	0x3f1515f3	0.58236617
24	0x3f75a5b0	0.95955944
25	0x3de62e14	0.112392575
26	0x3f600c7e	0.8751906
27	0x3f23cf3b	0.63988084
28	0x3f725b2d	0.94670373
29	0x3e80479e	0.2505464
30	0x3dd6306d	0.10458455
31	0x3ecccfbd	0.40002242
32	0x3ffe749f	1.987934
33	0x3f07371d	0.5281847
34	0x40106074	2.255887
35	0x3f2998a9	0.66248566
36	0x3f6be7b4	0.92150426
37	0x3f51781a	0.81823885
38	0x3f320f9c	0.6955507
39	0x3ec82874	0.39093363
40	0x3ebc194f	0.3673806
41	0x3fb472fb	1.4097589
42	0x3edcb263	0.43104848
43	0x3edc26bc	0.42998302
44	0x3f6f507d	0.9348219
45	0x3e794ee1	0.24346496
46	0x3e20e969	0.15714039
47	0x4018acb8	2.385542
48	0x3ec4ac5d	0.38412753
49	0x3edefcc2	0.43552214
50	0x3f45a9c4	0.77212167
51	0x3ee943f5	0.4555966
52	0x3ff0e96e	1.8821237
53	0x3f275ee2	0.65379155
54	0x3ed8b956	0.423289
55	0x3f9e505a	1.2368271
56	0x3e2c4cef	0.16826223
57	0x3fee16e2	1.8600733
58	0x3f13f828	0.5780053
59	0x3f5bd245	0.8586772
60	0x4054776c	3.319789
61	0x3fc3987c	1.528091
62	0x3f9eeb8e	1.2415636
63	0x3e9aecf5	0.3025891
64	0x3ffe23b2	1.9854643
65	0x3e282798	0.16421354
66	0x40556964	3.3345575
67	0x3ea8fc3e	0.33004946
68	0x3faf2bdb	1.3685259
69	0x3ee92ca3	0.45541868
70	0x3eff30ba	0.49841863
71	0x4005afc1	2.0888522
72	0x3eae4b52	0.3404184
73	0x3f4c65e8	0.79842997
74	0x3fa03232	1.2515318
75	0x3f7764e5	0.9663833
76	0x3e868f83	0.26281366
77	0x3faf1dc1	1.3680955
78	0x3f414536	0.7549623
79	0x3e5c4363	0.21510081
80	0x3facd3af	1.3502101
81	0x3f20cca1	0.6281224
82	0x3e28e0d6	0.16492018
83	0x3f3c8012	0.7363292
84	0x3ee54542	0.44779402
85	0x3fc467c5	1.5344168
86	0x3e90e9b6	0.28303307
87	0x3f6ae5e8	0.9175706
88	0x3f6b05ad	0.91805536
89	0x3f9e92bc	1.238853
90	0x3e24ef78	0.16106975
91	0x3f8d7c8f	1.1053637
92	0x3ebcbf30	0.36864614
93	0x3f2af2e9	0.667769
94	0x3dcff1ac	0.10153517
95	0x3f06b225	0.52615577
96	0x3f090e77	0.53537697
97	0x3ebbce1f	0.36680695
98	0x3ece29b6	0.40266198
99	0x3e9ecb21	0.3101435

weight f4 [100, 100]
0	0x3e16926b	0.14704292
1	0xbdb962b3	-0.090520285
2	0xbc885efe	-0.016646858
3	0xbcf41a8d	-0.029797817
4	0x3cd5da4b	0.026105067
5	0xbc776008	-0.015098579
6	0xbe1897f6	-0.14901718
7	0xbe6d8997	-0.23197018
8	0xbd13a597	-0.03604659
9	0x3d82bcf6	0.06383698
10	0x3e33bcf4	0.17552549
11	0xbb7698f6	-0.0037627793
12	0xbe2334c8	-0.15938103
13	0x3df63898	0.12022513
14	0x3dc6f69f	0.09715008
15	0x3d7b5e8f	0.061369475
16	0x3b0d503b	0.0021562714
17	0x3e672abe	0.22574899
18	0xbe21a311	-0.15784861
19	0x3d2c4735	0.042060096
20	0x3e1a8317	0.1508907
21	0xbe932822	-0.28741556
22	0xbc0d6332	-0.008629607
23	0xbe3a5eb5	-0.1820019
24	0x3d40dc8a	0.047085322
25	0x3e2580aa	0.16162363
26	0x3dfc7bc2	0.123282924
27	0x3d9878fc	0.07444951
28	0xbd0a37c4	-0.03374459
29	0xbe4d0607	-0.2002183
30	0x3e1943b4	0.14967233
31	0x3dc9ef33	0.09860077
32	0xbdae76ad	-0.08518729
33	0xbdda01d4	-0.1064488
34	0x3d8cf217	0.068821125
35	0x3e452131	0.19250943
36	0x3dc11519	0.09427852
37	0x3d9ace5d	0.07558892
38	0x3c883cc8	0.016630545
39	0x3e6e32df	0.23261593
40	0xbd8d6a04	-0.069049865
41	0x3c8f88f2	0.017521355
42	0x3c8feb26	0.017568182
43	0xbe83fb83	-0.25777826
44	0xbd032c1b	-0.032024484
45	0x3e3a3dce	0.18187639
46	0x3e96978e	0.29412502
47	0xbe3f1493	-0.18660192
48	0x3e957864	0.29193413
49	0xbd2b0742	-0.04175497
50	0xbd567568	-0.05235806
51	0x3df1e4c5	0.118112125
52	0x3d732f06	0.059371017
53	0xbdb5f252	-0.088841096
54	0x3c9b5c7b	0.018964997
55	0x3e3037af	0.17208742
56	0xbe4d0ee6	-0.20025215
57	0x3e287e06	0.16454324
58	0x3e1f52f3	0.15558986
59	0x3e325d44	0.1741839
60	0x3e470bb5	0.1943806
61	0xbd6a70d3	-0.057236504
62	0xbcf8637a	-0.030320872
63	0x3e84cae6	0.2593605
64	0xbe3b12d6	-0.18268904
65	0xbe7b4159	-0.24536647
66	0x3d51b9ae	0.05120247
67	0x3d10da8b	0.03536467
68	0xbe353e7a	-0.17699614
69	0x3e808d38	0.2510774
70	0xbd9ee60d	-0.077587225
71	0x3ec527f8	0.38507056
72	0xbe15b3ee	-0.14619419
73	0xbd5eca8d	-0.054392386
74	0x3e9183e9	0.28420952
75	0x3e9231e1	0.2855368
76	0x3dd857ae	0.105635986
77	0xbe1d23eb	-0.15345733
78	0xbcc53c5d	-0.024076635
79	0xbd1dc6c7	-0.038519647
80	0xbca50447	-0.020143641
81	0xbe40336c	-0.18769616
82	0xbd0b3960	-0.033990264
83	0xbce49c20	-0.027906477
84	0xbee521ed	-0.44752446
85	0xbce01986	-0.02735592
86	0x3d296d4e	0.041364007
87	0x3e3d8fa8	0.18511832
88	0x3e16897e	0.14700887
89	0xbdb021c6	-0.08600192
90	0xbc4594dd	-0.012059418
91	0x3d307fbb	0.043090563
92	0x3db658df	0.089036696
93	0x3e541962	0.20712808
94	0x3e6178c7	0.22018729
95	0xbe0f8676	-0.14016137
96	0x3e0dd24b	0.13849752
97	0x3e3731ff	0.17890166
98	0xbb9e84f9	-0.004837629
99	0x3df0572d	0.117353775
100	0xbe08214b	-0.1329395
101	0x3e839922	0.2570277
102	0x3c8a0038	0.016845807
103	0x3e3ee28a	0.18641105
104	0xbd80c311	-0.06287206
105	0x3e44ee82	0.19231609
106	0x3e8fb55f	0.28068063
107	0x3d4a90f3	0.04945464
108	0xbcd84108	-0.026398197
109	0x3da28752	0.079359666
110	0xbead326f	-0.3382754
111	0x3dbfccc3	0.09365227
112	0x3df30752	0.118666306
113	0x3d778804	0.06043245
114	0xbd1a73b4	-0.037708
115	0xbd397582	-0.04527808
116	0xbe3de01b	-0.1854252
117	0x3e2383c4	0.15968233
118	0x3c72a5e7	0.014810062
119	0x3ea57f7f	0.32323834
120	0xbe21b23f	-0.15790652
121	0xbd3ebe73	-0.046568345
122	0xbe2b3ef9	-0.16723241
123	0xbe8c6e82	-0.2742806
124	0xbe4169cb	-0.18888013
125	0xbe40d05f	-0.18829487
126	0xbefb38cb	-0.49066767
127	0xbda1a3b6	-0.078925535
128	0xbceb388c	-0.028713487
129	0x3ceb3f36	0.028716665
130	0xbcdee6c6	-0.02720965
131	0x3daddca5	0.0848935
132	0xbe59d13c	-0.21271223
133	0xbdcf1ee1	-0.101133116
134	0xbc8f5bcf	-0.017499832
135	0xbd5e2411	-0.054233614
136	0x3e16fc44	0.14744669
137	0xbdbc1d7f	-0.091853134
138	0xbe22901e	-0.15875289
139	0xbd832bbf	-0.06404828
140	0x3dcfad6b	0.10140499
141	0x3dab2550	0.08356726
142	0xbe43097f	-0.19046591
143	0x3e095500	0.13411331
144	0xbded2442	-0.11579181
145	0x3d9a0453	0.07520356
146	0xbdd982e4	-0.106206685
147	0xbe52db73	-0.20591526
148	0x3e001e2d	0.12511511
149	0x3ea64ae1	0.32479003
150	0x3e110dfb	0.1416549
151	0x3d3a4ef7	0.045485463
152	0x3d5cc55b	0.05389915
153	0xbd1fd3b7	-0.039020266
154	0xbd1ee427	-0.0387918
155	0x3da1f86f	0.07908713
156	0x3d990daa	0.07473309
157	0xbd1d37a5	-0.038383145
158	0x3e67c60b	0.22634141
159	0xbdefe348	-0.11713272
160	0xbe5cf0ea	-0.21576276
161	0xbcf4e267	-0.029893113
162	0x3d0b6b68	0.034037977
163	0x3bd01371	0.006349974
164	0x3de9b44e	0.114113435
165	0xbee37d38	-0.44431472
166	0x3bed7e7b	0.0072477437
167	0x3d164d52	0.036694832
168	0xbe0af62d	-0.13570471
169	0xbd4388e0	-0.047737956
170	0xbe8eb5b8	-0.27873015
171	0xbdb4d328	-0.08829337
172	0x3d428241	0.0474875
173	0xbe347342	-0.17622092
174	0xbeb55577	-0.35416767
175	0x3da7023c	0.08154723
176	0x3db9379b	0.09043809
177	0xbe1f68cb	-0.15567319
178	0xbcdc2d0b	-0.026876947
179	0x3db7b2cc	0.0896965
180	0x3e180556	0.14845785
181	0xbe93b3b2	-0.28848034
182	0x3e3f2f0d	0.18670292
183	0xbdb88268	-0.09009248
184	0x3e4ef2f3	0.20209865
185	0x3dcd57e1	0.10026527
186	0xbd2c8b45	-0.042125005
187	0x3d8d3627	0.06895094
188	0x3e621ec6	0.22082052
189	0x3d90ae9d	0.07064555
190	0xbe3bed59	-0.1835226
191	0xbd2d4612	-0.042303152
192	0x3e72d78f	0.23715042
193	0x3cb8c3c4	0.022554286
194	0x3da17324	0.078832895
195	0x3d9efaca	0.07762678
196	0x3dc689fc	0.09694287
197	0x3e2adb89	0.16685309
198	0xbdf19a3f	-0.11796998
199	0xbd2ba594	-0.041905954
200	0xbd622f24	-0.055220738
201	0xbd117e85	-0.03552105
202	0xbd95b664	-0.07310179
203	0xbd1250e8	-0.03572169
204	0xbdefdb93	-0.11711802
205	0x3d906e54	0.070522934
206	0xbe21ba9f	-0.15793847
207	0x3d4d4a5b	0.05011974
208	0xbdff42bd	-0.12463901
209	0x3d91ad4f	0.07113134
210	0x3dc06843	0.09394886
211	0xbe069505	-0.13142784
212	0x3d17de27	0.037077095
213	0x3d29ccc0	0.04145503
214	0xbe777f2f	-0.2416961
215	0xbc6aa841	-0.014322341
216	0xbdfc01fb	-0.12305065
217	0x3ceaf9af	0.028683512
218	0x3e34d4c7	0.17659293
219	0x3dedf06b	0.11618122
220	0xbe1ba586	-0.15199861
221	0x3e0e04ac	0.1386897
222	0x3d727edc	0.059203014
223	0xbdaecb64	-0.085348874
224	0xbd2547a6	-0.040351532
225	0x3d64e3c6	0.055881284
226	0x3e139826	0.14413509
227	0xbde8950d	-0.11356554
228	0xbe658afd	-0.22416301
229	0xbe2759b4	-0.16342813
230	0xbd176298	-0.03695926
231	0xbe8590b2	-0.26086956
232	0x3d9d2947	0.07673889
233	0x3e28ed4f	0.16496776
234	0xbda90751	-0.082533486
235	0x3d276420	0.04086697
236	0xbd82aa9b	-0.06380197
237	0x3e15ff25	0.14648111
238	0x3e44a223	0.19202475
239	0x3d40b314	0.047045782
240	0xbcab98ab	-0.020946821
241	0x3d29e8d4	0.041481808
242	0xbea618f6	-0.3244092
243	0xbbd31c8f	-0.0064426134
244	0x3ddeed4e	0.10885106
245	0xbdc83025	-0.09774808
246	0xbe349ad1	-0.17637183
247	0xbe178f80	-0.14800835
248	0xbddceeff	-0.107877724
249	0xbea953cd	-0.33071747
250	0x3e00951e	0.12556884
251	0x3e31dba7	0.17368947
252	0x3d832549	0.06403596
253	0xbe1e8293	-0.15479498
254	0x3e42254c	0.1895954
255	0xbd0ac4d7	-0.033879127

bias f4 [100]
0	0x3d976b80	0.07393551
1	0x3e4efb30	0.20213008
2	0x3c327376	0.010891786
3	0xbd24ea85	-0.040262718
4	0xbceedddc	-0.029158525
5	0x3c8b6487	0.017015709
6	0x3df53365	0.11972693
7	0xbd8181f7	-0.06323617
8	0xbd9f46e6	-0.07777195
9	0xbcdc5276	-0.02689479
10	0xbdb53e09	-0.08849723
11	0xbd3b8c24	-0.045787945
12	0xbd831174	-0.06399813
13	0xbdc1d820	-0.09465051
14	0x3d41086f	0.047127184
15	0xbd229168	-0.03968945
16	0x3ded2d25	0.11580876
17	0x3d62d45c	0.055378303
18	0xbd5ae088	-0.053436786
19	0x3d10d716	0.035361372
20	0xbd0b2bac	-0.033977196
21	0xbe0f1b9e	-0.13975379
22	0xbdac54f6	-0.084146425
23	0xbd19c5b4	-0.03754206
24	0x3d071a61	0.03298414
25	0xbc9defb9	-0.019279348
26	0x3decba46	0.11558966
27	0xba995957	-0.0011699599
28	0xbbb928b5	-0.0056506046
29	0x3e19c0ae	0.15014908
30	0x3d918395	0.071051754
31	0xbd96b20d	-0.07358179
32	0x3e2e112a	0.16998735
33	0x3b840b8a	0.004029696
34	0x3b431754	0.0029768543
35	0xbd5565e0	-0.05209911
36	0xbdee98e8	-0.11650258
37	0x3d20cfce	0.039260678
38	0x399aa4de	0.00029496005
39	0xbc555668	-0.013021089
40	0x3e01e03a	0.12683192
41	0xbbbafce3	-0.005706416
42	0xbe684dd8	-0.22685945
43	0x3bee0e4b	0.0072648874
44	0xbaef7c05	-0.0018271214
45	0x3d614464	0.054996863
46	0xbd90a02d	-0.07061801
47	0x3de2864f	0.110607736
48	0x3e269f40	0.16271687
49	0xbd954410	-0.072883725
50	0x3d24a089	0.04019216
51	0xbd72c6a6	-0.059271477
52	0x3dca1d78	0.09868902
53	0xbe089f89	-0.13342108
54	0xbe06bf46	-0.13158903
55	0x3d537277	0.051622834
56	0xbbb3e9f7	-0.0054905373
57	0x3de5c324	0.11218861
58	0x3c0f5315	0.008747836
59	0xbd69cbd3	-0.057079148
60	0x3d4504e3	0.048100363
61	0x3ca4d88d	0.02012279
62	0xbe22c801	-0.15896608
63	0xbd943a6f	-0.07237708
64	0xbd56fb93	-0.052486014
65	0xbd1ddd0a	-0.038540877
66	0xbd465abc	-0.048426375
67	0xbddfe143	-0.10931637
68	0xbdd61eb6	-0.104550764
69	0x3ad125e9	0.0015956733
70	0x3c5bd6d9	0.013417923
71	0xbc956c25	-0.018240044
72	0xbd1f87c6	-0.038947843
73	0x3d3ba457	0.045811024
74	0x3d4e913f	0.050431486
75	0xbc1f8297	-0.009735725
76	0x3d20085a	0.039070465
77	0x3de1df8d	0.11028967
78	0xbdb0e8cb	-0.08638152
79	0xbd943800	-0.07237244
80	0xbc228afe	-0.009920834
81	0xbcef1424	-0.029184408
82	0x3dcdfee0	0.10058379
83	0x3c969334	0.018380739
84	0x3d3f07d0	0.04663831
85	0xbcf8eaae	-0.030385341
86	0x3ab55eb1	0.0013837424
87	0x3cfaddcf	0.030623345
88	0xbc4ebc02	-0.012618067
89	0x3c126f27	0.008937634
90	0x3d24700a	0.04014591
91	0xbda0819e	-0.078372225
92	0x3cc824a7	0.02443154
93	0x3e2169d2	0.15763023
94	0xbded136e	-0.115759715
95	0xbbe3f8ac	-0.006957134
96	0xbd84dec6	-0.06487803
97	0xbddf5053	-0.109039925
98	0xbd55a947	-0.05216339
99	0xbd614c21	-0.055004243
