model.pt (torch_old, 16763 bytes, 16 tensors)

weight f4 [10, 2]
0	0x3ee12e30	0.4398055
1	0xbdbdc7d0	-0.09266627
2	0x3f8ddaa9	1.1082355
3	0xbe64bd0b	-0.22337739
4	0xbf8db8f7	-1.1072072
5	0xbe9bab6f	-0.3040423
6	0x3fb4d51f	1.4127539
7	0xbf37263a	-0.71542704
8	0xbd4de3f6	-0.05026623
9	0xbdc68c4f	-0.096947305
10	0xbe98ad57	-0.29819748
11	0xbe2fa1a3	-0.17151503
12	0xbf408b0a	-0.75212157
13	0xbdf15538	-0.11783832
14	0x401a79cb	2.4136837
15	0xbe33b5ee	-0.1754987
16	0x3f86b1e2	1.0523036
17	0xbe129569	-0.14314808
18	0xbee474ca	-0.44620353
19	0xc00ed4da	-2.2317414

bias f4 [10]
0	0x3f03b277	0.5144419
1	0xbe7e114f	-0.2481129
2	0x3d5708e3	0.05249871
3	0x3e725c0f	0.2366793
4	0xbdb8305c	-0.08993599
5	0xbf2bf85d	-0.6717585
6	0x3dc09f8a	0.0940543
7	0x3e2c0f4a	0.16802707
8	0xbdb9c173	-0.09070101
9	0x3e88f63a	0.26750356

weight f4 [10]
0	0x3f67c85f	0.9054012
1	0x3f898063	1.0742306
2	0x3f85bc70	1.0448132
3	0x3f7d82e6	0.9902786
4	0x3f672d89	0.90303856
5	0x3f800000	1.0
6	0x3f5fc78b	0.87413853
7	0x3f8c6444	1.0968099
8	0x3f912f2a	1.1342518
9	0x3f5ad0f4	0.8547509

bias f4 [10]
0	0xbe6adaf4	-0.22935086
1	0xbdd9b20e	-0.10629664
2	0x3d896c8e	0.06710158
3	0x3d8095a5	0.062785424
4	0xbd437119	-0.04771528
5	0x3dc4112c	0.09573588
6	0x3e3521fc	0.17688745
7	0x3c081e6f	0.008308037
8	0x3beb92f9	0.0071891514
9	0xbe3f2e18	-0.18669927

running_mean f4 [10]
0	0x3f0a2cba	0.539745
1	0x3ec2c583	0.38041314
2	0x3f0261df	0.5093059
3	0x3f4e5423	0.8059713
4	0x3c2f773c	0.01070958
5	0x00000000	0.0
6	0x3ec0709a	0.37585908
7	0x3f938cae	1.1527307
8	0x3ed8e596	0.4236266
9	0x3f8e4bbf	1.1116866

running_var f4 [10]
0	0x3e332e89	0.1749822
1	0x3e9583d6	0.29202145
2	0x3edcf672	0.43156773
3	0x3f794808	0.97375536
4	0x3a185e08	0.00058123516
5	0x28a8c97c	1.8739127e-14
6	0x3e59c6e3	0.21267276
7	0x3fffac69	1.997449
8	0x3ea1311f	0.3148279
9	0x3fb5b0e1	1.4194604

weight f4 [50, 10]
0	0x3e04a50a	0.12953582
1	0x3e8e0b3d	0.2774295
2	0xbe02174d	-0.12704201
3	0xbe6fa1f7	-0.23401628
4	0x3d8524f4	0.06501189
5	0x3c9c4e03	0.019080168
6	0xbf5230e8	-0.82105875
7	0xbe473e9f	-0.19457482
8	0xbef52223	-0.47877607
9	0x3e3671b9	0.17816819
10	0x3eabe374	0.3357197
11	0xbd4b3164	-0.04960765
12	0xbaf8f8c5	-0.0018995038
13	0x3f5210da	0.82056963
14	0x3ebcd3ea	0.36880428
15	0xbf0f46b2	-0.5596725
16	0xbf97f85a	-1.1872666
17	0x3ea510c5	0.32239357
18	0x3f829ada	1.0203507
19	0xbee4b172	-0.4466663
20	0x3e827af9	0.25484446
21	0x3ea1c288	0.31593728
22	0xbf37b4a4	-0.7176001
23	0xbeacbb2d	-0.33736554
24	0x3e6986ca	0.22805324
25	0xbf02a5a9	-0.5103403
26	0x3d865b3a	0.06560369
27	0xbe9a5533	-0.30143127
28	0xbe8f3013	-0.27966365
29	0xbc08c7b7	-0.008348397
30	0x3ee45cf6	0.44602174
31	0xbf04af2b	-0.51829785
32	0xbe86960b	-0.2628635
33	0x3edfc96e	0.43708366
34	0xbd686fcb	-0.05674724
35	0x3eb3e8b2	0.3513847
36	0x3f349ad9	0.7054878
37	0x3f566af1	0.8375693
38	0xbd52f31c	-0.05150138
39	0x3e348a1d	0.17630811
40	0xbf41d10d	-0.7570961
41	0xbe53480c	-0.20632952
42	0x3c9a1c48	0.018812314
43	0x3e8af320	0.27138615
44	0x3e5094f2	0.20369318
45	0xbbcf3fdb	-0.006324751
46	0xbd9f02de	-0.07764219
47	0x3ee94401	0.45559695
48	0xbd69a5c8	-0.057042867
49	0xbee40a63	-0.44539174
50	0xbd83f7dc	-0.0644376
51	0x3e426950	0.18985486
52	0xbe0069ec	-0.12540406
53	0x3d20bacb	0.03924064
54	0xbe882ef2	-0.26598316
55	0xbedf8a9e	-0.43660444
56	0xbf68fc04	-0.91009545
57	0xbec32199	-0.3811157
58	0xbf1d54b7	-0.6145739
59	0x3f0ba0d2	0.5454227
60	0x3de013c9	0.10941274
61	0x3bc8bfcc	0.0061263796
62	0xbe8f560d	-0.2799534
63	0x3b91c8d0	0.0044489875
64	0xba39d139	-0.00070883665
65	0xbe939f78	-0.28832603
66	0x3f1db62a	0.61606085
67	0xbe32225e	-0.17395923
68	0xbee3ac0a	-0.44467193
69	0xbd9f6437	-0.07782786
70	0x3e795aaf	0.24351
71	0xbe075c00	-0.13218689
72	0x3ec028a4	0.37531006
73	0xbed8da09	-0.42353848
74	0xbec7618e	-0.38941616
75	0x3efd62c6	0.4948942
76	0xbdf10223	-0.11767986
77	0x3e2e0ecb	0.1699783
78	0xbe8a93a3	-0.27065763
79	0xbe5894ec	-0.21150559
80	0xbe29d362	-0.16584542
81	0x3f28d805	0.6595462
82	0x3ed3cdba	0.41367894
83	0x3e0f924b	0.1402065
84	0x3edaf48b	0.42764696
85	0x3f3ddb0c	0.74162364
86	0xbebf2b28	-0.37337613
87	0xbf6f4c27	-0.93475574
88	0xbec110c3	-0.377081
89	0xbed91089	-0.42395428
90	0x3f62f800	0.8865967
91	0x3e0dbf1d	0.13842435
92	0xbf36858f	-0.71297544
93	0xbd4c7922	-0.04992021
94	0x3ea71950	0.326365
95	0x3d5fcaeb	0.054636877
96	0x3ec2c23e	0.3803882
97	0x3e0aa8ac	0.13540906
98	0x3e4c2165	0.19934614
99	0x3d244797	0.040107336
100	0x3e4aaf6d	0.19793482
101	0xbd087812	-0.033317633
102	0x3d9b9bf6	0.075981066
103	0xbeb41c72	-0.35177952
104	0x3d0c4999	0.034249876
105	0xbe8145e5	-0.25248638
106	0xbe88d7d6	-0.2672717
107	0x3dd39b84	0.103323966
108	0xbbdf27b9	-0.006810155
109	0x3e2c25f2	0.1681135
110	0x3f085b7f	0.5326461
111	0x3f9cbcca	1.2245114
112	0xbe0c7a59	-0.13718547
113	0xbdac9c86	-0.08428292
114	0xbe82616c	-0.25464952
115	0xbed77a87	-0.42085668
116	0xbea77bff	-0.3271179
117	0xbd9192a1	-0.07108045
118	0x3e97a520	0.29618168
119	0x3e91fe8b	0.28514513
120	0xbed5e78f	-0.41778228
121	0x3d32855b	0.04358421
122	0xbeb4343a	-0.35196096
123	0xbdddabd8	-0.10823792
124	0x3c928a6a	0.017888267
125	0x3ec9a3bf	0.3938274
126	0x3e149a63	0.14512019
127	0x3ee36d47	0.4441931
128	0x3f48dc05	0.78460723
129	0x3e859f16	0.26097935
130	0x3e47cf6c	0.19512719
131	0xbdddf22d	-0.10837207
132	0xbe14cbba	-0.1453084
133	0x3e40ff60	0.18847418
134	0xbede3b93	-0.43404827
135	0xbd10b9b3	-0.035333347
136	0xbeab9715	-0.33513704
137	0xbc006cda	-0.007838452
138	0xbe8ec73b	-0.27886376
139	0xbeb04468	-0.3442719
140	0x3ee5e986	0.44904727
141	0x3f2df686	0.6795429
142	0xbedeb09b	-0.43494114
143	0x3d3050c0	0.04304576
144	0x3da6cbe6	0.08144359
145	0x3dc3d176	0.09561436
146	0x3e7b6e82	0.24553874
147	0xbefbadbd	-0.4915599
148	0x3f25447c	0.64557624
149	0xbd83eb85	-0.06441406
150	0x3d8f15ee	0.06986605
151	0xbf31e9ee	-0.69497573
152	0xbc59269a	-0.013253832
153	0xbe7853d0	-0.24250722
154	0xbe98b650	-0.29826593
155	0xbe51c8d5	-0.20486768
156	0x3c37de53	0.01122244
157	0xbdbcba1c	-0.09215185
158	0xbe64170e	-0.2227442
159	0x3ea5dede	0.32396597
160	0x3ec750ed	0.3892893
161	0x3e35e082	0.17761424
162	0x3e665301	0.22492601
163	0xbe180fc3	-0.14849763
164	0xbf073585	-0.5281604
165	0xbabb4610	-0.0014287848
166	0x3afcadef	0.001927791
167	0xbc9a58e6	-0.018841218
168	0x3efbef80	0.49206161
169	0xbf4fe1f8	-0.81204176
170	0x3d229e1f	0.039701577
171	0xbe1d289b	-0.15347521
172	0xbf425546	-0.75911367
173	0xbd3396f3	-0.04384513
174	0xbe84cfbd	-0.25939742
175	0x3dcb394d	0.09923039
176	0x3dc0a80f	0.09407055
177	0xbeb41160	-0.35169506
178	0x3e34a86c	0.17642373
179	0x3ea5e27c	0.32399356
180	0x3f51ec95	0.8200162
181	0x3f84e399	1.0381957
182	0xbd86a827	-0.06575041
183	0xbcb7e786	-0.022449266
184	0xbdb1ff30	-0.08691251
185	0xbeaf89ba	-0.34284765
186	0x3f00a84d	0.50256807
187	0x3d721b0c	0.059107825
188	0x393dcbd8	0.00018100382
189	0x3ee6ca6a	0.45076305
190	0xbec730e9	-0.38904503
191	0x3cac3693	0.021022117
192	0xbf00382a	-0.500857
193	0xbf754149	-0.9580274
194	0xbf4a606b	-0.7905337
195	0xbf14c750	-0.58116627
196	0x3e79561b	0.24349253
197	0x3f1a7f20	0.6035023
198	0xbe691cf1	-0.22764947
199	0x3ea2c923	0.3179408
200	0x3e8d19f6	0.2755887
201	0xbed1b9ee	-0.40962166
202	0xbeaeb049	-0.3411887
203	0xbc9fa7b7	-0.019489152
204	0xbdf641c6	-0.12024264
205	0xbde56459	-0.112007804
206	0xbdf4e09f	-0.119569056
207	0xbf6471f5	-0.89236385
208	0x3f1eab09	0.6197973
209	0x3e44003d	0.19140716
210	0xbe0f2828	-0.13980162
211	0xbed224ce	-0.41043705
212	0x3edaab10	0.42708635
213	0xbe21ab8d	-0.15788098
214	0x3d3bd9d9	0.045862053
215	0x3f2ac78a	0.6671072
216	0x3e244208	0.16040814
217	0x3ea8c440	0.32962227
218	0xbe373378	-0.17890728
219	0xbf4ed1fa	-0.8078915
220	0x3ec1af4c	0.37829053
221	0xbea3cf97	-0.31994316
222	0xbea4227a	-0.32057554
223	0x3efdbbaa	0.4955724
224	0xbf2ab938	-0.6668887
225	0xbe9d6417	-0.30740425
226	0x3e257804	0.16159064
227	0xbc3b7ac8	-0.011442848
228	0x3ec5d6aa	0.38640338
229	0x3ebdd55f	0.37076852
230	0xbcf78898	-0.0302165
231	0x3f1a1711	0.60191447
232	0x3e2d6569	0.16933216
233	0xbed0499d	-0.40681162
234	0x3f1efbe9	0.62103134
235	0x3f32584f	0.69666
236	0xbf12bbdc	-0.573179
237	0xbf2f9805	-0.6859134
238	0xbe47b44e	-0.19502375
239	0xbcb30789	-0.021854179
240	0xbec42699	-0.38310698
241	0x3f591a72	0.8480598
242	0xbe0fe84f	-0.14053462
243	0xbd852fc8	-0.06503254
244	0x3e00b9b6	0.12570843
245	0x3f17b97e	0.59267414
246	0x3ded5002	0.11587526
247	0xbe2345e6	-0.15944633
248	0x3e83ca2b	0.2574018
249	0xbec5265a	-0.38505822
250	0x3e2de5af	0.16982149
251	0x3f1c8d9a	0.61153567
252	0x3f2d50ed	0.6770161
253	0xbea6e2e4	-0.3259498
254	0x3f0105c6	0.50399435
255	0xbf80875e	-1.0041311

bias f4 [50]
0	0x3cc559d3	0.024090683
1	0xbd8c463e	-0.06849335
2	0xbe78bba1	-0.24290325
3	0xbd25e705	-0.04050352
4	0xbe784256	-0.24244055
5	0x3d78e4b4	0.060764983
6	0x3e5b2ded	0.21404238
7	0xbd875d52	-0.06609596
8	0xbdb0038d	-0.08594427
9	0xbe302ddd	-0.17204995
10	0xbe8bdf5a	-0.2731884
11	0xbcb364ef	-0.021898715
12	0xbd778632	-0.060430713
13	0xbc73f012	-0.01488878
14	0xbc5a30cb	-0.013317297
15	0x3e7a7396	0.24458155
16	0x3eab37d3	0.33441028
17	0x3e286363	0.16444163
18	0xbec12505	-0.37723556
19	0x3e2e326d	0.17011423
20	0xbda00f6f	-0.07815444
21	0x3df663c0	0.120307446
22	0x3a85519d	0.0010171417
23	0xbe9e5b75	-0.3092915
24	0x3eb89fab	0.36059317
25	0xbe657baa	-0.22410455
26	0x3e9e0cd7	0.3086917
27	0xbe703126	-0.23456249
28	0x3e17e686	0.14834031
29	0x3ddde6c3	0.1083503
30	0x3e8dd0f3	0.27698478
31	0x3cc4f2fd	0.024041647
32	0xbe3b23cc	-0.18275374
33	0xbeb884e1	-0.3603888
34	0xbe73fe15	-0.23827393
35	0x3d7cc136	0.061707698
36	0xbe1500e9	-0.14551128
37	0x3d7547ab	0.0598828
38	0x3e93a173	0.28834113
39	0xbea069f7	-0.31330845
40	0x3e9fbb9c	0.31197822
41	0x3dfdb592	0.123881474
42	0x3ea615d7	0.32438537
43	0xbe7ec39c	-0.24879307
44	0x3d332662	0.043737777
45	0x3bce5ef8	0.0062979423
46	0xbe2ed9da	-0.17075291
47	0x3c0c64dd	0.00856897
48	0xbebad60d	-0.36491433
49	0x3dbaa875	0.09114162

weight f4 [50]
0	0x3f949fbe	1.161125
1	0x3f95d454	1.1705422
2	0x3f92a13b	1.1455454
3	0x3f9075d8	1.1285963
4	0x3f84e16a	1.0381291
5	0x3f8df52f	1.1090449
6	0x3f7be9ca	0.9840361
7	0x3f84cc5f	1.0374869
8	0x3f857a03	1.042786
9	0x3f910f74	1.1332841
10	0x3f89824a	1.0742886
11	0x3f96b5d3	1.1774238
12	0x3f9268e5	1.1438261
13	0x3f8a6a44	1.081368
14	0x3f96e579	1.178878
15	0x3f9791c7	1.1841363
16	0x3f82edb2	1.0228789
17	0x3f9a6168	1.2060976
18	0x3fa019c7	1.2507867
19	0x3f6a2954	0.9146931
20	0x3f97d6fc	1.1862483
21	0x3f6d4993	0.9269039
22	0x3f925fd4	1.1435494
23	0x3f8f0534	1.1173463
24	0x3f8f3873	1.1189102
25	0x3f81a1be	1.0127485
26	0x3f89dfa0	1.077137
27	0x3f8feaee	1.124357
28	0x3f81f799	1.0153686
29	0x3f920324	1.1407208
30	0x3f732003	0.9497072
31	0x3f73c5cb	0.95223683
32	0x3f88d8c3	1.069115
33	0x3f73b6fe	0.952011
34	0x3f915067	1.1352662
35	0x3f74eaaa	0.9567057
36	0x3f663364	0.89922166
37	0x3f7ec932	0.9952575
38	0x3f90ac48	1.1302576
39	0x3f7d5392	0.98955643
40	0x3f896566	1.0734069
41	0x3f84659a	1.0343506
42	0x3f9012b3	1.1255707
43	0x3f8ccf2c	1.1000724
44	0x3f800b66	1.0003479
45	0x3f736b4d	0.95085603
46	0x3f944a5b	1.1585191
47	0x3f6d9faf	0.9282178
48	0x3f905c87	1.1278237
49	0x3f918394	1.136828

bias f4 [50]
0	0xbe4be517	-0.1991161
1	0xbe12b425	-0.14326532
2	0xbe3ee30d	-0.186413
3	0x3e12971f	0.1431546
4	0x3e12100a	0.14263931
5	0xbe464da0	-0.19365549
6	0xbe1a8bb4	-0.15092355
7	0x3e1687c3	0.14700226
8	0x3daede6c	0.08538517
9	0xbe155ccc	-0.1458618
10	0xbe8f0523	-0.27933607
11	0xbe692023	-0.22766165
12	0xbdb91ac2	-0.09038307
13	0x3e1a3a16	0.1506122
14	0xbe325160	-0.17413855
15	0xbdf748f5	-0.12074462
16	0x3e18ac17	0.14909397
17	0x3e04de8f	0.12975524
18	0xbe23e724	-0.16006142
19	0x3e9b4824	0.30328476
20	0xbe71da42	-0.23618415
21	0xbe2645c0	-0.16237545
22	0x3e08f275	0.1337374
23	0x3e82e8f0	0.25568342
24	0x3e0d3e05	0.1379319
25	0xbdf21609	-0.11820609
26	0xbe23a1cb	-0.15979688
27	0x3de0a77e	0.109694466
28	0x3e1df70e	0.15426275
29	0xbe23dd07	-0.16002284
30	0x3e2b8565	0.16750105
31	0x3e425be9	0.18980373
32	0xbe818ee1	-0.2530432
33	0x3dffe96f	0.12495696
34	0xbe3d6fbf	-0.18499659
35	0xbe1f4b17	-0.15555988
36	0x3e2cb7f5	0.16867049
37	0x3e0d0249	0.13770403
38	0x3dea61b4	0.11444417
39	0xbe27d7f5	-0.16390975
40	0x3e10ccd0	0.1414063
41	0x3e04c0a7	0.12964116
42	0xbdc8adf0	-0.09798801
43	0xbe40500b	-0.18780534
44	0xbdaa9190	-0.08328545
45	0x3e0721ca	0.13196483
46	0xbe4f0fa4	-0.2022081
47	0x3e157976	0.14597115
48	0xbe459355	-0.19294484
49	0xbe03ef0c	-0.12884158

running_mean f4 [50]
0	0x3e1da12c	0.15393513
1	0x3fa393fb	1.2779535
2	0x3d2aa2e0	0.041659236
3	0x3ed2fe13	0.41209468
4	0x3e431e4d	0.19054528
5	0x3e7af317	0.24506794
6	0x3efc0976	0.49225968
7	0x3e8a4ee7	0.27013323
8	0x3ed57a72	0.4169498
9	0x3eecbfe0	0.4624014
10	0x34099441	1.2813054e-07
11	0x3f55ebf9	0.8356319
12	0x3ef8d74f	0.48601767
13	0x3ea6626d	0.32496968
14	0x3f1339cd	0.5751007
15	0x3f296467	0.66168827
16	0x3f4ad880	0.792366
17	0x3ea3c0d1	0.31983045
18	0x3ef2c371	0.47414735
19	0x3ed707cc	0.41998136
20	0x3e073c2f	0.13206552
21	0x3f3ab375	0.7293008
22	0x3f07d261	0.5305539
23	0x3e250e1f	0.16118668
24	0x3f0edd20	0.5580616
25	0x3ebdb200	0.37049866
26	0x3ee55b0a	0.4479602
27	0x3ec75992	0.38935524
28	0x3f593a72	0.84854805
29	0x3f2fdfca	0.6870085
30	0x3f80a103	1.0049137
31	0x3f0d9891	0.5531092
32	0x3ed881be	0.42286485
33	0x3e46f18b	0.19428079
34	0x3f408ec1	0.75217825
35	0x3ec85d77	0.39133808
36	0x3f793521	0.97346693
37	0x3ebf691d	0.37384883
38	0x3f0b0274	0.5430062
39	0x3f1491b3	0.5803482
40	0x3f82ded4	1.0224252
41	0x3f25db43	0.6478769
42	0x3edc1502	0.42984778
43	0x3e218577	0.15773569
44	0x3f362ecc	0.71165156
45	0x3f7c9f3c	0.9868047
46	0x3f24dd36	0.6440004
47	0x3f58f45f	0.8474788
48	0x3e98f5b3	0.29874954
49	0x3f2b2590	0.6685419

running_var f4 [50]
0	0x3d54a990	0.05191952
1	0x406a2b19	3.6588805
2	0x3c301bd8	0.010748826
3	0x3ec5c8f6	0.38629884
4	0x3d56ad0f	0.052411135
5	0x3e05e90f	0.13077186
6	0x3e4351a2	0.19074109
7	0x3dd08bf7	0.10182946
8	0x3e6702e8	0.22559702
9	0x3f071ada	0.5277535
10	0x324fb999	1.2091186e-08
11	0x3ff51581	1.9147187
12	0x3f1cd538	0.61262846
13	0x3dd39a9f	0.10332226
14	0x3f688dcd	0.9084137
15	0x3e7ba295	0.24573739
16	0x3f2fb6e4	0.68638444
17	0x3ddd1835	0.10795633
18	0x3f5c0966	0.8595184
19	0x3e4a9653	0.19783907
20	0x3d1a530e	0.037676863
21	0x3f06888c	0.52552104
22	0x3f11c5ae	0.5694226
23	0x3e171154	0.14752704
24	0x3ede8612	0.43461663
25	0x3f46ad50	0.77608204
26	0x3f00883f	0.50207895
27	0x3eae1935	0.34003606
28	0x3f2a4bd1	0.66521937
29	0x3f9da88e	1.2317064
30	0x3f88a864	1.0676389
31	0x3f544451	0.8291674
32	0x3ef2a4b2	0.47391278
33	0x3e0ca103	0.13733296
34	0x3fcc391a	1.5954926
35	0x3dfbc112	0.122926846
36	0x3f73a0a4	0.95166993
37	0x3e1d8438	0.15382469
38	0x3f29741d	0.661928
39	0x3f7edf8d	0.9955986
40	0x3f374ac0	0.71598434
41	0x3f0e571c	0.5560167
42	0x3e93572d	0.28777447
43	0x3da779b0	0.08177507
44	0x3f1dd6b6	0.6165575
45	0x40292fb3	2.6435363
46	0x3fa9115d	1.3208424
47	0x400069ea	2.0064645
48	0x3e82854f	0.2549233
49	0x3facb9fe	1.349426

weight f4 [10, 50]
0	0x3e0961ca	0.1341621
1	0xbea22475	-0.3166844
2	0x3d680885	0.05664875
3	0xbe2077ad	-0.15670653
4	0x3eb45043	0.35217485
5	0x3c99a1dc	0.018753938
6	0xbdafebdb	-0.08589908
7	0x3e15c5a2	0.14626172
8	0xbe09784f	-0.134248
9	0xbececc2e	-0.40390152
10	0x3e9b2967	0.30305025
11	0xbd8bc5f6	-0.068248674
12	0x3c857a89	0.01629378
13	0x3e9467b8	0.2898538
14	0xbdd103ba	-0.10205789
15	0x3dc34a92	0.095357075
16	0x3e032966	0.12808761
17	0x3e966ec5	0.29381385
18	0xbe948149	-0.29004887
19	0xbe18d53b	-0.14925091
20	0x3e13cdf5	0.14434035
21	0x3dbb3820	0.09141564
22	0x3de85286	0.11343865
23	0xbec922eb	-0.39284453
24	0x3e31b30a	0.17353454
25	0xbdf93d7d	-0.12169931
26	0xbeb8fc0c	-0.36129797
27	0x3ed0d16c	0.40784776
28	0x3eabed5d	0.3357953
29	0xbe0415c7	-0.12898932
30	0x3c46e27d	0.01213896
31	0xbe4d97fd	-0.2007751
32	0x3e4dcf1f	0.20098542
33	0xbd6ec7b1	-0.05829591
34	0xbe14a266	-0.14515075
35	0x3e6307a7	0.22170888
36	0xbd8ff184	-0.07028487
37	0x3e41ba8e	0.18918821
38	0xbf1c6fa1	-0.6110783
39	0xbe650314	-0.22364455
40	0x3e33b512	0.17549542
41	0x3d91cfad	0.07119689
42	0xbe641f9e	-0.22277686
43	0x3e2a2691	0.16616274
44	0xbe908692	-0.2822767
45	0xbdbd7723	-0.09251239
46	0x3d8d9c43	0.0691457
47	0xbdcc70f3	-0.09982481
48	0x3e5af95c	0.21384186
49	0xbe75158b	-0.23933999
50	0xbe12c2d6	-0.14332137
51	0xbf0b2f4c	-0.54369044
52	0xbeb81052	-0.3594995
53	0xbe8cc340	-0.27492714
54	0x3e75e472	0.24012926
55	0xbe95ce7d	-0.292591
56	0xbca10b7f	-0.019658802
57	0x3ebdb8b4	0.3705498
58	0x3e7c3785	0.24630554
59	0xbf162a80	-0.586586
60	0xbbed39e9	-0.0072395694
61	0xbe84baa2	-0.2592364
62	0xbed48464	-0.41507256
63	0x3e9ca570	0.3059497
64	0xbf0dd175	-0.5539773
65	0x3e790070	0.24316573
66	0x3d9a4eee	0.07534586
67	0xbed35cb3	-0.4128166
68	0xbe2c1568	-0.16805041
69	0xbe854dc0	-0.2603588
70	0xbbaaf987	-0.0052177343
71	0xbe0adf15	-0.13561662
72	0x3d952d36	0.07284014
73	0x3f08406e	0.5322331
74	0x3d50561c	0.05086337
75	0x3d85c945	0.0653253
76	0xbe51b74b	-0.20480077
77	0x3e132ade	0.14371821
78	0x3e381d6f	0.17979978
79	0xbe2632bc	-0.16230291
80	0x3df6c685	0.12049583
81	0xbe114f51	-0.14190413
82	0xbdd4cf3a	-0.10391088
83	0xbd574a3f	-0.05256104
84	0xbe44ef13	-0.19231825
85	0xbdc1232f	-0.09430539
86	0x3db15192	0.086581364
87	0x3d49f2e2	0.049303897
88	0xbedc85fe	-0.43070978
89	0x3cabdd01	0.020979406
90	0x3ebaf9a8	0.36518598
91	0x3e6e7215	0.23285706
92	0xbc0717fb	-0.0082454635
93	0xbe90bb7a	-0.28268033
94	0xbdd0f0f2	-0.10202207
95	0x3dc1107a	0.09426971
96	0xbeca1fec	-0.3947748
97	0x3e0f788a	0.14010826
98	0xbdbaa491	-0.0911342
99	0xbe3bbbc7	-0.1833335
100	0xbc3f5fb0	-0.0116805285
101	0xbe50ee65	-0.2040344
102	0x3e8a796a	0.27045757
103	0x3dc2bcc9	0.09508664
104	0x3ea3fbec	0.3202814
105	0x3d36b769	0.044608507
106	0x3e64f1d0	0.22357869
107	0xbe2f0efd	-0.17095561
108	0x3e616ba7	0.22013722
109	0x3ea8d2d7	0.32973358
110	0xbe04d098	-0.12970197
111	0xbec58fd2	-0.3858629
112	0x3e695d60	0.22789526
113	0xbd71a3e9	-0.058994208
114	0xbdf8b49a	-0.12143822
115	0xbe0066c5	-0.12539203
116	0xbdec16ad	-0.115277626
117	0x3da20694	0.07911411
118	0xbd4fef06	-0.05076506
119	0x3e820e5f	0.2540159
120	0xbea14773	-0.31499824
121	0xbd969a07	-0.07353597
122	0xbecdd543	-0.40201768
123	0xbe0e370e	-0.13888189
124	0xbe93be44	-0.288561
125	0x3d036f97	0.032088842
126	0xbe18ff39	-0.1494111
127	0xbeabc573	-0.3354908
128	0x3e0b5b37	0.13609014
129	0xbdce75d4	-0.10081068
130	0xbe9ce55b	-0.30643734
131	0xbc3da54a	-0.0115750525
132	0xbcc4d85f	-0.024028955
133	0xbd29677c	-0.041358456
134	0x3dfb1514	0.1225988
135	0x3e790484	0.24318129
136	0xbddabf4d	-0.10681019
137	0xbe9800ec	-0.29688203
138	0x3e43adcf	0.19109271
139	0xbde6bb36	-0.112661764
140	0xbe5823ed	-0.21107455
141	0x3e5a64de	0.2132754
142	0xbe0260a1	-0.12732174
143	0x3f054ad5	0.5206731
144	0x3e873e12	0.26414543
145	0x3dbc95b5	0.09208242
146	0x3e4428c8	0.19156182
147	0x3df6140e	0.12015544
148	0xbce8e43f	-0.028429149
149	0x3ede79cf	0.43452308
150	0x3e22bd56	0.15892538
151	0xbd803a1c	-0.062610835
152	0x3e51a4f6	0.20473084
153	0x3e30734c	0.17231482
154	0x3d978379	0.07398123
155	0xbe2f65ea	-0.17128721
156	0xbe66bc6f	-0.22532819
157	0xbddef5d9	-0.108867355
158	0x3e6da2ec	0.23206681
159	0x3bcbf162	0.0062238434
160	0x3ed0fe3d	0.40818968
161	0x3e79a6ee	0.24380085
162	0xbe03d4b2	-0.12874106
163	0xbde41483	-0.11136725
164	0xbd3f7a38	-0.046747416
165	0xbe0e7dc8	-0.13915169
166	0xbe89276a	-0.26787883
167	0x3d1c0533	0.038090896
168	0x3d92a808	0.07160956
169	0xbea5cebd	-0.3238429
170	0xbdc43269	-0.095799275
171	0x3eb21278	0.34779716
172	0xbdd6c786	-0.10487275
173	0xbe28912b	-0.16461627
174	0x3d919661	0.071087606
175	0x3e38e097	0.18054424
176	0xbeb5ddec	-0.35520875
177	0x3d11a276	0.035555325
178	0x3d84bb0c	0.06480989
179	0xbc891fc7	-0.016738785
180	0xbe23d6e5	-0.15999945
181	0xbd2118b4	-0.0393302
182	0x3e28c77c	0.16482347
183	0xbe93a6ab	-0.28838095
184	0xbde082aa	-0.10962422
185	0xbe9ab984	-0.30219662
186	0xbda35923	-0.07975986
187	0xbd399bbf	-0.045314547
188	0x3e40a0fa	0.18811408
189	0xbca11797	-0.019664569
190	0xbc928972	-0.017887805
191	0x3dc692f1	0.096959956
192	0xbd5ddd56	-0.05416616
193	0xbe9b06f6	-0.30278748
194	0x3e05abf6	0.13053879
195	0xbdf613c6	-0.1201549
196	0x3e5715f8	0.21004474
197	0xbc59680e	-0.0132694375
198	0xbe241810	-0.16024804
199	0x3e00b947	0.12570678
200	0xbc79c4dd	-0.01524469
201	0x3d58a62c	0.05289285
202	0x3d84cdd9	0.06484575
203	0xbe468712	-0.19387463
204	0x3e395405	0.18098457
205	0xbef2837e	-0.47365946
206	0x3e00b2be	0.12568185
207	0xbd8cec31	-0.068809874
208	0x3e2959c3	0.16538148
209	0x3deb061b	0.11475774
210	0x3d81da54	0.06340471
211	0xbe3a9e91	-0.18224551
212	0xbe4c553c	-0.1995439
213	0xbe49930e	-0.19685003
214	0x3dd7b924	0.1053336
215	0x3e96e9a8	0.2947514
216	0xbe0da54d	-0.13832588
217	0xbdc9ef6d	-0.0986012
218	0xbe26b43a	-0.16279688
219	0x3e909bb7	0.282438
220	0x3ccc43cb	0.02493467
221	0xbe75f27c	-0.24018282
222	0xbe8617d9	-0.2619007
223	0x3d732a8a	0.05936674
224	0xbe5c7117	-0.21527515
225	0x3ec1813b	0.37793908
226	0xbe2ed4e9	-0.17073406
227	0xbe843526	-0.258218
228	0xbd00a46b	-0.0314068
229	0x3e932949	0.28742436
230	0x3ebfe685	0.3748056
231	0xbe36aa6e	-0.17838451
232	0xbec22b7d	-0.37923804
233	0xbe2ef742	-0.17086509
234	0x3e4db744	0.20089442
235	0x3cc8914a	0.024483342
236	0xbe558c3e	-0.2085428
237	0x3d764a60	0.060129523
238	0xbda094d0	-0.07840884
239	0x3e890052	0.26758057
240	0xbcaa3e9a	-0.020781804
241	0x3e6c0d4d	0.23051949
242	0xbc19b150	-0.0093806535
243	0x3c31cb51	0.010851697
244	0x3c213ec2	0.009841623
245	0xbef8b75c	-0.48577392
246	0xbe227c6e	-0.15867779
247	0xbe2d5efe	-0.16930768
248	0xbd3f276c	-0.046668455
249	0xbe5037bd	-0.20333762
250	0xbe8edafb	-0.27901444
251	0x3eb4b323	0.3529292
252	0x3cf80265	0.03027458
253	0x3e3f1a27	0.1866232
254	0xbed1d1a5	-0.4098026
255	0x3e4319e1	0.19052841

bias f4 [10]
0	0x3e0f789e	0.14010856
1	0x3e2e5bd6	0.1702722
2	0x3ce3fb64	0.027829833
3	0xbde903a1	-0.11377645
4	0x3d0bcb1b	0.034129243
5	0xbd724c47	-0.059154775
6	0xbe37427b	-0.17896454
7	0x3e83ba6a	0.2572816
8	0x3e353cea	0.17699018
9	0xbd8030a8	-0.062592804

weight f4 [4, 10]
0	0xbe93f26a	-0.28895885
1	0x3f2a5432	0.6653472
2	0xbf1ff35e	-0.62480724
3	0xbf08792f	-0.5330991
4	0xbf102ec1	-0.5632134
5	0x3e8e4102	0.27783972
6	0xbef028ad	-0.46906033
7	0x3eb32769	0.34991005
8	0x3f1c9d28	0.611773
9	0x3eb03682	0.34416586
10	0xbf736b6d	-0.95085794
11	0x3ec16a75	0.37776533
12	0xbc045381	-0.0080765495
13	0xbe6ab8e5	-0.22922094
14	0xbf2f094e	-0.6837357
15	0xbe9f9115	-0.31165376
16	0x3ec0d310	0.37661028
17	0x3f43f3ff	0.76544183
18	0x3f518af9	0.8185268
19	0x3f09b315	0.5378888
20	0x3eed3c9f	0.46335313
21	0x3ec7174c	0.38884962
22	0x3e938d7f	0.2881889
23	0x3e049a71	0.1294954
24	0xbe38f10d	-0.18060704
25	0xbe5645b9	-0.20925035
26	0x3d1bff3d	0.03808521
27	0x3f66bce6	0.90131986
28	0x3ec0973c	0.37615383
29	0xbe7386e0	-0.2378192
30	0x3f7c5fa6	0.9858345
31	0x3e83786b	0.2567781
32	0xbe328659	-0.17434062
33	0xbf5a5b50	-0.8529558
34	0x3ece30a6	0.4027149
35	0x3d4e12cc	0.050310895
36	0x3e51d93c	0.20493025
37	0x3f2cdf1b	0.6752793
38	0x3e541d8e	0.20714399
39	0xbf226d90	-0.6344843

bias f4 [4]
0	0xbd516f36	-0.05113145
1	0x3e88611f	0.26636598
2	0xbe1bf58a	-0.15230384
3	0x3e5fdfbb	0.2186269
