model.pt (torch_old, 8427 bytes, 8 tensors)

weight f4 [10, 2]
0	0x3ebc27e6	0.3674919
1	0xbe0de181	-0.13855554
2	0xc00464c3	-2.06865
3	0x3e5af856	0.21383795
4	0x3eb5eaed	0.35530797
5	0xbf21f695	-0.6326688
6	0xbe2f164f	-0.17098354
7	0xbf7f051d	-0.9961718
8	0xbefee4ae	-0.49783844
9	0x3e0af6ef	0.1357076
10	0x3f096ab9	0.5367847
11	0x3ec3ad97	0.38218376
12	0xc001e868	-2.02981
13	0xbfbc42a7	-1.4707841
14	0xbfe3b524	-1.7789655
15	0xbf0f2b60	-0.5592556
16	0x3f77f07e	0.96851337
17	0xbe2b52c0	-0.16730785
18	0x3fe69d49	1.801675
19	0xbeb3b520	-0.35099125

bias f4 [10]
0	0x3eee9762	0.4659987
1	0xbe577cb6	-0.21043667
2	0xbecc4203	-0.39894113
3	0xbd9a1b78	-0.075247705
4	0x3eb88244	0.36036885
5	0x3ea62444	0.32449543
6	0xbe41ce08	-0.18926251
7	0x3f6b273c	0.9185674
8	0x3f100c4b	0.5626876
9	0x3f1870eb	0.595473

weight f4 [10, 10]
0	0xbe58e1d2	-0.21179894
1	0x3d11ffc8	0.035644323
2	0xbc08ece3	-0.008357259
3	0x3e346f8c	0.17620677
4	0x3f10eb6c	0.56609225
5	0xbe9e8081	-0.30957416
6	0xbf8d4c2f	-1.1038874
7	0x3ea24a6b	0.316974
8	0x3f08934a	0.53349745
9	0x3f778924	0.96693635
10	0xbf1bf5dd	-0.6092203
11	0xbe013a20	-0.12619829
12	0x3f1f5021	0.6223164
13	0xbdc81e7e	-0.09771441
14	0x3b1dad68	0.0024059657
15	0xbe8b8356	-0.2724864
16	0xbc81dfa2	-0.015853707
17	0xbddb1557	-0.106974296
18	0x3db3d48b	0.08780774
19	0x3bfc1117	0.007692467
20	0x3f1bd94d	0.6087845
21	0x3e32bb0c	0.17454165
22	0x3f218fbb	0.6310994
23	0x3d92baaa	0.071645096
24	0x3e204e35	0.15654834
25	0x3f68b633	0.90903014
26	0xbddf8ab5	-0.10915128
27	0x3db1dec2	0.08685066
28	0x3f207b7e	0.62688434
29	0xbe5d1ffe	-0.21594235
30	0xbd258f30	-0.040419757
31	0xbde61f64	-0.11236456
32	0xbeb473bc	-0.35244548
33	0x3c8deebd	0.017325753
34	0x3f83984a	1.028085
35	0x3f3e6bc2	0.74383175
36	0x3ef9bc70	0.4877658
37	0xbcccb844	-0.024990208
38	0x3f605507	0.8762974
39	0xbf56200c	-0.8364265
40	0xbf14a15e	-0.58058727
41	0x3e7c1b96	0.24619898
42	0x3df4bf5e	0.11950563
43	0xbe43f410	-0.19136071
44	0x3f721095	0.9455655
45	0x3f6b9851	0.9202929
46	0xbeb160e8	-0.34644246
47	0x3dd61c8e	0.10454665
48	0x3e08a47a	0.13343993
49	0xbe5b0cd6	-0.21391615
50	0x3e11db43	0.14243798
51	0x3f7dd72b	0.99156445
52	0x3dc9f253	0.09860673
53	0xbe4cd509	-0.20003141
54	0x3f812982	1.0090792
55	0x3ede7bc8	0.43453813
56	0xbe9638ce	-0.29340214
57	0x3f0862ba	0.53275645
58	0x3db5709b	0.088593684
59	0xbe4a92ba	-0.19782534
60	0x3e808fc2	0.25109679
61	0x3ef0366d	0.46916524
62	0x3eeeec6d	0.46664754
63	0x3f3a0fc7	0.72680324
64	0xbf050318	-0.51957846
65	0x3f638be2	0.8888532
66	0x3f08d145	0.5344432
67	0x3e4174ef	0.18892263
68	0xbe99a0be	-0.3000545
69	0xbe050331	-0.12989499
70	0xbe253617	-0.16133915
71	0xbeb7f209	-0.35926846
72	0x3eb1865b	0.34672818
73	0x3ee63a00	0.44966125
74	0x3d4226c3	0.047400247
75	0x3d8b5734	0.06803742
76	0x3edb0a09	0.42781094
77	0xbe67dff8	-0.22644031
78	0x3f05be93	0.5224392
79	0xbf228a45	-0.6349223
80	0x3f34308c	0.70386577
81	0xbea8bd00	-0.32956696
82	0x3ee46f8b	0.4461635
83	0xbf2650b1	-0.64966875
84	0x3eb914a3	0.36148557
85	0x3f260861	0.64856535
86	0xbf0dbf6e	-0.55370224
87	0x3f083539	0.5320621
88	0x3e1dda3a	0.15415278
89	0x3eaa4a71	0.3325992
90	0xbe5db2c2	-0.21650222
91	0x3e8c2d44	0.27378285
92	0xbf17b9af	-0.59267706
93	0x3db56b34	0.08858338
94	0xbe93fc9c	-0.28903663
95	0x3e85a9e7	0.26106188
96	0xbe838ca2	-0.25693232
97	0xbb974f56	-0.004617612
98	0xbe4eff80	-0.20214653
99	0x3ec03373	0.37539253

bias f4 [10]
0	0x3e4ef296	0.20209727
1	0xbe5279d5	-0.20554288
2	0x3ec55d4f	0.3854775
3	0xbc410cd1	-0.011782841
4	0x3e2ad07c	0.16681093
5	0x3d8e5c33	0.06951179
6	0xbe3a128e	-0.1817114
7	0xbcda2663	-0.026629632
8	0x3e69da79	0.22837247
9	0xbe35d6ea	-0.17757764

weight f4 [4, 10]
0	0xbe03c4b2	-0.12868002
1	0xbda2013a	-0.0791039
2	0xbdd902ca	-0.10596235
3	0xbeed781f	-0.46380708
4	0x3ec0162d	0.3751692
5	0xbd135aa4	-0.035975114
6	0x3f286415	0.65777713
7	0x3efa749e	0.48917097
8	0x3c9012f9	0.017587172
9	0x3ca7e8ea	0.020496804
10	0x3efeab07	0.49739859
11	0x3f09a474	0.5376656
12	0x3f13bb5b	0.57707757
13	0x3e44603c	0.19177336
14	0xbd6e333f	-0.05815434
15	0xbd011a6a	-0.03151933
16	0x3d9d0987	0.07667833
17	0x3ea94758	0.33062243
18	0x3f4a6cb1	0.790721
19	0xbe957cd7	-0.29196808
20	0xbde6a43a	-0.112617925
21	0x3e85e376	0.261501
22	0x3d6b481a	0.05744181
23	0x3f3972c4	0.72440743
24	0x3f2b0897	0.6680998
25	0x3fa7fdfb	1.3124384
26	0xbe22349c	-0.15840381
27	0xbf3bfbc2	-0.73431027
28	0x3f90ba55	1.1306864
29	0xbe7e6a40	-0.24845219
30	0x3e1daebc	0.15398687
31	0xbd823fc6	-0.0635982
32	0xbab19535	-0.0013548495
33	0xbda42fce	-0.080169305
34	0xbf223b7e	-0.6337203
35	0xbecbf937	-0.39838573
36	0x3ebe2ebb	0.37145028
37	0xbf8e4286	-1.1114051
38	0xbe25ac5e	-0.16179034
39	0xbe9b4449	-0.30325535

bias f4 [4]
0	0xbe4a56e8	-0.19759715
1	0x3de42653	0.11140122
2	0x3e27d6c9	0.16390528
3	0x3dd6b76d	0.104842044

weight f4 [4, 4]
0	0xbe0867b0	-0.13320804
1	0xbdf041d4	-0.11731306
2	0x3f9c0898	1.2190123
3	0xbeb3e516	-0.35135716
4	0xbe4ec884	-0.20193678
5	0xbea3af08	-0.31969476
6	0xbe32bbca	-0.17454448
7	0xbd9db813	-0.07701125
8	0x3df57388	0.119849265
9	0x3f6a3414	0.91485715
10	0x3d7986c9	0.060919557
11	0x3d40e999	0.047097776
12	0xbf2ff5d9	-0.6873451
13	0x3e49375b	0.19650023
14	0x3f7cbe50	0.98727894
15	0x3ecc7337	0.39931652

bias f4 [4]
0	0x3ef7aa51	0.4837213
1	0x3dbacf02	0.09121515
2	0x3f0f91bc	0.5608175
3	0xbdbc5c5c	-0.09197304
