model.pt (torch_old, 112354 bytes, 24 tensors)

weight f4 [15, 2]
00000000: 12ca 1a3f 012a f33f 238d cdbf 479d 3cbf
00000010: 3d6e b3bd 3db1 4ebf 13bf 1d3f f973 75bf
00000020: 504d 0a3f 5647 0f3f 77b6 51be e936 18c0
00000030: 0279 ad3e 6dc9 af3e 95c3 4d3f bbf0 bdbf
00000040: c64c 0fc0 b566 b93d 665c 3dbf 8030 0abf
00000050: f8f4 b6bf c14b d3bf ab58 123f 7109 003e
00000060: a667 b03f 35d4 3b3f a489 b9be 2984 34bf
00000070: f6f0 573f 2542 de3f
0.60464585 1.8997194 -1.6058697 -0.73677486 -0.08761261 -0.80739194 0.6161968 -0.95880085
0.5402422 0.55968225 -0.20479761 -2.3783514 0.33881384 0.34333363 0.8037656 -1.483909
-2.2390609 0.09052793 -0.73969114 -0.53980255 -1.4293509 -1.6507493 0.57166547 0.12503602
1.3781631 0.7337068 -0.36237824 -0.7051416 0.8435205 1.7363936

bias f4 [15]
00000000: 1d5d 1f3f c9ed 293f 7cca c4bd 86fc 15bc
00000010: b05a 93be 91a2 f53d 80db 373e a84f 233e
00000020: 57c8 353f f102 8d3e 40e1 36bf 0b24 c8be
00000030: b606 f53e 7fe7 c13e d22d 1e3f
0.62251455 0.66378456 -0.09608933 -0.009154445 -0.28780127 0.11993898 0.17954826 0.15948355
0.7100882 0.27541307 -0.71437454 -0.3909 0.47856683 0.3787193 0.61788666

weight f4 [100, 15]
00000000: 70c9 603d 99ec 3bbd a8a5 6cbe fbd4 8dbb
00000010: 0c5a 05bf d61f 2c3e 54cc 093e b952 40be
00000020: 0742 2e3f a31b b9bd f92c 423d bc16 9cbe
00000030: 8ed9 29be 0112 a8be 292a c6bd a2b1 cdbc
00000040: f050 723e 47c3 ba3b 8a82 58be ff68 94be
00000050: 76e1 c53d 5ef9 453e e827 db3e 4343 f73e
00000060: 5fb2 a13e 3068 ba3d 0d4f 143e da88 f1be
00000070: d91b 573e 8511 36be d1ac 27be 89ce 00be
00000080: ebdb 673e a31b 593e 7434 643e 3bd1 403d
00000090: a75e 48bd e781 e43e 2fca 233e 5eba 863e
000000a0: ca46 343e bd3f f33e 2a7b 55be 4371 b2be
000000b0: e417 3fbe 7ce4 5b3f 754c 9dbe 62d8 c4bc
000000c0: ee53 1e3f d337 c0bf f094 b83e e558 08be
000000d0: 4250 e83e 6ac0 94bc bd47 32bf a1b2 13bf
000000e0: cb5d 0d3e 1701 f7bd 3089 babe 48d0 863e
000000f0: d08e 30bb 53bf edbe 1afb 7abd 1284 043f
00000100: 2187 fdbe 0ff4 053d c162 9bbe 72c5 013f
00000110: b757 12be 6d4b 5c3d 55e0 de3d dd95 14be
00000120: ebd3 4b3f 556b 9f3e 5e1a 70be 855b a03e
00000130: c5ba 4ebf 9aa3 343d 5669 d83c d3bb b8bd
00000140: 7097 b43e 705f 6a3e 9c33 f6bc 733f 643d
00000150: e1f6 383d 83a1 e7be 1580 153e 92de 34bf
00000160: 9483 973e 79da ccbe 0523 8fbe 2038 e73c
00000170: 3d52 28be ed2f e2be 95c9 89bc 287d 83be
00000180: 1633 3d3e c61c 153d 90ce 2ebe 8194 2dbe
00000190: 2f67 4ebf f5ff 483e 2b65 7cbe 244f 90bd
000001a0: bdfc 1b3f 69c2 b33e 1b45 ce3d c2ce 5b3c
000001b0: 157f 18be c3c6 853e f35d fbbc 823e 0f3e
000001c0: 4f8c 443e 4782 aebe 0cb3 adbe da26 7dbf
000001d0: b98f a63d 5913 3a3f c676 f6be d7aa c0bd
000001e0: 69af 963e 4330 333e ca5e 1d3e 2454 37bf
000001f0: 7baa 07bf b800 90bd 704c 60be 151b 85be
00000200: 59ea 71be 2d12 88be c224 0bbc a4d6 a63e
00000210: 0bd7 63be 5c9d 043d 8de8 1ebf 47fe 93bd
00000220: b4ea 17bf 891a 9fbe dde9 8fbe 5679 8bbe
00000230: 702a 133d 5257 033e 655d 62bf e70e 5abe
00000240: 3c66 a9be c88f acbe 96cc a4bc 5d79 893e
00000250: 1499 d23e 6375 783f a480 5e3e 4181 f43e
00000260: d8ea c9be 9c64 a8be 438c 05bf 8373 2abe
00000270: ee4c 223d ba7b 2a3d 9635 2e3e eb32 ab3d
00000280: 5b4e 03be 6b69 d83e 4730 32bf 60a4 c53e
00000290: acb1 b7be e898 863e 1ee0 033f 0d7c 393e
000002a0: e776 a13e 3bcf 3dbe cc5f cabe c153 f5be
000002b0: ae90 0c3f ab8b 81be cd76 b2be 261e 3abf
000002c0: 90aa c5be 9c3e edbd 4206 273e 113c e3bd
000002d0: 3233 15bf fc89 cc3e 019d e33e 4467 9f3d
000002e0: 6119 aa3e ead9 c5be a7c0 5f3e d831 11ba
000002f0: d0f1 46bf 0a1d 413f 71cb d83e eebe 023e
00000300: 5e9e dfbd 098e 66be 0013 43be 155e 4ebe
00000310: a9cb b33e 46af 113f e933 e7bd b6de 993e
00000320: 81f2 c43e eae2 853d 13c1 1ebf 5cec a73e
00000330: d2b8 0cbf 923e 28be 6182 4d3c a7b4 63be
00000340: 2778 4d3e 653a 7b3e 837e 0bbe 977d e03d
00000350: 8d02 20bf cb54 5fbe e9d2 a63e 5486 aabe
00000360: f64e 793e 9962 9dbd c659 ecbe 7150 e7be
00000370: bf26 633d 3762 673f b253 8ebe c1af 563f
00000380: 8b06 bbbe d69a 15bf 9ae3 aebe 0df1 353e
00000390: c758 abbe 2c29 c0be a962 c5bd bf8a 79be
000003a0: be7a 0bbd 7225 33be 73d8 e1bd 5272 363e
000003b0: 24bc 263f 3052 bf3e beb2 873e 1810 cabd
000003c0: 7fc3 6e3e 83d8 3bbd 0315 9dbd 8157 943d
000003d0: 6ff6 49bf c73f e1be c563 06bd c1a2 383e
000003e0: 9e78 ad3e b30c 153e acf4 233e 1558 febb
000003f0: 2aa3 c83e bf5f 8abd 84a5 943e f172 b33e
0.054879606 -0.045879934 -0.23110068 -0.0043283678 -0.52090526 0.1680902 0.13456851 -0.18781556
0.680695 -0.090384744 0.04740617 -0.30486095 -0.16586897 -0.32826236 -0.0967601 -0.025109116
0.23663688 0.0056995484 -0.21143547 -0.28986356 0.09662144 0.19333407 0.42803884 0.48293504
0.315814 0.091019034 0.1448328 -0.47174722 0.21006717 -0.1778012 -0.16374518 -0.12578787
0.22642486 0.21201949 0.22285634 0.047074538 -0.048918393 0.44630358 0.15995096 0.26314062
0.17605129 0.47509566 -0.20847765 -0.34852037 -0.18661457 0.85895514 -0.30722395 -0.02402896
0.61846817 -1.5017036 0.3605113 -0.1331516 0.45373732 -0.018158156 -0.69640714 -0.5769444
0.1380531 -0.12060755 -0.3643279 0.2633078 -0.0026940592 -0.4643503 -0.061274625 0.51764023
-0.49517158 0.032703456 -0.3034878 0.506919 -0.14291273 0.05378287 0.10882632 -0.14510293
0.79620236 0.31136575 -0.23447558 0.31319824 -0.8075374 0.044101335 0.026417416 -0.090201996
0.35271788 0.22887969 -0.030053906 0.055724572 0.045157317 -0.4524041 0.1459964 -0.70652115
0.29592574 -0.4001043 -0.27956405 0.028225005 -0.16437621 -0.4417719 -0.016819755 -0.25681424
0.18476519 0.036404394 -0.17070985 -0.16951181 -0.80626196 0.1962889 -0.24647968 -0.07046345
0.60932523 0.3510926 0.100717746 0.013415994 -0.14892228 0.26128206 -0.030684447 0.13988689
0.19194148 -0.3408377 -0.33925664 -0.9888741 0.08132882 0.7268577 -0.48137492 -0.09407585
0.29430702 0.17498879 0.1536819 -0.71612763 -0.5299451 -0.07031387 -0.21904159 -0.25997224
-0.23624553 -0.26576367 -0.00849265 0.32585633 -0.22250001 0.032376632 -0.62073594 -0.07226234
-0.59342504 -0.31074932 -0.2810811 -0.2724101 0.035929143 0.12826279 -0.8842376 -0.21294747
-0.3308581 -0.33703446 -0.020117085 0.26850405 0.41132414 0.9705412 0.2172876 0.47754863
-0.39436984 -0.3288926 -0.5216715 -0.16645627 0.039624147 0.0416219 0.17012629 0.08359321
-0.12822859 0.42267928 -0.69604915 0.3860197 -0.3587774 0.26288533 0.5151385 0.18113728
0.31536028 -0.18536083 -0.39526212 -0.47915462 0.54908264 -0.2530187 -0.34856263 -0.7270225
-0.3860669 -0.115842074 0.16310981 -0.11095441 -0.5828124 0.39949024 0.44455722 0.07783368
0.33222488 -0.38642818 0.21850835 -0.00055387383 -0.77712727 0.75434935 0.42342713 0.12768146
-0.10918878 -0.2251512 -0.19050217 -0.20153077 0.35116318 0.5690807 -0.11289198 0.30052727
0.38466266 0.06537421 -0.6201336 0.32797515 -0.54969513 -0.16430119 0.012543292 -0.22236882
0.20065366 0.24533994 -0.13622479 0.10961454 -0.6250389 -0.2180969 0.32582787 -0.3330561
0.24346527 -0.07684822 -0.46162242 -0.4517856 0.055456873 0.9038424 -0.2779823 0.8386193
-0.3652843 -0.58439386 -0.3415802 0.17767735 -0.3346617 -0.37531412 -0.096379586 -0.24369334
-0.034052603 -0.17494753 -0.110276125 0.17817047 0.6513083 0.37367392 0.26503557 -0.09866351
0.23316763 -0.04586078 -0.07670023 0.072432525 -0.7889165 -0.4399397 -0.03280999 0.18030836
0.33881086 0.14555626 0.16011304 -0.007761965 0.39186984 -0.06756543 0.29032528 0.3504863

bias f4 [100]
00000000: 5e31 62bd a17c 463e 4c6e ea3d 4796 feba
00000010: eb0d 953e b23e 063e 3fa3 8dbe 787a 88bd
00000020: b4ca 73bd a889 6fbd a2ce 03be aa54 06be
00000030: 5a89 5b3d 3e50 bc3d 741c f33d 6dac 903c
00000040: e64b 3abe cea1 9b3d 0cf1 ee3d 4221 473e
00000050: 23d4 13be 54f5 143e 85c5 06be ad9c 21be
00000060: 09d3 82be 43bd c43d d2a0 0f3e 0d04 4dbe
00000070: 05ff 49be ba38 5d3e 14cd 79be cd1f e1bd
00000080: 5350 87be 70db a03d 8f3b 53be ba7a 8bbc
00000090: e00e b43e 4b81 863e 828f a3bc 0819 813e
000000a0: 1591 0d3e 191b 953c dd90 603e 173a 1dbe
000000b0: cd37 803e b00d 8dbd 5ec9 d63c 866c 303e
000000c0: 14aa 4b3e 1aa5 b1bd fe05 e83d 1e17 7d3e
000000d0: 352f 1cbe 0fdb 4f3e 3ff4 68bd 3c11 35be
000000e0: 15c0 913d 126a 3abe 7f70 053e 9aa4 31bd
000000f0: efb6 2a3e 5e5b 453d 8bf3 723e 2b21 0e3e
00000100: 142b 953d 30de 60bd a38a d63d 57b7 053c
00000110: cf98 51bd a66f 05bd 3c94 333e 0f76 813d
00000120: b421 31be b59e c53d 553b 3fbe e04a 903e
00000130: fa73 0e3d 582d 77bd 5f5b 9a3d 76cd 34be
00000140: 8dc5 82bd 0e63 023d c204 c3bd c7ce fa3d
00000150: 5ba7 a23d 5027 e33d ff80 f4bd 33f4 193d
00000160: a4f5 0d3e e72a 833e 33f6 113e c7eb 7cbe
00000170: 8f78 f4bd f92e b03d f2bb 84be 3283 333e
00000180: 1b6b 633d 0cac 77bd 9caa 253c d7c5 3a3e
-0.05522286 0.1938348 0.11446819 -0.0019423448 0.2911218 0.13109854 -0.2766361 -0.06663984
-0.059519485 -0.05848089 -0.12871793 -0.13118234 0.053597786 0.091949925 0.118706614 0.017660344
-0.18193015 0.07599221 0.1166707 0.1944628 -0.14436392 0.1454671 -0.13161285 -0.15782423
-0.25551632 0.09606411 0.14026192 -0.20021077 -0.19726188 0.2160367 -0.24394637 -0.10992394
-0.2642847 0.078543544 -0.20628189 -0.017026294 0.351676 0.26270518 -0.01996589 0.2521441
0.13824876 0.018201398 0.21930261 -0.15354191 0.25042573 -0.06887376 0.026219066 0.17228898
0.19889098 -0.08674069 0.11329268 0.2471585 -0.15252383 0.20298408 -0.056873556 -0.17682356
0.07116715 -0.18204525 0.13031195 -0.043369867 0.16671346 0.048182838 0.23725717 0.1387984
0.07283607 -0.054899395 0.104756616 0.008161387 -0.05117112 -0.03257718 0.17537016 0.06321346
-0.17298013 0.096494116 -0.18674977 0.28182125 0.034778573 -0.060345978 0.07536959 -0.17656502
-0.06385336 0.031832747 -0.09522392 0.12246471 0.07942077 0.11091483 -0.119386666 0.037586402
0.13863236 0.2561867 0.14254074 -0.24699317 -0.11937057 0.08602709 -0.2592464 0.17530516
0.055522066 -0.06046681 0.010111477 0.18239532

weight f4 [100]
00000000: cc1e 813f 1dbb 853f af95 833f 9644 863f
00000010: fce9 873f 33aa 853f 44e7 883f f173 7c3f
00000020: 0000 803f 3a85 823f c94c 853f 2846 823f
00000030: 51a8 8b3f 3c0c 853f 0000 803f 696a 873f
00000040: 05b9 893f 8bc9 813f 35ae 823f 4c0b 793f
00000050: 475c 873f aaf1 843f 45a3 783f 54c5 803f
00000060: 6383 813f 8101 853f da7f 833f 0a49 873f
00000070: 0129 833f bd5e 743f d8f1 813f 4342 803f
00000080: 8c17 7e3f 0000 803f bb2b 7f3f 5a9b 7a3f
00000090: 52c8 853f c622 853f 5f7d 863f f991 7b3f
000000a0: 5057 803f 253d 853f b899 853f 7c08 893f
000000b0: 6b7a 873f 0035 773f de55 8a3f 6bc6 873f
000000c0: 5f79 843f ecba 873f b8e9 803f 8919 843f
000000d0: f171 7d3f 7d27 863f 59ac 813f 0000 803f
000000e0: 1322 7d3f fbd6 853f 1565 803f b32e 763f
000000f0: 9d22 873f 465c 7f3f e853 843f 4ccd 833f
00000100: 38b9 873f 0e5e 803f ad5e 7d3f aaa0 7f3f
00000110: c69e 803f 8fc8 903f 8a87 843f 62a7 833f
00000120: 6285 843f 7995 833f 9006 883f 14c2 853f
00000130: 2e3b 813f 0000 803f 0fac 853f a7c1 823f
00000140: 11d8 853f 90e6 853f 36e6 7f3f b2db 8a3f
00000150: 6af3 853f b6c9 843f 9668 7b3f 4c68 853f
00000160: fca9 7e3f fd4d 863f a8dc 813f 1b24 833f
00000170: 3304 843f 53b8 813f bbce 9a3f 81cc 853f
00000180: 0258 813f 04cd 6d3f 644b 853f 8b47 853f
1.0087523 1.0447727 1.0280055 1.0489681 1.0618281 1.0442566 1.0695577 0.9861441
1.0 1.0196908 1.0414058 1.017766 1.0910741 1.0394359 1.0 1.0579349
1.0759588 1.0139631 1.0209414 0.9728286 1.0575036 1.038625 0.9712413 1.006022
1.0118221 1.0391084 1.0273392 1.0569165 1.0246888 0.9545706 1.015193 1.0020221
0.9925468 1.0 0.996761 0.978933 1.0451758 1.0401237 1.050701 0.9826961
1.0026646 1.0409285 1.0437536 1.0705714 1.0584234 0.96565247 1.0807455 1.0607427
1.034954 1.0603919 1.0071325 1.0320293 0.99001986 1.0480801 1.0130721 1.0
0.9888012 1.0456232 1.0030848 0.9616501 1.0557438 0.99750173 1.0338106 1.0297027
1.0603399 1.0028703 0.9897259 0.9985453 1.0048454 1.1311206 1.0353863 1.0285456
1.0353205 1.027999 1.0627003 1.0449853 1.0096185 1.0 1.0443133 1.0215348
1.0456563 1.0460987 0.9996065 1.0848296 1.0464909 1.0374057 0.9820646 1.0422454
0.99478126 1.049255 1.0145464 1.0245394 1.0313781 1.0134376 1.2094339 1.0453035
1.0104983 0.92890954 1.0413632 1.0412458

bias f4 [100]
00000000: 18cd 033d cf8d 4cbd d192 71bd 7758 413c
00000010: 619e 5bbd ee62 7dbd b0db 7dbd b514 5b3d
00000020: e631 4b3d bf62 183d e13e 1ebd d780 543d
00000030: 376f 143a 6d5c 3f3d ae42 84bd 32f3 4abc
00000040: ee82 80bd dee0 133d f4ad 463d ead9 033d
00000050: 3b4b 113c 2e06 6e3b d23d 483d d3cf c0bb
00000060: 9c1f e0bc 29f6 8ebd ba4a 203d ce99 37bd
00000070: c2ec 64bd bc56 bd3c 14c6 4dbd af8a 4bbd
00000080: e054 593d e8b0 7dbd 2303 783d ad0f 293d
00000090: 6e21 e3bb 733d 8a3d 1d48 62bd 4205 a03c
000000a0: a57d f63c ce75 09bd 0f54 83bd 54fb 84b8
000000b0: 76a7 203d b3a4 443d 2d68 9abd d033 803c
000000c0: 2325 88bd 7a68 6abc 39f5 2fbd eb72 43bd
000000d0: 490a d83c 82cc 98bd b312 85bd efb7 693d
000000e0: 2197 373c e547 6abd 6810 283d c6fe eabb
000000f0: 6e10 02bd fc00 2fbd 32d3 42bd f800 ca3c
00000100: 295f 81bd d1c2 473d 7a8a 5e3d 6cda 223d
00000110: f6af 80bd ca4f 9c3c 1ccd dabc 44e7 6dbd
00000120: 9156 d3bc 64a2 48bd 759d 4dbd a114 2ebd
00000130: da29 423d 7a6a 793d 32d9 5c3c d457 023d
00000140: 2721 5cbd 93d1 29bd 908e 39bd 7fcf 9fbc
00000150: 8c14 82bd bad3 f43b d7b7 253d 2b56 22bd
00000160: 0b24 0a3d 9c97 e1bc 2209 bcbb 87d8 23bd
00000170: 24f5 4ebd e361 70bd 8bd7 803c 7a11 3cbd
00000180: 495b 2fbd 5c0c 3b3d e5b6 7cbd 5b2b 47bd
0.032178015 -0.049939927 -0.058977906 0.011800877 -0.05361784 -0.061861925 -0.06197709 0.053486545
0.049608134 0.037203547 -0.038634185 0.051880684 0.0005662324 0.046719003 -0.06458031 -0.012387084
-0.06274973 0.036103122 0.04850574 0.03219024 0.008868034 0.0036319601 0.04888708 -0.0058841496
-0.027358823 -0.06980545 0.039133765 -0.044824414 -0.055889852 0.023112647 -0.05023773 -0.049692806
0.05305946 -0.06193629 0.060549866 0.041274715 -0.0069314754 0.06750002 -0.055244554 0.019533757
0.030089209 -0.033559613 -0.06412517 -6.341064e-05 0.039222203 0.048008632 -0.07539401 0.015649706
-0.06647708 -0.014307136 -0.042958472 -0.047717016 0.026372092 -0.07460882 -0.06497707 0.05706018
0.0112054655 -0.05719747 0.04103127 -0.0071714846 -0.03175395 -0.04272555 -0.047564693 0.024658665
-0.063169785 0.048769776 0.05433128 0.039759085 -0.06283562 0.019081015 -0.026709132 -0.05808188
-0.025798114 -0.048982993 -0.05019899 -0.042500142 0.047403194 0.06089256 0.013479518 0.03182204
-0.053742554 -0.04145963 -0.045301974 -0.019508122 -0.06351575 0.007471529 0.040458526 -0.039632957
0.03372578 -0.027538113 -0.0057383934 -0.04000142 -0.050526753 -0.058687102 0.015727779 -0.045915104
-0.042811666 0.045666084 -0.06169786 -0.04862533

running_mean f4 [100]
00000000: e29b 2d3f 412f bf3f 2746 143f 7e7c 953f
00000010: b072 873f 144c b63c b29a b43d 71ef 5e3f
00000020: 0000 0000 a00e 3e3f 6a62 163f 63b5 293e
00000030: 93af 883c 4a58 523f 0000 0000 5e22 113c
00000040: cfb7 573f 5b50 893f 6d6b 9a3e 05a5 c03f
00000050: f310 b83c 98c5 4a3f 98c3 713f 8e38 893f
00000060: d1ee c23e 4cb6 523f 5c60 483f 07e0 2e3f
00000070: 3bdf 2f3f b522 d43f cc6f bc3e 5858 0c3f
00000080: ab37 172d 0000 0000 57d9 513f a902 3b3e
00000090: 0070 f63e 88cb e93e c954 903f bdde 3b3f
000000a0: 8c2c 783f 7fdf cb3d 1e95 6b3f c4ac 643c
000000b0: 9964 1c3e f6c5 8d3f 404c 553b db64 823f
000000c0: 20d0 8c3f 2940 5b3f b326 cf3e 354b 9f3f
000000d0: 5837 093f 07e8 c63f 81d3 603f 0000 0000
000000e0: 4a2b d03e 995e c53f e542 a73e 5205 6d3f
000000f0: b740 593e 2356 2d3f d457 e63f 8927 9d3f
00000100: 25c3 aa3e c126 b23e f2b9 b61b e5db 403f
00000110: 167e ec3f ffdc ba3d a5e6 a43f 9a8e 0d3f
00000120: 54f8 6c3f 80d2 4d3f dc1c 0e3f e3b0 463f
00000130: adf6 c13e 0000 0000 170f 273e ac14 103f
00000140: 7026 453f 405d 323f 0ca1 a93f 0224 913e
00000150: 7f6a 443e 8aae 673f 02a4 003f 7277 e73e
00000160: 09ef 623f b930 093f 552c 7f3e c839 8e3f
00000170: c2f9 553f f731 b03f 0549 8d3d b703 0d40
00000180: 3ca9 303f 7614 0a3f a843 b33f c050 b83e
0.67815983 1.4936296 0.57919544 1.1678617 1.0581875 0.022253074 0.08818568 0.8708411
0.0 0.74241066 0.5874392 0.165731 0.016685283 0.8216597 0.0 0.008858291
0.84264845 1.0727648 0.30160084 1.505036 0.02246902 0.79207754 0.9443908 1.0720384
0.38072827 0.8230941 0.7827203 0.6831059 0.687 1.6573092 0.36804044 0.548223
8.595717e-12 0.0 0.8197226 0.18262734 0.48132324 0.45663095 1.1275874 0.73386747
0.96942973 0.09954738 0.9202441 0.013957206 0.1527275 1.1076038 0.003254667 1.0187029
1.1001015 0.85644776 0.40459213 1.2444826 0.5360007 1.5539559 0.8782273 0.0
0.40658027 1.5419494 0.32668224 0.92586243 0.21216093 0.6770956 1.7995553 1.227769
0.33352008 0.34795192 3.0229539e-22 0.7533553 1.8475978 0.09124183 1.2882887 0.5529572
0.9256642 0.8039932 0.55512786 0.7761366 0.3788351 0.0 0.1631435 0.5628154
0.77011776 0.6967354 1.3252273 0.28347784 0.1918125 0.905007 0.50250256 0.45208317
0.8864599 0.5358997 0.24919255 1.1111383 0.83584225 1.3765248 0.06898693 2.2033517
0.6900823 0.5393747 1.4005022 0.35999107

running_var f4 [100]
00000000: a3ca 353f 2804 0140 bf50 483e 8f9a ba3f
00000010: 7e93 cb3f 9bc9 a83b 0b70 673d f4d1 d43f
00000020: e1e7 1221 3111 1d40 bb19 163f 779c 4e3d
00000030: e5af d63a 96ba 3f3f e1e7 1221 1215 913a
00000040: 1eed 563f cca9 2340 227e 453e 02fc c53f
00000050: 5c7b 183c b9a4 913f 5b8c b03f 3375 8840
00000060: 43f8 703e 4c60 263f 7ad3 473f 666c ce3e
00000070: e246 1f3f d768 3c40 4d56 b93e 7ea8 0d3f
00000080: 0d5e bf29 e1e7 1221 6399 ff3f c9b1 933e
00000090: b5ce 983e 53eb ef3d 5e61 cb3f dfd3 0a3f
000000a0: 1e9b 783f 4510 8f3d 7bb6 733f 223f 0e3b
000000b0: 0f02 7b3c 27fa 9b3f bc2b aa39 f84f 6f3f
000000c0: 8d01 3e40 2438 383f ec87 1a3e 7e78 4d40
000000d0: 1770 a03f 7b54 de3f c780 393f e1e7 1221
000000e0: fd81 a43e 985e 2540 f2fd 173f 3167 353f
000000f0: 4110 053e 5678 2c3f ea87 c83f 34ae bb3f
00000100: 00b6 eb3d 59db a23e 5fe8 1221 0a76 c93f
00000110: a34d 3e40 2184 af3c f5df 573f e053 ec3e
00000120: daf8 d43e 2bd0 f73d f7d5 ca3e ca2c 7c3f
00000130: 9f07 bc3e e1e7 1221 af82 e93d a96d 113f
00000140: 4873 883e 435c 8c3e 7d24 0440 6bde 653d
00000150: d3c5 1c3e 946b 873f b350 9c3f 1321 3f3e
00000160: 71dd dd3f 7284 e33e ab18 783e 7892 ab3f
00000170: 5635 953e b25a 9f3f 604c 143c 5341 ed3f
00000180: dc5f 5d3f 3a52 1e3f 3d9c 1c3f 36e4 133e
0.71012324 2.0158787 0.19562052 1.4578418 1.5904386 0.0051509864 0.056503337 1.6626573
4.9773613e-19 2.4541743 0.5863301 0.050442185 0.0016379325 0.7489408 4.9773613e-19 0.0011068902
0.8395556 2.5572386 0.19286397 1.5467532 0.009306755 1.1378394 1.3792833 4.2643065
0.23532204 0.6499069 0.7805706 0.40317076 0.62217534 2.943899 0.36198655 0.55335224
8.498419e-14 4.9773613e-19 1.9968685 0.28846577 0.29845205 0.117148064 1.5889089 0.5422954
0.9711169 0.06985525 0.9520032 0.002170511 0.015320315 1.2185715 0.0003245751 0.934814
2.9688447 0.71960664 0.15090913 3.2104793 1.2534207 1.7369531 0.72462124 4.9773613e-19
0.32130423 2.5838985 0.59371865 0.7086058 0.12994482 0.6737112 1.5666478 1.4662538
0.11509323 0.31807974 4.9774265e-19 1.5739148 2.9734886 0.021425309 0.84326106 0.46157742
0.4159611 0.12100252 0.39616367 0.9850584 0.36724564 4.9773613e-19 0.11401879 0.56807953
0.26650453 0.2741414 2.064727 0.056120317 0.15309839 1.0579705 1.2212127 0.1866496
1.7333204 0.44436985 0.2422816 1.3404074 0.29142255 1.2449553 0.009051412 1.853556
0.86474395 0.6184422 0.611759 0.14442524

weight f4 [100, 100]
00000000: 15e9 7bbd cadd 48bc b317 0c3e 3a5d d5bd
00000010: 7ce2 133e 35ff 333e 7b76 273d ef53 813e
00000020: a571 893d fa58 03be 42b4 9cbe 4e08 3e3d
00000030: b370 44be 96bd 263d bbd5 02bc a687 d73e
00000040: cf97 e8bc e648 53bc 06bb 0c3e d20a 8bbd
00000050: bf71 18bd dc94 bfbc 579d d83c b60b 0cbe
00000060: 0eca 6c3e 3786 793c 9509 0bbe 7dee 3a3d
00000070: b982 28bd 9e69 d13c f19a a83b e547 6ebe
00000080: ccd0 25be 68b4 393e 18d9 10be 8232 cd3e
00000090: 0adf 1abd 18f6 b0bd cfc9 95be 8452 a4bc
000000a0: c8d2 233b 8a90 a6be 8265 b93d 5eb4 0c3d
000000b0: b025 34be 2d54 d2bc 3e04 ea3d 0de8 093e
000000c0: 34a1 13be be62 583d c5e6 14bc 2ab5 073e
000000d0: 2854 c23d 08eb 003e e03c bb3d 809d f7bd
000000e0: 4f8d 1bbc fea2 00bd 119a b8bd 33ce b4bb
000000f0: 92fd 5cbd 3cc0 343d f04a 663d 4d9f 4c3d
00000100: 7c2d 80bc 6a7d 19be 868e 7e3e da9b 5e3e
00000110: 50ce 2bbd ed61 13be 5344 84bc 0557 243c
00000120: 4b83 933d 4142 eb3d 4d75 c9bc ecf1 92bc
00000130: 41fe 31be 63b9 6cbe 005a 36bd cabc 26bd
00000140: eea5 1bbe 976b 9fbd 3ff5 703e bd83 423d
00000150: a15d 7abd 8d5e fbbc 4851 e03b 1ae4 c8bc
00000160: c5a7 06be ff74 fe3d 1b90 2fbe 598e a03e
00000170: dc0b a73b 372a da3d af38 783d 0d91 c83d
00000180: c52f 0f3e bb68 fabc 3988 0b3e 28b0 c4bd
00000190: 3ec6 55bd da1e d7bc a99c 50be 556e 55bc
000001a0: f397 183d 2a59 523d a620 0cbd fb66 933c
000001b0: 66b8 52be 5ee9 153e 274f 97be e26a 40be
000001c0: 29e3 7bbe 6be1 16be 08b6 84be e365 6dbc
000001d0: bdb3 e83c c9ab 5e3d 1501 dbbd 9d62 3cbd
000001e0: 75e1 673e 569a a63d a624 393b 931a 51be
000001f0: 48ac 06be 6ae2 39be a321 36bd dea6 c5bc
00000200: 116b bfbe 0152 b73d 8f9e 6abe 11c9 39bd
00000210: 9033 5c3e b334 81be 6815 85bd ff6a e83c
00000220: bb99 82be ab23 213c a948 11be 98d6 753d
00000230: dfdb a0bc e197 bcbc f0bc 66be 28ae ae3e
00000240: b212 58bd 6610 33be 164b 4fbd d610 0dbe
00000250: 6c48 003c 4685 2fbe d3f7 b5bd a379 153e
00000260: ab46 a0bd f02c a6bc 214e 323e b985 dcbc
00000270: 823d 7c3d a86c 82bd 4b3c fa3c a36c 363e
00000280: 57fd a9bd 7d44 8e3d 1c9c 6abe 070d 20bd
00000290: 804e 9cbd 8f7e 1ebe 32a2 d43d a298 dbbd
000002a0: 1a25 b03d ebce 343d 22dc febd 4843 8f3d
000002b0: 4111 0bbe a191 723d 2e97 23be cd1e 20be
000002c0: 9390 5f3d b816 883c e45f edbd bb4a 91be
000002d0: 9839 313c 29eb 2abc 3eb9 8bbe 654e 863b
000002e0: b46f 1fbe f2ac 4f3e b35e ce3d 74ec 9fbd
000002f0: e014 dcbd 61e0 77bd 30c5 b2bd 56ff 173d
00000300: 6ea1 04be 5e2a adbd e41b bebd 5616 adbe
00000310: 5909 563d 3722 e03d 46f0 a4bd 37bb a9be
00000320: 3314 29bd 5b83 b03d cb31 643d a1e9 5ebd
00000330: c120 053e 5ee8 b03d 2017 6e3e b5e5 e1bd
00000340: f20b a4bd 2481 023e fb49 5f3c b556 703e
00000350: 695c 3fbd 089b 90bc dbc0 e33d 4771 113e
00000360: a14a 4e3e 33b0 6ebd 137f 603d 5344 8fbe
00000370: 6723 683d 41a3 cebd 2dac 3bbe 2909 6c3e
00000380: 2db8 0cbc 0f0d 4cbd 6af9 0e3e a028 54bd
00000390: 6063 283d b470 003e 2f89 55be 7280 d03d
000003a0: 55e5 183e 22fb 053e 8896 9d3d c7de 51bc
000003b0: dfc2 8e3d a5f6 89bd 49b3 f5bc 372e 3fbe
000003c0: ebfd c53e bbdd 2abe ee17 0bbd 71b0 91bd
000003d0: 0388 62bc c9e3 0ebe fd21 263e 12f1 5bbd
000003e0: b5eb d43d 552c 84bd 77e2 d83d e43c 223e
000003f0: 8e46 62bc 2288 543e c7a9 fbbd 287e 253d
-0.06150158 -0.01225991 0.13680916 -0.10418172 0.14441866 0.17577823 0.040884476 0.2525935
0.06711129 -0.1282691 -0.30606276 0.04639464 -0.19183616 0.040708147 -0.007985528 0.4209568
-0.0283927 -0.012895798 0.13743219 -0.06789173 -0.03721785 -0.023386411 0.026442213 -0.13676342
0.23123953 0.015229753 -0.13577874 0.045637596 -0.04114029 0.025563058 0.0051454236 -0.23269613
-0.16192931 0.18135226 -0.14145315 0.40077597 -0.037810363 -0.08640689 -0.2925553 -0.020058878
0.0024997462 -0.3253215 0.09052564 0.0343517 -0.17592502 -0.025674904 0.114265904 0.13467427
-0.14416963 0.052828543 -0.009088223 0.13252702 0.09488708 0.12589657 0.0914247 -0.120905876
-0.00949414 -0.03140544 -0.09013761 -0.005517745 -0.05395276 0.04412864 0.05622381 0.04995661
-0.015646689 -0.14989248 0.24859056 0.2173914 -0.0419448 -0.14392824 -0.01614586 0.010030513
0.072027765 0.11487246 -0.024592066 -0.017937623 -0.17382146 -0.23117594 -0.044519424 -0.040707387
-0.15200016 -0.07784193 0.23531054 0.047488917 -0.061124448 -0.030684734 0.006845627 -0.02452283
-0.13149936 0.12424659 -0.17144816 0.31358603 0.0050978493 0.10652583 0.060600933 0.09793291
0.13983066 -0.030567518 0.13626184 -0.09603912 -0.05219101 -0.026259828 -0.20372261 -0.0130267935
0.037254285 0.051354565 -0.034210823 0.01799344 -0.20578155 0.14639804 -0.29552576 -0.18790773
-0.24598373 -0.14734428 -0.2592013 -0.014489624 0.028406018 0.054363046 -0.10693566 -0.045992482
0.22644599 0.08134906 0.0028250604 -0.20420294 -0.13151658 -0.18152776 -0.044465672 -0.02412742
-0.37386373 0.08951188 -0.22912048 -0.045357767 0.21504045 -0.2523552 -0.064982235 0.028371332
-0.25507912 0.009835164 -0.14187874 0.060019106 -0.019636093 -0.02302164 -0.22533011 0.34117246
-0.052752204 -0.17486724 -0.050608717 -0.13775954 0.007829767 -0.17140684 -0.08885159 0.14597182
-0.07825979 -0.0202851 0.17412616 -0.026919233 0.061582096 -0.06368381 0.030546328 0.17814879
-0.08300274 0.06946657 -0.22911114 -0.039074924 -0.0763216 -0.15477966 0.10382499 -0.10722472
0.086008266 0.044142645 -0.12444331 0.06995255 -0.135808 0.059220914 -0.15975639 -0.1563675
0.054581236 0.016612396 -0.11590555 -0.28377327 0.010816954 -0.010432043 -0.27289766 0.004098701
-0.15569955 0.20280817 0.10076656 -0.07808772 -0.10746169 -0.06051672 -0.08729017 0.03710874
-0.12952206 -0.084553465 -0.092826635 -0.33806103 0.05225501 0.10944026 -0.08053641 -0.33150646
-0.04127903 0.08618804 0.05571155 -0.054422025 0.13000776 0.086380705 0.23251009 -0.11030141
-0.08010091 0.12744576 0.013628478 0.23470576 -0.04671899 -0.01765205 0.11120769 0.14203368
0.20145656 -0.058273505 0.054808687 -0.27981815 0.056674387 -0.10089732 -0.18327399 0.2305037
-0.008588833 -0.04981714 0.13962331 -0.051796556 0.041110396 0.12542993 -0.20853113 0.10180749
0.14931233 0.13084081 0.07694727 -0.012809462 0.069707625 -0.06736497 -0.029992716 -0.18669973
0.38670287 -0.16686146 -0.033958368 -0.07113732 -0.013826373 -0.1395408 0.16223903 -0.0536967
0.1039652 -0.06453768 0.1059007 0.1584354 -0.013810767 0.20755056 -0.12288242 0.040403515

bias f4 [100]
00000000: c3ca 3dbd 11c2 063e aa8e e03c a343 493d
00000010: 5df2 093e 901b 90bd b1a8 06bd 0841 b6bd
00000020: 2ae5 153d 82fd 223e ae7d dab9 e550 71bd
00000030: e01f bc3d a3c0 71bc 1bd7 89bd dcf4 763d
00000040: b8ef 98bc 1cbd da3d 5910 e43d 6279 a73d
00000050: 849f a13d 623d a6bd ab2f 063d 1290 64bc
00000060: 7b1e 993d 0527 a33d f824 c33d 7874 bf3b
00000070: 0885 6fbd f193 7b3d 011a 943d 0869 013d
00000080: f30d edbb 4168 1b3d 2698 36bd a321 0ebd
00000090: 1f8f 56bd 3c11 da3d ea95 5c3d 141d 9a3c
000000a0: f7cd 9bbc 3bf9 f5bd d7a7 febd ed4e 3b3d
000000b0: 741f 4dbc f9d3 c43b c1dc 51bc 0eb7 753c
000000c0: 8897 ebbc f9d1 2e3c 3024 3ebd c121 ffbd
000000d0: 7401 f7bc 26be a6bd c1b0 f2bd 3d75 2bbd
000000e0: 5acc 52bd e9b5 22bc 586c 32bd 52c1 84bd
000000f0: a45a 873d eb5d 173e 665c de3d f47e bebb
00000100: de38 bb3d ec61 113d ca03 693c 5e80 b4ba
00000110: 1c6d 16bc 551f 1e3d 7afc b3bc 5d22 0e3e
00000120: d8fb cdbc bb2e 86bd 099b e53d d3a8 7abd
00000130: b517 4bbd b3bc 0e3e 770c 043e 7c7f 2c3d
00000140: da43 5ebd ac44 56bd 9dfa 233d 2f77 833d
00000150: a87a 093e 2a34 06be e9b5 f6bc 47d6 1d3c
00000160: b062 8f3d 6116 2b3c 5d93 b63d 6ccb a5bd
00000170: d764 043d 400c ab3d f308 623c d0f5 b9bd
00000180: e057 bd3c 42aa ba3d 090e 95bb 83cb 17bd
-0.046335947 0.13159968 0.027411778 0.04913677 0.1347136 -0.07036507 -0.03287572 -0.088991225
0.0365955 0.15917018 -0.0004167384 -0.058915038 0.09185767 -0.014755401 -0.06730481 0.06029211
-0.018668994 0.10680601 0.111359306 0.08177449 0.07891753 -0.081171766 0.032760303 -0.013950365
0.07476517 0.07966427 0.095285356 0.0058427416 -0.058476478 0.061420385 0.07231522 0.031594306
-0.007234329 0.03794122 -0.044578694 -0.034700047 -0.052382585 0.106478184 0.053853907 0.018812694
-0.01901911 -0.120104276 -0.12434357 0.045729566 -0.012519706 0.0060067144 -0.0128089795 0.014997257
-0.02875878 0.010670179 -0.04642123 -0.1245761 -0.03015206 -0.08141737 -0.118501194 -0.041859854
-0.051464416 -0.009931066 -0.043560356 -0.064821854 0.06609085 0.1478192 0.10857467 -0.005813474
0.09141706 0.035493776 0.014222095 -0.0013771167 -0.009181287 0.0386041 -0.021970976 0.13880296
-0.025144503 -0.06551882 0.11211211 -0.06119616 -0.049583156 0.1393917 0.1289538 0.042113766
-0.054263927 -0.052311584 0.040033925 0.06419217 0.13425696 -0.13105837 -0.030116038 0.009633607
0.07001245 0.010442347 0.08914826 -0.0809544 0.03232273 0.08351946 0.013796079 -0.09080088
0.023113191 0.09114505 -0.0045487923 -0.03705932

weight f4 [100]
00000000: 0000 803f 0000 803f 0000 803f 0000 803f
00000010: 0000 803f 0000 803f 0000 803f 0000 803f
00000020: 0000 803f 0000 803f 0000 803f 0000 803f
00000030: 0000 803f 0000 803f 0000 803f 0000 803f
00000040: 0000 803f 0000 803f 0000 803f 0000 803f
00000050: 0000 803f 0000 803f 0000 803f 0000 803f
00000060: 0000 803f 0000 803f 0000 803f 0000 803f
00000070: 0000 803f 0000 803f 0000 803f 0000 803f
00000080: 0000 803f 0000 803f 0000 803f 0000 803f
00000090: 0000 803f 0000 803f 0000 803f 0000 803f
000000a0: 0000 803f 0000 803f 0000 803f 0000 803f
000000b0: 0000 803f 0000 803f 0000 803f 0000 803f
000000c0: 0000 803f 0000 803f 0000 803f 0000 803f
000000d0: 0000 803f 0000 803f 0000 803f 0000 803f
000000e0: 0000 803f 0000 803f 0000 803f 0000 803f
000000f0: 0000 803f 0000 803f 0000 803f 0000 803f
00000100: 0000 803f 0000 803f 0000 803f 0000 803f
00000110: 0000 803f 0000 803f 0000 803f 0000 803f
00000120: 0000 803f 0000 803f 0000 803f 0000 803f
00000130: 0000 803f 0000 803f 0000 803f 0000 803f
00000140: 0000 803f 0000 803f 0000 803f 0000 803f
00000150: 0000 803f 0000 803f 0000 803f 0000 803f
00000160: 0000 803f 0000 803f 0000 803f 0000 803f
00000170: 0000 803f 0000 803f 0000 803f 0000 803f
00000180: 0000 803f 0000 803f 0000 803f 0000 803f
1.0 1.0 1.0 1.0 1.0 1.0 1.0 1.0
1.0 1.0 1.0 1.0 1.0 1.0 1.0 1.0
1.0 1.0 1.0 1.0 1.0 1.0 1.0 1.0
1.0 1.0 1.0 1.0 1.0 1.0 1.0 1.0
1.0 1.0 1.0 1.0 1.0 1.0 1.0 1.0
1.0 1.0 1.0 1.0 1.0 1.0 1.0 1.0
1.0 1.0 1.0 1.0 1.0 1.0 1.0 1.0
1.0 1.0 1.0 1.0 1.0 1.0 1.0 1.0
1.0 1.0 1.0 1.0 1.0 1.0 1.0 1.0
1.0 1.0 1.0 1.0 1.0 1.0 1.0 1.0
1.0 1.0 1.0 1.0 1.0 1.0 1.0 1.0
1.0 1.0 1.0 1.0 1.0 1.0 1.0 1.0
1.0 1.0 1.0 1.0

bias f4 [100]
00000000: 0000 0000 0000 0000 0000 0000 0000 0000
00000010: 0000 0000 0000 0000 0000 0000 0000 0000
00000020: 0000 0000 0000 0000 0000 0000 0000 0000
00000030: 0000 0000 0000 0000 0000 0000 0000 0000
00000040: 0000 0000 0000 0000 0000 0000 0000 0000
00000050: 0000 0000 0000 0000 0000 0000 0000 0000
00000060: 0000 0000 0000 0000 0000 0000 0000 0000
00000070: 0000 0000 0000 0000 0000 0000 0000 0000
00000080: 0000 0000 0000 0000 0000 0000 0000 0000
00000090: 0000 0000 0000 0000 0000 0000 0000 0000
000000a0: 0000 0000 0000 0000 0000 0000 0000 0000
000000b0: 0000 0000 0000 0000 0000 0000 0000 0000
000000c0: 0000 0000 0000 0000 0000 0000 0000 0000
000000d0: 0000 0000 0000 0000 0000 0000 0000 0000
000000e0: 0000 0000 0000 0000 0000 0000 0000 0000
000000f0: 0000 0000 0000 0000 0000 0000 0000 0000
00000100: 0000 0000 0000 0000 0000 0000 0000 0000
00000110: 0000 0000 0000 0000 0000 0000 0000 0000
00000120: 0000 0000 0000 0000 0000 0000 0000 0000
00000130: 0000 0000 0000 0000 0000 0000 0000 0000
00000140: 0000 0000 0000 0000 0000 0000 0000 0000
00000150: 0000 0000 0000 0000 0000 0000 0000 0000
00000160: 0000 0000 0000 0000 0000 0000 0000 0000
00000170: 0000 0000 0000 0000 0000 0000 0000 0000
00000180: 0000 0000 0000 0000 0000 0000 0000 0000
0.0 0.0 0.0 0.0 0.0 0.0 0.0 0.0
0.0 0.0 0.0 0.0 0.0 0.0 0.0 0.0
0.0 0.0 0.0 0.0 0.0 0.0 0.0 0.0
0.0 0.0 0.0 0.0 0.0 0.0 0.0 0.0
0.0 0.0 0.0 0.0 0.0 0.0 0.0 0.0
0.0 0.0 0.0 0.0 0.0 0.0 0.0 0.0
0.0 0.0 0.0 0.0 0.0 0.0 0.0 0.0
0.0 0.0 0.0 0.0 0.0 0.0 0.0 0.0
0.0 0.0 0.0 0.0 0.0 0.0 0.0 0.0
0.0 0.0 0.0 0.0 0.0 0.0 0.0 0.0
0.0 0.0 0.0 0.0 0.0 0.0 0.0 0.0
0.0 0.0 0.0 0.0 0.0 0.0 0.0 0.0
0.0 0.0 0.0 0.0

running_mean f4 [100]
00000000: 0000 0000 0000 0000 0000 0000 0000 0000
00000010: 0000 0000 0000 0000 0000 0000 0000 0000
00000020: 0000 0000 0000 0000 0000 0000 0000 0000
00000030: 0000 0000 0000 0000 0000 0000 0000 0000
00000040: 0000 0000 0000 0000 0000 0000 0000 0000
00000050: 0000 0000 0000 0000 0000 0000 0000 0000
00000060: 0000 0000 0000 0000 0000 0000 0000 0000
00000070: 0000 0000 0000 0000 0000 0000 0000 0000
00000080: 0000 0000 0000 0000 0000 0000 0000 0000
00000090: 0000 0000 0000 0000 0000 0000 0000 0000
000000a0: 0000 0000 0000 0000 0000 0000 0000 0000
000000b0: 0000 0000 0000 0000 0000 0000 0000 0000
000000c0: 0000 0000 0000 0000 0000 0000 0000 0000
000000d0: 0000 0000 0000 0000 0000 0000 0000 0000
000000e0: 0000 0000 0000 0000 0000 0000 0000 0000
000000f0: 0000 0000 0000 0000 0000 0000 0000 0000
00000100: 0000 0000 0000 0000 0000 0000 0000 0000
00000110: 0000 0000 0000 0000 0000 0000 0000 0000
00000120: 0000 0000 0000 0000 0000 0000 0000 0000
00000130: 0000 0000 0000 0000 0000 0000 0000 0000
00000140: 0000 0000 0000 0000 0000 0000 0000 0000
00000150: 0000 0000 0000 0000 0000 0000 0000 0000
00000160: 0000 0000 0000 0000 0000 0000 0000 0000
00000170: 0000 0000 0000 0000 0000 0000 0000 0000
00000180: 0000 0000 0000 0000 0000 0000 0000 0000
0.0 0.0 0.0 0.0 0.0 0.0 0.0 0.0
0.0 0.0 0.0 0.0 0.0 0.0 0.0 0.0
0.0 0.0 0.0 0.0 0.0 0.0 0.0 0.0
0.0 0.0 0.0 0.0 0.0 0.0 0.0 0.0
0.0 0.0 0.0 0.0 0.0 0.0 0.0 0.0
0.0 0.0 0.0 0.0 0.0 0.0 0.0 0.0
0.0 0.0 0.0 0.0 0.0 0.0 0.0 0.0
0.0 0.0 0.0 0.0 0.0 0.0 0.0 0.0
0.0 0.0 0.0 0.0 0.0 0.0 0.0 0.0
0.0 0.0 0.0 0.0 0.0 0.0 0.0 0.0
0.0 0.0 0.0 0.0 0.0 0.0 0.0 0.0
0.0 0.0 0.0 0.0 0.0 0.0 0.0 0.0
0.0 0.0 0.0 0.0

running_var f4 [100]
00000000: 0000 803f 0000 803f 0000 803f 0000 803f
00000010: 0000 803f 0000 803f 0000 803f 0000 803f
00000020: 0000 803f 0000 803f 0000 803f 0000 803f
00000030: 0000 803f 0000 803f 0000 803f 0000 803f
00000040: 0000 803f 0000 803f 0000 803f 0000 803f
00000050: 0000 803f 0000 803f 0000 803f 0000 803f
00000060: 0000 803f 0000 803f 0000 803f 0000 803f
00000070: 0000 803f 0000 803f 0000 803f 0000 803f
00000080: 0000 803f 0000 803f 0000 803f 0000 803f
00000090: 0000 803f 0000 803f 0000 803f 0000 803f
000000a0: 0000 803f 0000 803f 0000 803f 0000 803f
000000b0: 0000 803f 0000 803f 0000 803f 0000 803f
000000c0: 0000 803f 0000 803f 0000 803f 0000 803f
000000d0: 0000 803f 0000 803f 0000 803f 0000 803f
000000e0: 0000 803f 0000 803f 0000 803f 0000 803f
000000f0: 0000 803f 0000 803f 0000 803f 0000 803f
00000100: 0000 803f 0000 803f 0000 803f 0000 803f
00000110: 0000 803f 0000 803f 0000 803f 0000 803f
00000120: 0000 803f 0000 803f 0000 803f 0000 803f
00000130: 0000 803f 0000 803f 0000 803f 0000 803f
00000140: 0000 803f 0000 803f 0000 803f 0000 803f
00000150: 0000 803f 0000 803f 0000 803f 0000 803f
00000160: 0000 803f 0000 803f 0000 803f 0000 803f
00000170: 0000 803f 0000 803f 0000 803f 0000 803f
00000180: 0000 803f 0000 803f 0000 803f 0000 803f
1.0 1.0 1.0 1.0 1.0 1.0 1.0 1.0
1.0 1.0 1.0 1.0 1.0 1.0 1.0 1.0
1.0 1.0 1.0 1.0 1.0 1.0 1.0 1.0
1.0 1.0 1.0 1.0 1.0 1.0 1.0 1.0
1.0 1.0 1.0 1.0 1.0 1.0 1.0 1.0
1.0 1.0 1.0 1.0 1.0 1.0 1.0 1.0
1.0 1.0 1.0 1.0 1.0 1.0 1.0 1.0
1.0 1.0 1.0 1.0 1.0 1.0 1.0 1.0
1.0 1.0 1.0 1.0 1.0 1.0 1.0 1.0
1.0 1.0 1.0 1.0 1.0 1.0 1.0 1.0
1.0 1.0 1.0 1.0 1.0 1.0 1.0 1.0
1.0 1.0 1.0 1.0 1.0 1.0 1.0 1.0
1.0 1.0 1.0 1.0

weight f4 [100, 100]
00000000: 0535 843c aedf dd3d 1ec5 913d ffcc adbd
00000010: 5fd0 173e f244 3ebd 86c6 8c3d c762 a0bd
00000020: dd96 08bd 29d1 213e 3003 dc3b f753 7739
00000030: 251d 103e 3b3c 57be e645 7b3e a498 1e3e
00000040: c837 babd ffbf 41be 4971 16bc f52d 15bd
00000050: b7dc 173e b0fb 243d 6b9e 7e3a 4bcb 703a
00000060: 9c05 f9bd f208 28b9 77f7 993d c4f3 ed3c
00000070: 5faf 5e3d 7a30 f23d 89e6 f1bd bd0f cfbc
00000080: 236e 5c3d 6d84 1a3e d866 733e 9ac1 fd3d
00000090: 97ef dd3d 6ce8 6dbd 317e 60be 8474 d5bd
000000a0: 5467 a73d 48f1 5fbd 7a63 9b3d d57d f13d
000000b0: f1e1 aabd a665 25be a50c 483e f794 32bd
000000c0: 2c41 463d ceac 1abe d32a 803e e61a ca3e
000000d0: 5871 be3e 94a7 413e c326 9f3d 291a 483d
000000e0: c65d 0b3e 59ef 2c3d fc15 d9bd 6c57 76be
000000f0: a0ca 97be 76ba 993c b361 623d e54a 223e
00000100: 4fc4 a63d 633d 583b 2434 3d3c 3ae2 9c3d
00000110: fc64 8c3d 6961 8e3e beb7 66be 2bc0 3fbe
00000120: bbce 793d 2ed7 3cbd b72e aabc aab3 ebbb
00000130: a5ba e03d a4a3 50bd 968a 32bd b447 d03d
00000140: 66dd a5bd 8815 1d3d af41 423e a158 14bd
00000150: f5fd 9fbd f0af 97bd 480d 66be d7bc 54be
00000160: f308 573e 1d34 293e 9730 0bbe 92b1 bfbd
00000170: e0db 7a3b 6437 abbd 4b53 3a3e f326 8a3d
00000180: fcea 693e 5f75 30bb e543 133c de56 f8bc
00000190: f726 d3bd c8b0 39be 2570 963d ad1f 5f3e
000001a0: 64e5 9e3e a473 15be 018f d4bd efc9 6e3d
000001b0: 1a4c a2bd 5664 2cbe 27a7 1d3d e28b 583e
000001c0: 3aa6 113e 338f 57be 7f38 003d 35ad c7bd
000001d0: f12a 59be c718 d93b 858e 49bd 03b7 5a3d
000001e0: bfdb 3d3d c70a 9abd 9f5c 2f3a b90b 14bd
000001f0: dc94 8c3d 56ac 8dbd 5e1e 603c 9a5e 983d
00000200: eb9a 90bd 3506 1a3e bb22 a4bd 341b c83d
00000210: 6875 ec3d 61dc 9c3d 1a8a db3b caa2 52be
00000220: 71a8 13bd ab64 0bbd b422 35be 4abe 5c3e
00000230: a3f5 7ebd 0a03 5abe 8027 ce3d 8827 6a3d
00000240: fa9b 603d e018 c5be 8ba8 5cbe 7f23 fe3c
00000250: a0d6 5e3d 91df 2c3c 45ea f13c 1d47 6d3c
00000260: 794e b53d 3d2b 04ba 9da7 4f3d 6534 ba3d
00000270: 58b6 8ebd f2d2 3dbe b5ea 54bd 228c 9e3d
00000280: 31a9 f9bd 617c 1bbe 181a 923d 77c8 973e
00000290: d8b9 6a3c 8a2c f0bd 412f c7bd 7e0c d03d
000002a0: c0d2 59bd 34d5 51be 287d 823e 6f13 033e
000002b0: 6e46 ccbd 9cd4 4d3b c5f7 003d 6000 f4bd
000002c0: 947c 873e bfa9 8b3d de8d 5a3e bb40 86be
000002d0: 470f c9bd 1d60 d33d d574 c83d a82d 1fbe
000002e0: 1e13 343e 8936 5a3e 6a67 943c f480 89be
000002f0: 8a4b 4e3e 9cfe 623e 61bd 383c b075 bdbd
00000300: 0828 da3d 22ab d9bb edbf b53e ec83 cc3d
00000310: dfb1 5f3e e9ad 20be 0623 003e a9b7 443d
00000320: 8306 d83d a174 03be c320 43be 99e5 38be
00000330: 4086 763e 6461 17bd fabd 11be 0bd9 a7bd
00000340: b297 26be 0331 2d3e a26e 763d f71a 92bd
00000350: 76f6 4fbe 6eab b93d bb72 85be 093e 94be
00000360: b266 47bd 4026 ddbc b44f 7f3e 0ca8 ba3c
00000370: 8f15 ef3d 6ba9 883e 8f97 74bd 62fc 133e
00000380: 5cf0 b83d 6a9a adbc 3e89 603e f95a 053e
00000390: e3a0 4c3d e443 133d 60c5 babd 3d7b 50bc
000003a0: 2e4f 7e3c e5f3 19bd dbe2 abbd 5052 d93d
000003b0: 3b84 7ebe 66c0 25bd f0a4 febc ca35 ecbd
000003c0: e02f 01be 30d9 5e3e b5b6 6e3d 37dc 1b3e
000003d0: 7ded 76be ff2e 363e 5684 71be a755 86bd
000003e0: 49e1 07be 5367 61bd 0282 723d 42e3 1ebc
000003f0: 50d8 55be e227 21bc 927e 21bd 84b6 ebbd
0.016138563 0.10833679 0.07117675 -0.084863655 0.14825581 -0.04645247 0.06873803 -0.0783134
-0.033347 0.15802445 0.006714247 0.00023587035 0.14073618 -0.2101907 0.24538383 0.15487915
-0.09092671 -0.18920897 -0.009182283 -0.03642078 0.1483029 0.04027909 0.0009712937 0.00091855665
-0.12159273 -0.00016025061 0.07517903 0.0290469 0.054366466 0.118256524 -0.11811549 -0.02527606
0.053815972 0.15089579 0.237697 0.12390442 0.10836714 -0.058082983 -0.21923138 -0.10422614
0.08174005 -0.054673463 0.07587333 0.11791579 -0.08343876 -0.16152057 0.19536074 -0.043599095
0.048401996 -0.15104982 0.25032672 0.39473647 0.3719585 0.18911582 0.07771065 0.048853073
0.1360999 0.042220447 -0.10599896 -0.24056786 -0.29646778 0.01876567 0.055268954 0.15848882
0.08142912 0.0032995574 0.011548076 0.07660337 0.06855199 0.27808693 -0.2253103 -0.1872565
0.06098817 -0.04610365 -0.020774228 -0.0071930485 0.109730996 -0.05093731 -0.043589197 0.10169926
-0.08098869 0.038350612 0.18970369 -0.036217336 -0.0781211 -0.07406604 -0.22466004 -0.20775162
0.20999508 0.16523786 -0.13592754 -0.09360041 0.0038278028 -0.08360174 0.18195836 0.0674571
0.22843546 -0.0026925427 0.008988355 -0.030314859 -0.10310166 -0.18133843 0.073456086 0.21789427
0.31034386 -0.14594895 -0.10378838 0.058298048 -0.079246715 -0.1683515 0.038489487 0.21147111
0.14223567 -0.2105072 0.03130388 -0.097498335 -0.21207787 0.006625268 -0.049208183 0.05339719
0.046352144 -0.07521587 0.0006689522 -0.036143992 0.0686433 -0.06917636 0.013679115 0.07439919
-0.07060798 0.1504143 -0.08014437 0.097708136 0.11545831 0.076592214 0.0066998126 -0.20569912
-0.03604931 -0.03403155 -0.1768902 0.21556965 -0.062245976 -0.21290222 0.10066128 0.057166606
0.05483625 -0.3849554 -0.21548669 0.031022785 0.0544039 0.010551349 0.029530654 0.014482287
0.08852858 -0.00050418434 0.050696958 0.09092025 -0.06968373 -0.185375 -0.051981647 0.07741572
-0.12190474 -0.15184166 0.07133883 0.2964513 0.014326535 -0.11727245 -0.0972581 0.10158633
-0.053179502 -0.20491487 0.25486112 0.12800382 -0.09974371 0.0031407243 0.03148629 -0.11914134
0.26462233 0.06819486 0.2134318 -0.2622126 -0.09817367 0.103210665 0.09787909 -0.1554476
0.17585418 0.21309866 0.018115718 -0.26856196 0.20146003 0.22167438 0.01127562 -0.09250963
0.106521666 -0.006642715 0.3549799 0.099860996 0.21845196 -0.15691341 0.1251336 0.048026714
0.10548117 -0.12837459 -0.19055466 -0.18056335 0.2407465 -0.036958113 -0.14232627 -0.081956945
-0.16268805 0.16913228 0.0601641 -0.071340494 -0.20308861 0.09065901 -0.26064095 -0.2895358
-0.048681922 -0.026995778 0.24932748 0.02278521 0.11674034 0.26691756 -0.05971485 0.14451745
0.0903022 -0.021191794 0.21927354 0.13022985 0.04995812 0.035953417 -0.091196775 -0.012724695
0.015521808 -0.03758611 -0.083928786 0.10611403 -0.2485513 -0.04046669 -0.031084508 -0.11533697
-0.12615919 0.21762538 0.05827971 0.15220724 -0.24114032 0.17791365 -0.23585638 -0.06559306
-0.13269533 -0.05503018 0.059206016 -0.009697737 -0.20883298 -0.009836169 -0.039427347 -0.115094215

bias f4 [100]
00000000: d848 6e3c fff2 953d 40c9 22bc 4001 fcba
00000010: 53b4 973d 1a43 02bd 1aaf 5e3d 539b 62bd
00000020: 0282 86bd e436 0fbd d14b a53d 8004 773c
00000030: db62 ccbd 1bff ae3d a518 883d fe50 4e3d
00000040: 12e6 253d e8eb 743c 80fd 9fba b939 9f3d
00000050: eb7f b4bd b4bf d6bc 2076 a03b baad 19bd
00000060: 8540 93bd 7a16 bbbd 2ac9 adbd 812d 933d
00000070: e8f4 80bd 19ab 8e3d b139 ba3d 36fc 343d
00000080: 5803 98bd 1c7f 08bd 2de9 88bd 67d1 19bd
00000090: 7a84 743d 767a 9ebd d00d 0bbd fbc7 953d
000000a0: c0ef 8b3c 3cfb fe3c 88b0 afbc c030 ef3a
000000b0: 0ef5 523d 5711 5cbd c23a a9bd 4274 073d
000000c0: 8fee afbd 0e79 6f3d 1d06 4cbd 152b babd
000000d0: c021 d8bc b443 8cbc bdde c7bd 6a6c 12bd
000000e0: d359 96bd 77fc ac3d 4c2b cebc e81e 9fbc
000000f0: 7387 2abd a0f1 6bbb e8bc d6bc 20a6 5ebd
00000100: 20f1 983b b824 80bd 080e fabc 3211 9ebd
00000110: 4cee ea3c b054 28bd c6ef 84bd f7ff 933d
00000120: a028 eabb c923 a73d cff5 acbd dc3e d63c
00000130: 0d7c 36bd 3164 9b3d afb0 933d 6d83 963d
00000140: e2c4 80bd b4f4 c53c d9c8 833d b43c a9bc
00000150: e8f2 99bd 838e 48bd 589d 563c 3bca afbd
00000160: c109 843d 4ee7 693d a00b 75bd e164 803d
00000170: 3839 c3bc 3555 c5bd 78da 8dbc fd91 34bd
00000180: 31ac b03d 8546 bebd d4ae 8a3c 7e8c a4bd
0.0145437345 0.073217385 -0.009935677 -0.0019226447 0.07407441 -0.031802274 0.05436621 -0.05532391
-0.06567766 -0.034964457 0.080711015 0.0150767565 -0.09979793 0.08544751 0.066453256 0.05037021
0.040502615 0.014948823 -0.0012206286 0.077746816 -0.08813461 -0.026214458 0.004896894 -0.037519194
-0.071900405 -0.091351464 -0.084856346 0.071864136 -0.06296712 0.06966228 0.09093035 0.04418584
-0.07422513 -0.033324346 -0.066851 -0.037553217 0.059696652 -0.07738201 -0.03394872 0.07313534
0.017082095 0.031125657 -0.021446481 0.0018248782 0.051503234 -0.053727474 -0.0826316 0.033069856
-0.08590423 0.058465056 -0.049810518 -0.090902485 -0.02638328 -0.017122127 -0.09759281 -0.035747923
-0.07341351 0.08446591 -0.02516713 -0.019423917 -0.04163308 -0.0036002174 -0.026213124 -0.054357648
0.004667416 -0.062570035 -0.030524269 -0.077181235 0.028678082 -0.04109639 -0.06491046 0.07226556
-0.007145956 0.08161122 -0.08445322 0.02615302 -0.044551898 0.07587469 0.07211434 0.07349286
-0.062875524 0.024164535 0.06434793 -0.020658828 -0.07517034 -0.048964035 0.013099037 -0.08583494
0.06447173 0.057105355 -0.05982554 0.06269241 -0.023830995 -0.096353926 -0.017316088 -0.044084538
0.08626593 -0.09290794 0.016929068 -0.08034609

weight f4 [100]
00000000: 0000 803f 0000 803f 0000 803f 0000 803f
00000010: 0000 803f 0000 803f 0000 803f 0000 803f
00000020: 0000 803f 0000 803f 0000 803f 0000 803f
00000030: 0000 803f 0000 803f 0000 803f 0000 803f
00000040: 0000 803f 0000 803f 0000 803f 0000 803f
00000050: 0000 803f 0000 803f 0000 803f 0000 803f
00000060: 0000 803f 0000 803f 0000 803f 0000 803f
00000070: 0000 803f 0000 803f 0000 803f 0000 803f
00000080: 0000 803f 0000 803f 0000 803f 0000 803f
00000090: 0000 803f 0000 803f 0000 803f 0000 803f
000000a0: 0000 803f 0000 803f 0000 803f 0000 803f
000000b0: 0000 803f 0000 803f 0000 803f 0000 803f
000000c0: 0000 803f 0000 803f 0000 803f 0000 803f
000000d0: 0000 803f 0000 803f 0000 803f 0000 803f
000000e0: 0000 803f 0000 803f 0000 803f 0000 803f
000000f0: 0000 803f 0000 803f 0000 803f 0000 803f
00000100: 0000 803f 0000 803f 0000 803f 0000 803f
00000110: 0000 803f 0000 803f 0000 803f 0000 803f
00000120: 0000 803f 0000 803f 0000 803f 0000 803f
00000130: 0000 803f 0000 803f 0000 803f 0000 803f
00000140: 0000 803f 0000 803f 0000 803f 0000 803f
00000150: 0000 803f 0000 803f 0000 803f 0000 803f
00000160: 0000 803f 0000 803f 0000 803f 0000 803f
00000170: 0000 803f 0000 803f 0000 803f 0000 803f
00000180: 0000 803f 0000 803f 0000 803f 0000 803f
1.0 1.0 1.0 1.0 1.0 1.0 1.0 1.0
1.0 1.0 1.0 1.0 1.0 1.0 1.0 1.0
1.0 1.0 1.0 1.0 1.0 1.0 1.0 1.0
1.0 1.0 1.0 1.0 1.0 1.0 1.0 1.0
1.0 1.0 1.0 1.0 1.0 1.0 1.0 1.0
1.0 1.0 1.0 1.0 1.0 1.0 1.0 1.0
1.0 1.0 1.0 1.0 1.0 1.0 1.0 1.0
1.0 1.0 1.0 1.0 1.0 1.0 1.0 1.0
1.0 1.0 1.0 1.0 1.0 1.0 1.0 1.0
1.0 1.0 1.0 1.0 1.0 1.0 1.0 1.0
1.0 1.0 1.0 1.0 1.0 1.0 1.0 1.0
1.0 1.0 1.0 1.0 1.0 1.0 1.0 1.0
1.0 1.0 1.0 1.0

bias f4 [100]
00000000: 0000 0000 0000 0000 0000 0000 0000 0000
00000010: 0000 0000 0000 0000 0000 0000 0000 0000
00000020: 0000 0000 0000 0000 0000 0000 0000 0000
00000030: 0000 0000 0000 0000 0000 0000 0000 0000
00000040: 0000 0000 0000 0000 0000 0000 0000 0000
00000050: 0000 0000 0000 0000 0000 0000 0000 0000
00000060: 0000 0000 0000 0000 0000 0000 0000 0000
00000070: 0000 0000 0000 0000 0000 0000 0000 0000
00000080: 0000 0000 0000 0000 0000 0000 0000 0000
00000090: 0000 0000 0000 0000 0000 0000 0000 0000
000000a0: 0000 0000 0000 0000 0000 0000 0000 0000
000000b0: 0000 0000 0000 0000 0000 0000 0000 0000
000000c0: 0000 0000 0000 0000 0000 0000 0000 0000
000000d0: 0000 0000 0000 0000 0000 0000 0000 0000
000000e0: 0000 0000 0000 0000 0000 0000 0000 0000
000000f0: 0000 0000 0000 0000 0000 0000 0000 0000
00000100: 0000 0000 0000 0000 0000 0000 0000 0000
00000110: 0000 0000 0000 0000 0000 0000 0000 0000
00000120: 0000 0000 0000 0000 0000 0000 0000 0000
00000130: 0000 0000 0000 0000 0000 0000 0000 0000
00000140: 0000 0000 0000 0000 0000 0000 0000 0000
00000150: 0000 0000 0000 0000 0000 0000 0000 0000
00000160: 0000 0000 0000 0000 0000 0000 0000 0000
00000170: 0000 0000 0000 0000 0000 0000 0000 0000
00000180: 0000 0000 0000 0000 0000 0000 0000 0000
0.0 0.0 0.0 0.0 0.0 0.0 0.0 0.0
0.0 0.0 0.0 0.0 0.0 0.0 0.0 0.0
0.0 0.0 0.0 0.0 0.0 0.0 0.0 0.0
0.0 0.0 0.0 0.0 0.0 0.0 0.0 0.0
0.0 0.0 0.0 0.0 0.0 0.0 0.0 0.0
0.0 0.0 0.0 0.0 0.0 0.0 0.0 0.0
0.0 0.0 0.0 0.0 0.0 0.0 0.0 0.0
0.0 0.0 0.0 0.0 0.0 0.0 0.0 0.0
0.0 0.0 0.0 0.0 0.0 0.0 0.0 0.0
0.0 0.0 0.0 0.0 0.0 0.0 0.0 0.0
0.0 0.0 0.0 0.0 0.0 0.0 0.0 0.0
0.0 0.0 0.0 0.0 0.0 0.0 0.0 0.0
0.0 0.0 0.0 0.0

running_mean f4 [100]
00000000: 0000 0000 0000 0000 0000 0000 0000 0000
00000010: 0000 0000 0000 0000 0000 0000 0000 0000
00000020: 0000 0000 0000 0000 0000 0000 0000 0000
00000030: 0000 0000 0000 0000 0000 0000 0000 0000
00000040: 0000 0000 0000 0000 0000 0000 0000 0000
00000050: 0000 0000 0000 0000 0000 0000 0000 0000
00000060: 0000 0000 0000 0000 0000 0000 0000 0000
00000070: 0000 0000 0000 0000 0000 0000 0000 0000
00000080: 0000 0000 0000 0000 0000 0000 0000 0000
00000090: 0000 0000 0000 0000 0000 0000 0000 0000
000000a0: 0000 0000 0000 0000 0000 0000 0000 0000
000000b0: 0000 0000 0000 0000 0000 0000 0000 0000
000000c0: 0000 0000 0000 0000 0000 0000 0000 0000
000000d0: 0000 0000 0000 0000 0000 0000 0000 0000
000000e0: 0000 0000 0000 0000 0000 0000 0000 0000
000000f0: 0000 0000 0000 0000 0000 0000 0000 0000
00000100: 0000 0000 0000 0000 0000 0000 0000 0000
00000110: 0000 0000 0000 0000 0000 0000 0000 0000
00000120: 0000 0000 0000 0000 0000 0000 0000 0000
00000130: 0000 0000 0000 0000 0000 0000 0000 0000
00000140: 0000 0000 0000 0000 0000 0000 0000 0000
00000150: 0000 0000 0000 0000 0000 0000 0000 0000
00000160: 0000 0000 0000 0000 0000 0000 0000 0000
00000170: 0000 0000 0000 0000 0000 0000 0000 0000
00000180: 0000 0000 0000 0000 0000 0000 0000 0000
0.0 0.0 0.0 0.0 0.0 0.0 0.0 0.0
0.0 0.0 0.0 0.0 0.0 0.0 0.0 0.0
0.0 0.0 0.0 0.0 0.0 0.0 0.0 0.0
0.0 0.0 0.0 0.0 0.0 0.0 0.0 0.0
0.0 0.0 0.0 0.0 0.0 0.0 0.0 0.0
0.0 0.0 0.0 0.0 0.0 0.0 0.0 0.0
0.0 0.0 0.0 0.0 0.0 0.0 0.0 0.0
0.0 0.0 0.0 0.0 0.0 0.0 0.0 0.0
0.0 0.0 0.0 0.0 0.0 0.0 0.0 0.0
0.0 0.0 0.0 0.0 0.0 0.0 0.0 0.0
0.0 0.0 0.0 0.0 0.0 0.0 0.0 0.0
0.0 0.0 0.0 0.0 0.0 0.0 0.0 0.0
0.0 0.0 0.0 0.0

running_var f4 [100]
00000000: 0000 803f 0000 803f 0000 803f 0000 803f
00000010: 0000 803f 0000 803f 0000 803f 0000 803f
00000020: 0000 803f 0000 803f 0000 803f 0000 803f
00000030: 0000 803f 0000 803f 0000 803f 0000 803f
00000040: 0000 803f 0000 803f 0000 803f 0000 803f
00000050: 0000 803f 0000 803f 0000 803f 0000 803f
00000060: 0000 803f 0000 803f 0000 803f 0000 803f
00000070: 0000 803f 0000 803f 0000 803f 0000 803f
00000080: 0000 803f 0000 803f 0000 803f 0000 803f
00000090: 0000 803f 0000 803f 0000 803f 0000 803f
000000a0: 0000 803f 0000 803f 0000 803f 0000 803f
000000b0: 0000 803f 0000 803f 0000 803f 0000 803f
000000c0: 0000 803f 0000 803f 0000 803f 0000 803f
000000d0: 0000 803f 0000 803f 0000 803f 0000 803f
000000e0: 0000 803f 0000 803f 0000 803f 0000 803f
000000f0: 0000 803f 0000 803f 0000 803f 0000 803f
00000100: 0000 803f 0000 803f 0000 803f 0000 803f
00000110: 0000 803f 0000 803f 0000 803f 0000 803f
00000120: 0000 803f 0000 803f 0000 803f 0000 803f
00000130: 0000 803f 0000 803f 0000 803f 0000 803f
00000140: 0000 803f 0000 803f 0000 803f 0000 803f
00000150: 0000 803f 0000 803f 0000 803f 0000 803f
00000160: 0000 803f 0000 803f 0000 803f 0000 803f
00000170: 0000 803f 0000 803f 0000 803f 0000 803f
00000180: 0000 803f 0000 803f 0000 803f 0000 803f
1.0 1.0 1.0 1.0 1.0 1.0 1.0 1.0
1.0 1.0 1.0 1.0 1.0 1.0 1.0 1.0
1.0 1.0 1.0 1.0 1.0 1.0 1.0 1.0
1.0 1.0 1.0 1.0 1.0 1.0 1.0 1.0
1.0 1.0 1.0 1.0 1.0 1.0 1.0 1.0
1.0 1.0 1.0 1.0 1.0 1.0 1.0 1.0
1.0 1.0 1.0 1.0 1.0 1.0 1.0 1.0
1.0 1.0 1.0 1.0 1.0 1.0 1.0 1.0
1.0 1.0 1.0 1.0 1.0 1.0 1.0 1.0
1.0 1.0 1.0 1.0 1.0 1.0 1.0 1.0
1.0 1.0 1.0 1.0 1.0 1.0 1.0 1.0
1.0 1.0 1.0 1.0 1.0 1.0 1.0 1.0
1.0 1.0 1.0 1.0
